model/VANILLALSTM/LSTM/VANILLALSTM_lstm_model_49.tar (torch, 809783 bytes, 16 tensors)

cell.weight_ih f4 [512, 64]
00000000: 4c46 17bd e259 203d 463b b2bd ab5d 9cbc
00000010: c977 c63d 4879 3cbd 30b4 39bc cd6a 8a3c
00000020: 6221 80bc 7fd5 2fbd ebb5 e53c 3737 223d
00000030: 3036 92bd 537c ab3c e3a3 90ba 59d8 bebb
00000040: 955c 693c d95d 0100 d294 ba3c 9652 fd3b
00000050: 4508 803c 3cb3 283d 43ea fe3c 9a3d f3bc
00000060: aeca 0fbc 9e16 49bb e0d3 1d3c c8f3 8ebd
00000070: 0cec 3b3d 6935 8a3d 910c 3e3d e2d0 11ba
00000080: 0c33 06bb fc20 173d 1494 59bd db6f 0dbd
00000090: 2dc6 483d 42c7 8fbc 7012 963d 8f7d 083d
000000a0: f78a 883c f933 6cbc 3cd1 81bc 2c23 be3b
000000b0: 80d2 4dbd c28f bb3d 6a38 4a3b 2f9e bebb
000000c0: 0de4 743d 9a08 af3c 4aca 6539 5e5b 8a3c
000000d0: bae7 503c 5233 053d ed50 1a3d 9b9e 513d
000000e0: 6e88 c8b9 cee0 49bd 3540 043b fc36 463b
000000f0: 450d f53d ecff a03c 29d5 f2bc fb85 ab3d
00000100: 8b76 e3bc d42a 66bd 770b 70bd 9bec 72bb
00000110: e672 943c d037 d63c 3100 eebc 1f67 8c3d
00000120: c32b 91bd 182d 4abd aee6 543d 5397 b83d
00000130: 3dd6 1abd cf47 a53d 4019 243d 3513 e2bd
00000140: e72b 2a3c 9f94 0080 ee04 fd3c 933f e73c
00000150: 9a42 69bd 0a88 3dbd 664b fabc 1e1e 3c3d
00000160: 35dd 3cbd a270 0b3d a989 c13d bdb8 03bd
00000170: d1a4 b8bb 30ce debc 40e3 36bc 6682 0dbe
00000180: 4eba f3ba fc93 6fbc 9913 2e3d c53c 17bd
00000190: e2bb 54bd f866 863d bfd5 f13c 2873 af3d
000001a0: eaf1 56bc 5ffa 8bbc bb67 bc3d 1c42 693b
000001b0: 63ee 91ba d80f 07bd c2e1 253d f3e5 63bd
000001c0: ccfd babc b387 f2bc 6ff4 7aba 813a b6bb
000001d0: 345e 1fbc 65e3 31bd f4bc d7bc 0e6a 37bc
000001e0: b405 053d 8ddb 9a3d b56d bf3d 7d4e 6ebd
000001f0: 469a 073c e1e1 cabd 2832 573c 9f8b bd3c
00000200: 2d33 0f3c cb57 8ab9 0a9d 0abd e465 2a3c
00000210: 49e7 4d3d 3632 ff3a f164 183c af7a bebc
00000220: 6c76 5ebd 35ee a5bb 81bf 0a3e 78ce 403d
00000230: 5a07 193c ab55 08bd b894 3dbd e27b 01bd
00000240: b98f 143c dfdf 0080 012b e3bc 3959 f8bc
00000250: 2131 19bd 8cc7 9bbc 530f 49bd ceeb 30bc
00000260: 1a63 86bc 644d b5bc ad8a 113d 56fe 3e3c
00000270: c052 69bb 3f32 823b 890a c7bc 326a 62bd
00000280: 3659 7e3d 66b0 483c 82e8 e7bc 9080 acbd
00000290: 3fec 063e 13ec ca3b 1742 4cbd 8c41 1b3d
000002a0: 58ac 81bc 4484 2dbd 643e b23c e00a dbbc
000002b0: bd2a 963b 55d7 03bc ecc5 ddbc bc8d 30bc
000002c0: 0d8a 07bd 0f12 69bc 6e66 1e3d 6ea9 d03c
000002d0: a4c3 943d 6e5e 44bd f965 14bd 2a10 af3c
000002e0: a0a3 f8bc 1df8 13bd fadc f03c cfb4 ffbc
000002f0: 8565 0d3d 1966 c33c 1d5a c63c dbd2 4e3c
00000300: 8bdd 9f3d 01fa 0d3e de20 4d3d a51d 6fbd
00000310: 0dd5 a03d 9936 6cbc ff05 7abc 8847 923d
00000320: d99f afbc 02ac 6b3c 1aba ed3d b3c7 8ebd
00000330: 002c 413d f9a5 2b3a 834f 2f3b 5502 efbc
00000340: 8891 943d 2e7b 0180 80ed 0c3d 3e56 e3bc
00000350: 9452 263d 2b2f 403d 8afa d4bc 7cfc 8dbc
00000360: da59 513c 8096 ee3b 9303 d93d c984 803c
00000370: 4e36 dbbc df6c f0bb 9336 1a3c a759 ecbc
00000380: 9f6a 1f3d 60f9 943c 8c68 adbc 4c03 123e
00000390: 5f5a 7a3d ca5e 943c 5d70 acbc 53a2 35bd
000003a0: ab3f 123e 7921 0a3e 09b8 a0bd c6bb f3bc
000003b0: eddc 0fbd bb6d b3bc 8b58 b3bc c68b 293c
000003c0: dc6f 45bd 0f2a 473c 8c16 8fbd 37aa 97bc
000003d0: 1b35 f5bc 5c9c b6bc 47e7 41bb 2204 f7bc
000003e0: 0c08 51bd be33 7c3d 8b73 803d c411 0e3d
000003f0: 12b7 d7bc 6376 d2bc 6ba4 113d 70f7 cd3d
-0.036932275 0.03914822 -0.08702712 -0.019087633 0.09690816 -0.0460141 -0.011334464 0.01689663
-0.015640918 -0.042928215 0.028040847 0.03960344 -0.07139242 0.020933306 -0.001103517 -0.0058241305
0.014243265 1.25502e-40 0.022776041 0.0077307923 0.015628943 0.041186556 0.031117564 -0.02969246
-0.00877635 -0.0030683647 0.0096330345 -0.06980091 0.04587941 0.067484684 0.046398703 -0.0005562437
-0.0020477204 0.03689669 -0.053119734 -0.0345305 0.04901712 -0.017551068 0.073277354 0.033322867
0.016667826 -0.014416688 -0.015846841 0.0058025327 -0.050249577 0.09158279 0.003085638 -0.005817197
0.0597878 0.021366406 0.000219145 0.01688927 0.01275056 0.032519646 0.037674833 0.05117665
-0.0003824862 -0.049286656 0.0020179872 0.0030245176 0.119654216 0.019653283 -0.029642658 0.08375164
-0.027766487 -0.056193188 -0.058604684 -0.0037067297 0.018121194 0.02614966 -0.029052826 0.06855606
-0.07088425 -0.04935941 0.051977806 0.09013238 -0.03780197 0.08070337 0.040063143 -0.1103882
0.010386444 -5.3315e-41 0.03088614 0.028228557 -0.05694828 -0.046272315 -0.03055353 0.04592716
-0.046109397 0.034042962 0.09450085 -0.032158602 -0.005634882 -0.027197927 -0.011162579 -0.13819274
-0.0018594952 -0.014622685 0.04249916 -0.03692319 -0.05193699 0.065626085 0.029520867 0.08566886
-0.0131192 -0.01708716 0.091994725 0.0035592383 -0.0011133667 -0.032974094 0.040498503 -0.05563922
-0.022826098 -0.029605722 -0.00095731666 -0.0055611734 -0.00972705 -0.04342975 -0.026335217 -0.011194719
0.032476142 0.07561407 0.09347097 -0.05818032 0.008276528 -0.09906364 0.013134517 0.023137866
0.008740229 -0.00026386822 -0.03384117 0.010400269 0.0502694 0.001946992 0.00930141 -0.02325186
-0.054312155 -0.005063797 0.13549615 0.047071904 0.009340132 -0.033284824 -0.046284407 -0.031612284
0.009067469 -8.031e-41 -0.027730467 -0.030315982 -0.03740037 -0.01901605 -0.04908688 -0.010798408
-0.016404677 -0.02213163 0.035532642 0.011657318 -0.0035602301 0.003973275 -0.024297016 -0.055277057
0.062096797 0.012249088 -0.02830911 -0.08422959 0.13176058 0.006192693 -0.049867716 0.037904307
-0.01582925 -0.042362466 0.021758266 -0.026738584 0.0045827315 -0.008046945 -0.027071916 -0.01077598
-0.03309064 -0.014225497 0.038671903 0.025471415 0.07263878 -0.047941618 -0.03623006 0.021370012
-0.03035146 -0.03612529 0.029402245 -0.031214146 0.034520645 0.023852395 0.024212891 0.012623514
0.07805928 0.138649 0.050080173 -0.05837788 0.07853136 -0.014417314 -0.015260219 0.0714255
-0.021438526 0.014384272 0.11607762 -0.06971683 0.047161102 0.0006547864 0.0026750274 -0.029175917
0.072543204 -1.36024e-40 0.034406185 -0.027751084 0.040606096 0.046919983 -0.025998373 -0.017332308
0.01277777 0.0072811246 0.10596385 0.015688317 -0.026759293 -0.007337197 0.009412426 -0.028851343
0.03892004 0.018185318 -0.021168016 0.1425907 0.06112134 0.018111605 -0.021049673 -0.044344258
0.142821 0.13489331 -0.07847602 -0.029752623 -0.0351228 -0.02190291 -0.021892807 0.010348266
-0.04820238 0.012156024 -0.06986722 -0.018513782 -0.02993255 -0.022291355 -0.0029587315 -0.030153338
-0.051033065 0.061572783 0.06272038 0.03468491 -0.026332412 -0.025691217 0.03555719 0.100569606

cell.weight_hh f4 [512, 128]
00000000: 4641 ec3c fd95 71bc abcd 443d 024b e83c
00000010: 7f99 86bc 9e54 143d d21e 05bc 0e6b 09bd
00000020: a1f6 86bd 8778 a8bd 15f0 65bc ff0b 08bd
00000030: f45d 34bd df7d e53c 31b9 92bd 3170 9fbb
00000040: b1cc c13c f7b6 013d 6cda 4f3d 914f 44bc
00000050: 1c18 a03c b016 a23d 7744 173d bd6e 16bd
00000060: f6c2 47bd 8a49 78bb 9da4 a73a 4e96 023d
00000070: c340 e4bc 92af 0ebd 7e5c 4ebc cf63 e83c
00000080: 56ea 983c c1ad ee3c 0bd4 31bc 7447 cbbc
00000090: 4992 e4bb 2618 313d 1cf4 90bb 9ca1 003c
000000a0: c7dc 393d 55f6 6d3d b657 7b3c 6dee 83bc
000000b0: 9422 653c f8e6 5cbd 990f 5b3d 745f 09bc
000000c0: bfa7 bbbc a4cb 593d 6694 9d3d 751d 39bd
000000d0: ebc2 933c 5221 14bd eee1 a53b 6c03 5b3c
000000e0: 84c8 073c ff75 5f3d 9706 6bbd 5407 a93c
000000f0: a655 33bc c5d3 debd 10c5 2c3c 21e3 aa3c
00000100: cf34 22bd e51f 41bc 165d 603d 0de3 913c
00000110: 6c21 0cbd 6206 143c 7360 213d 7e6b 4b3d
00000120: e912 f03a 8d00 c3bb 3214 a03c 514a ecbc
00000130: b02a c13c b5cf 38bd d3c4 50bd a3e2 8d3c
00000140: bd7f 39bb a844 a1bc 8be2 68bd c5d7 423d
00000150: 5f71 cbbc a760 663d 080b 52bb 169a 843d
00000160: 7749 8f3c e6c6 c23c b3e3 16bd 6ac3 c1bc
00000170: 2de3 313d 0b7a 523a bcaa fdbc e7c9 80bc
00000180: 2ea4 8ebc 76c2 173c 50a5 f0bb caa7 583b
00000190: 3184 3e3c dbaf 79bd cb0c 813d 82c6 88bc
000001a0: 175b 193d 84ab 813c 1f87 13bd 7696 d33c
000001b0: c119 8dbd 6c6e 6dbd 1cf8 cf3a 7d0f 833c
000001c0: 2af9 053d 42fd 82bc 9908 1c3d 782b d73c
000001d0: e2cc b13a d95a 083c b052 b7bc 19df 16bd
000001e0: a5df 0f3d 2c4f 3d3c 6ec6 5f3d 7a58 5cbc
000001f0: 3022 b73c 4a2c 023d e679 56bd 0b73 453d
00000200: 8e18 313d 08df 6ebd 0bcb 6bbd f0ac 9dbc
00000210: 26f2 62bd d4ff 843c 0040 cd3b f3ac 6cbc
00000220: a33f f3bc 6e1d b1b9 e616 423c ed40 08bd
00000230: 1073 94bc 4ac4 213d 5a90 58bd 7b01 d6bb
00000240: 1afb ce3a b497 0dbd a262 133d 11b2 223d
00000250: a814 f5bb c4dd a93d 22ba 953d a2d7 febc
00000260: 20e1 e0ba 2ac9 513c 726b 303d f11c 703d
00000270: 49c7 26bd fd65 4bbd 00b5 353c a06c 2dbd
00000280: 225c 993d e16e 1abd a024 833d 62b5 543c
00000290: a94c a33c 4ab6 093b fde5 44bd 9e85 18bd
000002a0: 038a 803c e179 693c 7532 6ebc d4a2 52bd
000002b0: c68b c03c 009b 06bd 5387 203d a670 2b3b
000002c0: 75f9 73ba 3247 6fbd 3106 003d 8ec3 d13d
000002d0: 3aa4 8bbc be4a f1bb 1cd0 f33c 2437 9bbd
000002e0: 4922 393d 07b1 503d 1729 a0bd bce7 27bc
000002f0: 5098 ad3c 9b27 9abd be1b 073b 5243 84bc
00000300: 5d85 1c3c db43 8c3c 7098 79bb 5dd1 813d
00000310: 151c ce3a 3432 593d ca4a f53c 3e64 67bd
00000320: c986 563c 88da 323c d240 2bbd ed4c 9fbc
00000330: 8245 5ebb 5b45 13bd 5541 86bc 0657 903c
00000340: aeb2 433b 9388 8c3b fcac 4f3c cffd 5fbd
00000350: 1aed a93c a8fd 2f3b 397d 55bd 884a c23c
00000360: 9686 e63c a09b 8fbc 483c 453d 2f0e 0ebd
00000370: 302b 3d3d 5aad 45bd bc3e ddbb 0d10 153d
00000380: 5afd 493c ea4c 60bc e80d 7abc bb15 d8bc
00000390: c4e4 693a 4ccc 8fbd 25e9 cd3b a1af febb
000003a0: f957 28bc 8023 a43c eb11 3a3d 6b8c 883c
000003b0: 8a6a f03c d5cd 10bd 1f6b 20bd 3f84 43bd
000003c0: cfa0 0ebd a812 7fbd 6151 6a3d 79cf 363b
000003d0: a450 8ebc 390c 8d3c 6d5e 4b3c cb76 17bd
000003e0: 5acc 3fbc 8056 8c3c a18a 193d 7deb 9fbd
000003f0: 386a 75bc 2db1 043d 2322 11bd 5f38 9abc
0.028839719 -0.014745233 0.048047703 0.028356079 -0.016430615 0.03621351 -0.008125024 -0.03354936
-0.065900095 -0.08226114 -0.014034291 -0.033214565 -0.044034913 0.028014122 -0.07164229 -0.004865669
0.023657175 0.03166863 0.050745413 -0.011981861 0.019542746 0.079144835 0.036930528 -0.036726702
-0.048769914 -0.003788563 0.0012790147 0.031881623 -0.027862912 -0.034835406 -0.012595294 0.028367905
0.018666428 0.029135587 -0.010853778 -0.024814345 -0.0069754464 0.04323592 -0.0044236314 0.007851031
0.045376565 0.05809625 0.015340736 -0.016104901 0.013985295 -0.053931206 0.053481672 -0.008384574
-0.022907136 0.053172722 0.076943204 -0.045194108 0.01803728 -0.03616459 0.0050623333 0.013367515
0.008287553 0.05455589 -0.05737933 0.020633377 -0.010945713 -0.108802356 0.01054503 0.020860257
-0.039601143 -0.011787389 0.054776274 0.017808462 -0.03421156 0.009034725 0.03939862 0.04966306
0.0018316183 -0.0059509934 0.01954088 -0.02884403 0.023579925 -0.04511996 -0.050968956 0.017319983
-0.0028304898 -0.019686058 -0.056856673 0.047569055 -0.024834333 0.05624452 -0.0032050032 0.06474702
0.017491085 0.023776483 -0.036838245 -0.023652751 0.043429542 0.000802905 -0.030965202 -0.015721275
-0.017412271 0.009262672 -0.0073439255 0.0033058994 0.011628197 -0.060958724 0.06301268 -0.016696218
0.037440386 0.015828855 -0.036017533 0.025828581 -0.06889678 -0.057966635 0.0015866789 0.015998596
0.032708324 -0.015989903 0.038094137 0.026265845 0.0013565088 0.008322441 -0.022378296 -0.036833856
0.035125393 0.011554521 0.054632597 -0.013448829 0.022355169 0.03178052 -0.052362345 0.048205417
0.043236308 -0.058318168 -0.057566684 -0.019247502 -0.055406712 0.01623527 0.006263733 -0.014445531
-0.02969343 -0.00033781998 0.01184628 -0.033265043 -0.018121272 0.039493836 -0.05287204 -0.006530938
0.0015791387 -0.034568503 0.035982735 0.0397206 -0.007479269 0.082942516 0.07310893 -0.031108681
-0.0017156936 0.012804309 0.043071218 0.05862135 -0.040717397 -0.04965781 0.011090517 -0.04233992
0.07488276 -0.0377034 0.0640347 0.012982698 0.019934015 0.0021013194 -0.048070896 -0.037236802
0.01569081 0.01425025 -0.014538397 -0.051424816 0.02350415 -0.032862663 0.039191555 0.0026159673
-0.00093068863 -0.058417507 0.031255905 0.10242377 -0.017046083 -0.0073636463 0.02976232 -0.075788766
0.045198712 0.050950076 -0.07820337 -0.010248121 0.021190792 -0.075270854 0.00206159 -0.016145382
0.009553281 0.0171222 -0.0038085245 0.06338761 0.0015724922 0.053026393 0.029942889 -0.056492083
0.013093659 0.01091636 -0.041809864 -0.01944586 -0.0033915942 -0.035954814 -0.016388575 0.017619621
0.002986114 0.004288742 0.01267552 -0.05468541 0.020742942 0.0026854072 -0.052121375 0.02371718
0.028140347 -0.017530262 0.04815319 -0.034681495 0.046183765 -0.048261024 -0.0067518633 0.03639226
0.01232847 -0.013690213 -0.015262105 -0.02637755 0.00089223334 -0.070213884 0.0062838965 -0.0077724014
-0.010274881 0.020036459 0.045427244 0.016668519 0.029347677 -0.035352547 -0.03916466 -0.04773354
-0.034821328 -0.06227365 0.057206515 0.002789466 -0.017372437 0.017217742 0.01241265 -0.036978524
-0.011706436 0.01713109 0.037485722 -0.07808588 -0.014978938 0.03239553 -0.035432946 -0.018825708

cell.bias_ih f4 [512]
00000000: f748 d43d c2b3 223c 84b2 76bd 8bd6 a33d
00000010: eb3f 013d 4922 dc3d 7c86 be3d 5a45 62bd
00000020: 87cc 533e edd7 54bd bfd5 fd3c 6f5f 02bd
00000030: e610 523d ce1c 28bd fd95 a7bc 4061 adbb
00000040: 9078 f53c 2fc7 023e ee89 093e a938 7d3e
00000050: fdfb 1d3b c54d b43d c538 303e 1e0c 4a3e
00000060: fbf5 12bd 6c50 c13c 5e5b 703d 8f45 513d
00000070: 95a1 b33d 5514 b33d 963a 863c f8b4 ea3d
00000080: dd63 74bd 8d4c 773b cdce b63c e090 83bd
00000090: ea55 543b da4c 003e aead 393d 6e99 82bd
000000a0: 864b bd3d e41e 043e eb48 dd3d 07d3 103d
000000b0: c31f 253d bc61 083e 3d4d 17bd 4de1 a8bd
000000c0: dcf5 a73d fe7f 603d 92f9 003e d2f4 533e
000000d0: 28ed 59bd 37c7 d63d 8dec a4bc 5f24 a73b
000000e0: 622e 1b3e 8041 7abc cff5 083e c12f d03d
000000f0: d748 673e 8b67 53bc 0b24 b33b d173 4d3e
00000100: 0c19 f83b 4b2d e1bc 3645 aabc 7148 c6bb
00000110: a238 c03d 00bc c43b cc56 153d d637 a5ba
00000120: 5aa5 163d 2dbf 953d c5e8 993e f020 f33d
00000130: 2dbb 373e e760 31bd 2f85 9dbd dde9 fe3d
00000140: 52f0 4abc fde8 f23c 9054 4d3d c7f9 003e
00000150: fc33 e73b 07e8 f5bc 9e79 5e3d 24c2 ef3c
00000160: df96 893d 4579 8eba f09c a83d ba49 4b3e
00000170: 8036 91bd 8c44 13bd 0a83 383e ca10 53bc
00000180: 5ffe b5bd 2e03 3abd d5ae a13e 1d4e 2c3b
00000190: ec02 403d 951d 163d d0b9 f53b bab0 69bd
000001a0: fa51 273e 2f4c 2d3d 3068 943e 997e 6c3d
000001b0: 515f 5b3e 8825 96bd 4798 003e 7576 a43c
000001c0: 600d 063e e1f2 583d 2f91 dc3d 7038 12bd
000001d0: 185b 94bd b7e0 293c 6798 c93d ffd3 1a3e
000001e0: bf4b 6a3d ca9e b73d e50e a83d 7598 633e
000001f0: c32a 8fbd 0984 3e3d c7d1 193d 03c5 c2bb
00000200: d5d1 da3b 3b84 8fbd 63e8 eb3b fe03 b2bb
00000210: 0a72 1cbd be3f 24bc 7501 743d 9db9 e23c
00000220: 7eeb 323d f107 ea3b 13e7 8bbd 2457 c2bc
00000230: b6da cfbc 9e25 a43d 681b 8e3d e255 fe3c
00000240: aab3 543d c21a 80bc efcf 353d 3d9c 913d
00000250: 61d5 90bd 5968 e03d e958 b03d 4db4 3cbd
00000260: 7e60 3b3d b5ab 97bd 83c5 eb3c 1b1f 613d
00000270: a0cb 82bd 9e39 213b 8489 07bd 3561 2cbd
00000280: 8d01 f4bc 3227 893d 7426 5bbd e0d4 d53b
00000290: 42c7 3e3c 83cb 433d 5cf3 f43d a849 debc
000002a0: eadc 38bd 894d e93b 21be fcbc ba50 a3bc
000002b0: b73a 733d 08a3 13bd 9dca b2bd 0ea2 78bc
000002c0: 4894 9b3d 79e6 8f3d 2626 88bd b1ef f8bb
000002d0: 24a5 95bd 1f65 333d 5164 b4bc 017a 3fbd
000002e0: 392d e23d a271 913c 246a 523d dfee fb3a
000002f0: afc0 cf3d 6a03 fb3c 16aa 79bc b645 8c3d
00000300: 4e70 05bd 3f96 92bd b323 983c b3e0 993d
00000310: 861f dfbb cd71 b6bc 4379 8c3d b6fb 2d3b
00000320: 8094 4c3d ff74 22bd 4267 6d3d 3fd0 b63c
00000330: 5bc6 c6bc d52f babd 3436 553d af24 d1bd
00000340: ac99 743d 588d 033d fb18 91bd ea5a c1bd
00000350: 2d9e c3bc 8f1c 003d 8c73 673d a796 273d
00000360: b261 aabd b740 a8bd 5db5 afbc 5e43 f3b9
00000370: c5f5 1f3d 9040 43bd ee7b 443d b799 7ebd
00000380: 3798 a43c 5f39 1abc a5ae 1a3e b4ea 663c
00000390: 166b 083c 9f2d d13c 708a b33d 50d0 6dbd
000003a0: fbc4 3cbd 1491 df3d 187f 763d 8470 fd3d
000003b0: 7fc1 05bd 23af 5ebd 52d2 2d3d 8b8f a5bc
000003c0: bd95 a73d 0886 363d 41d4 f23c 849d 123d
000003d0: af8a 9d3c dc52 a0bc ad53 483d eef2 45bd
000003e0: a0b7 123d 981e 16bd 5eb4 08bc 306c 2e3b
000003f0: 34e8 00bd 836b 12bd b29c 55bd 3c85 91bd
0.103654794 0.009930553 -0.06022884 0.07999905 0.031555098 0.10748727 0.093029946 -0.05524192
0.2068349 -0.051963735 0.030985711 -0.031829294 0.051285647 -0.041043095 -0.020457262 -0.005291134
0.029964715 0.12771295 0.13431522 0.24728645 0.0024106496 0.08803896 0.17209156 0.19731185
-0.035879117 0.023597918 0.058680885 0.051091727 0.08771054 0.087441124 0.016385358 0.11460298
-0.05966555 0.0037734837 0.022315407 -0.06424117 0.0032399842 0.12529317 0.04533165 -0.06376921
0.092429206 0.12902409 0.108049236 0.0353575 0.040313493 0.13318533 -0.036938895 -0.08246098
0.08201191 0.054809563 0.12595204 0.2069886 -0.053204685 0.10487216 -0.020132327 0.0051007713
0.15154412 -0.0152744055 0.13375019 0.10165358 0.2258638 -0.012903105 0.005466943 0.20063712
0.007571345 -0.027487418 -0.020784955 -0.006051116 0.09385802 0.0060038567 0.03645973 -0.0012605141
0.036778785 0.073118545 0.30060402 0.11871517 0.17942496 -0.043305304 -0.076914184 0.1244695
-0.012386398 0.029652113 0.050129473 0.12595282 0.0070557576 -0.030017866 0.054315202 0.029267378
0.067182295 -0.0010869881 0.082330585 0.19852343 -0.07090473 -0.035954043 0.18018737 -0.012882421
-0.08886408 -0.04541319 0.315787 0.0026291676 0.046877787 0.036649305 0.007498957 -0.057053305
0.16339865 0.042308982 0.2898574 0.05773792 0.21423079 -0.07331377 0.12558089 0.020076016
0.1309104 0.052966002 0.10769879 -0.035698354 -0.07243937 0.010368518 0.098435216 0.15119933
0.057201143 0.089658335 0.08205966 0.22226126 -0.06990578 0.046512637 0.037553575 -0.005943896
0.006677846 -0.07007643 0.0071993335 -0.005432605 -0.038194694 -0.010024963 0.059571702 0.027676398
0.043681614 0.00714206 -0.06831183 -0.023723193 -0.025372844 0.080149874 0.06938821 0.031046811
0.051929154 -0.01563776 0.044387754 0.07109878 -0.07071949 0.10957403 0.08610708 -0.046070386
0.04574632 -0.074057974 0.028780704 0.054961305 -0.06386495 0.0024600993 -0.03309013 -0.04208489
-0.029785896 0.06696929 -0.05350347 0.006525621 0.011644186 0.047801506 0.119604796 -0.027134731
-0.045132555 0.0071198386 -0.03085238 -0.019935954 0.059382167 -0.03604415 -0.08730052 -0.015175356
0.07596642 0.07026381 -0.06647901 -0.007596933 -0.07306889 0.04379761 -0.02202049 -0.04674721
0.11043782 0.01775438 0.051370755 0.0019220969 0.10144173 0.030641276 -0.015238306 0.06849234
-0.032577805 -0.071575634 0.01857171 0.07513561 -0.006809178 -0.022271061 0.06859066 0.0026547736
0.049946308 -0.039662357 0.057959802 0.022316096 -0.024264505 -0.090911545 0.052053645 -0.10212075
0.059716865 0.032117218 -0.07084843 -0.094411686 -0.023879135 0.031277236 0.05650668 0.040915158
-0.08319415 -0.082154684 -0.021448785 -0.00046398764 0.039052743 -0.047668993 0.04796975 -0.062158313
0.020092113 -0.009413092 0.15105684 0.0140940435 0.0083263125 0.02553445 0.08766639 -0.05805999
-0.046086293 0.10916343 0.0601798 0.12374976 -0.032655235 -0.054366242 0.042436905 -0.020210048
0.08182857 0.044561416 0.029642226 0.03579475 0.019231169 -0.01957076 0.048907924 -0.04832738
0.03581965 -0.03665027 -0.008343784 0.0026614778 -0.031471446 -0.035747062 -0.05215139 -0.071054906

cell.bias_hh f4 [512]
00000000: 49b2 863d 483e 0b3e 1a5e 5abd 4ebc 143e
00000010: dab7 b13d d0c9 323e e130 8c3c ead0 65bd
00000020: 4b85 213e 148b 8f3c f0c7 9c3c 1897 c3bd
00000030: 172f 84bc f124 9dba b083 ec3c 2d6e 24bc
00000040: b594 80bd 181c 193e 8711 b93d 75ff 213e
00000050: a2d6 abbd f5ce 363e c2bc 293e 6c83 003e
00000060: 2f08 84bd a139 9dbd 3f2e 923d 04ae 4b3b
00000070: 5126 083d 09b9 923d bca6 543d 8963 503e
00000080: f5d5 353d ce8f 8bbd 802c b73d 499d 98bd
00000090: da22 a1bc b5e5 4f3e 5a00 883d 6ca1 d93c
000000a0: 568d 6f3d 35cf a8bb 8cc6 a93d 42c8 ca3d
000000b0: a2db df3d 00b9 0c3e 5989 7c3d 0d5e a33b
000000c0: d985 2e3e e33a 133e 97da 663b dbe9 273e
000000d0: fc0d 95bd 4e72 103e 1b32 693d 601e c63c
000000e0: f102 5f3e d279 3fbd b66d 283d a1d4 e73d
000000f0: 343a 403e c7be 2b3d ac78 f43b 1c21 433e
00000100: 19a0 f8bc 55eb 903d e0f6 62bd f37d e93d
00000110: bf87 56bd c751 be3c a955 2d3c 1bce 55bc
00000120: 40e4 e03d 6c09 87bd 7239 a03e 39ac 633e
00000130: b30b 103e 8617 89bd 5bac 8abd 43ef 943d
00000140: 9719 dd3d dbbd fcbc f97c 703d 26f5 04bc
00000150: 575e 683d f302 003d 3738 98bd dcf0 f53c
00000160: ee3d 013e 15d0 ea3b 2478 bd3c 3960 fb3d
00000170: 3c5a 8bbd eaef 59bb 3b8c f93d f5e1 93bc
00000180: 4102 af3c 100d 163d ad19 633e 391b 083e
00000190: e25d 4abd bbaf 8c3d 5395 113e 06f7 cfbb
000001a0: 0a81 313e 4138 c23d 6a13 363e fe06 bd3d
000001b0: 89b1 403e 1d3d cabc 17eb b33d f83b 7e3d
000001c0: d046 dd3d 1684 973d 8c21 ef3d 3259 68bd
000001d0: 4cab 2fbb 40cb 583d 862c 433e ec2b 183e
000001e0: f8b0 4d3c 1501 693d 0cca 863d de98 153e
000001f0: 4ca0 97bb d629 343d 6630 b13d b25f 69bd
00000200: e8e0 a0bd 30f6 d8bb 150c 7d3d efba f6bc
00000210: f943 123d c426 573c 7b2b 95bc 1908 8fbc
00000220: 54a1 803d 1b11 06bd 149d 143d e081 51bd
00000230: baf2 7dbd 2e85 18bb ae30 873d 1632 61bd
00000240: 8556 02bd 7f38 5ebd 123b 6ebd b468 343d
00000250: 1e2f 3b3d bb61 8d3d 0205 a63b 9be5 e3bb
00000260: 1506 f2bb 275f 90bd 8155 ea3c 1549 83bd
00000270: be5d 1a3d 0c52 e33b 0fd2 3fbd 716e 003d
00000280: 4bf7 823d ca90 c8bc e9a9 99bd 62a3 dfba
00000290: dc36 dabc f271 9b3d a9ab 773a 7b9c 773d
000002a0: 1fef db3a c478 153d 93eb ca3d eb66 87bd
000002b0: 0b3c b03d 2ba5 f83c c422 773d bcb8 623c
000002c0: efdb 07bd 628a 5fbd 3439 5dbd c2ce e03d
000002d0: 51c8 df3c cb14 183d 5c5b 87bd ec80 3cbd
000002e0: 03d9 723d ba60 753d 5927 803c b0e0 f1bc
000002f0: 348c 49bc ae89 273c 7ef4 6bbc a4a7 3d3c
00000300: f87c 56bd d77c 813d f41a 253d ce70 9a3c
00000310: 341b 353d 566f b53c 044f 8fbd 8d22 76bd
00000320: 840f 35bd b1eb 143d e38c b43d 27bf 0d3c
00000330: e4df c2bd 83dd 38bd 9b0b 523c aa4b 1c3d
00000340: f05f a63d 20ce 1ebd 1914 51bc 0754 b6bd
00000350: 9023 523d 7a17 223d fd2f bb3d c539 8d3d
00000360: c15e 063d 1e0f 453d c5c6 11bd 0aaa 2f3d
00000370: ba91 ee3c a6f0 81bd a899 e73c 727c 8bbd
00000380: 3696 46bd e55f 11bd 9b8d 0c3e 8289 cabc
00000390: cf1c b73b 06b7 693d 3482 943d e87f 3dba
000003a0: a613 993d 2df1 093d 14e8 013d 7ba5 693d
000003b0: 5518 223c 7e3e 80bd 00f9 193d 8972 2fbd
000003c0: 7e2c 94bc 9fb5 62bd 1c3d f13c 1856 ebba
000003d0: d4c4 62bc c8c9 a7bd db27 a33d 1cec bd3c
000003e0: 2047 cabc 52fd c3bc a980 f43c 1673 a1bc
000003f0: 66be 903b f416 3e3c 3472 c83d 8614 4dbd
0.06576974 0.13597977 -0.0533124 0.14524958 0.08677645 0.17459798 0.017113151 -0.05610744
0.15773503 0.017522372 0.019138306 -0.09550303 -0.016135735 -0.0011989159 0.028871387 -0.010036034
-0.062783636 0.14952123 0.09036546 0.15820105 -0.08390547 0.17852385 0.16575912 0.12550133
-0.064468734 -0.076770075 0.07137727 0.0031079063 0.033239666 0.07164199 0.051916823 0.2035047
0.0443935 -0.06814538 0.089440346 -0.07451875 -0.019669939 0.2030247 0.06640692 0.02656623
0.058484398 -0.005151654 0.08289823 0.099014774 0.109305635 0.13742447 0.061654422 0.004985577
0.17043246 0.14377932 0.0035225505 0.16397803 -0.07278058 0.14106104 0.05693255 0.024184406
0.21778466 -0.046747036 0.041120254 0.113198526 0.18772203 0.041929986 0.0074606743 0.19055599
-0.030349778 0.07076136 -0.05541122 0.11400976 -0.05237555 0.023232354 0.010579505 -0.013049628
0.10981035 -0.06593594 0.31293827 0.22233666 0.14066963 -0.0669394 -0.067711554 0.07272198
0.107958965 -0.030852249 0.058712933 -0.008115089 0.056730594 0.031252813 -0.07432597 0.030022077
0.1262128 0.0071659186 0.023128577 0.122742124 -0.0680432 -0.0033254572 0.1218495 -0.01805208
0.02136338 0.03663355 0.22177763 0.13291635 -0.04940594 0.068694554 0.14217119 -0.006346586
0.17334381 0.09483386 0.17780843 0.09229849 0.18817724 -0.024687344 0.08785074 0.06206891
0.10804522 0.0739824 0.116763204 -0.05672569 -0.0026804982 0.05292821 0.19059953 0.14860505
0.0125544 0.056885798 0.06581506 0.14609095 -0.004627263 0.04398521 0.086518094 -0.056976028
-0.078553975 -0.0066211447 0.0617791 -0.030118434 0.035709355 0.013131801 -0.01820921 -0.017459916
0.06280771 -0.032731157 0.036282614 -0.05114925 -0.06199906 -0.002327274 0.06601082 -0.054979406
-0.031820793 -0.054253098 -0.058161803 0.044045165 0.04569923 0.06903406 0.005066515 -0.0069548613
-0.007385979 -0.07049399 0.028605225 -0.06410424 0.037687056 0.006937271 -0.046831187 0.031355325
0.06394824 -0.024483103 -0.07503111 -0.0017062242 -0.026637487 0.07590093 0.00094478816 0.060451966
0.0016779638 0.036492124 0.099082135 -0.06611427 0.08605202 0.030352196 0.06033589 0.013837989
-0.03316873 -0.05457533 -0.05400963 0.10976936 0.027317198 0.037129205 -0.06609222 -0.046021387
0.05928899 0.0599067 0.015643762 -0.029526085 -0.012301493 0.0102256965 -0.014401553 0.011575613
-0.052365273 0.063226394 0.040308908 0.018852618 0.044215396 0.022147816 -0.06997493 -0.060091544
-0.04420425 0.036357585 0.088159345 0.008651531 -0.0951536 -0.045133125 0.01282015 0.038158096
0.081237674 -0.038770795 -0.012761139 -0.08902746 0.051303446 0.03957317 0.091400124 0.06895784
0.032805208 0.04811012 -0.035589952 0.04288677 0.029122222 -0.06344728 0.028271511 -0.068108454
-0.048483096 -0.035491843 0.13725893 -0.024723772 0.005588151 0.05705931 0.07251397 -0.00072288373
0.07474451 0.03367727 0.031715468 0.05704258 0.0098934965 -0.062619194 0.03759098 -0.04283384
-0.018087622 -0.05534899 0.029448085 -0.0017954735 -0.013840873 -0.081927836 0.07966586 0.023183875
-0.024692118 -0.023924503 0.029846506 -0.019708198 0.0044172285 0.011602152 0.097874075 -0.0500684

input_embedding_layer.weight f4 [64, 2]
00000000: 8f27 bf3e f795 78bd 5f20 253f 41b6 d6be
00000010: 823f 35bd 1df8 0f3f 9344 1fbf 52ff ee3d
00000020: 5df9 bc3e 713b 003f 558f 03bf e5b2 03bf
00000030: 74a5 b63e c70e 30bf 2571 903c ee16 d83e
00000040: 964a d53e d682 3b3f 3596 1cbf 98f9 93be
00000050: 554f f7bd d680 e4be 7c1d 87be ff27 163f
00000060: ba5b 27bf 76e9 0c3f 7872 2bbf 65f7 e2be
00000070: aba8 523e 5941 1a3f 7a38 933e 2dda 043f
00000080: c864 d03c 8f58 97be 506b 0100 6e3d 0100
00000090: 3a62 e3bb 11e9 2dbf 7091 abbe c7a2 8b3e
000000a0: 1e47 f43e 7934 063e 9e48 043f 9980 90bd
000000b0: e6e7 ff3e 7639 f93e f627 bdbe b50b 223e
000000c0: dfc3 f03e 437d b1be c8af 11bf 8e3f 33bd
000000d0: 25b5 8b3e d1ac c13d 7b49 3e3f 65cd eb3e
000000e0: d483 71be 93b9 47bf d44e 54bd 2d58 45bf
000000f0: 5df2 b43e 3501 acbe f2f1 07bc 4c23 493f
00000100: 633e 4dbe bc68 4abf fc1c b4bd bc66 20bf
00000110: c836 0fbf ffa4 5cbc 0d40 423f c12b ba3e
00000120: 2fa3 84be c1d0 2bbf 9bcc 07bf 5e54 2abf
00000130: b3ee 87be 993d 3cbf b286 86be 79b0 213e
00000140: fd4a 893e 30fa aabe 835a 053f bcda 1e3d
00000150: cb8f e6be c963 bd3e 9ba5 ecbe a666 4a3f
00000160: e82b 3fbf e1a9 eebe d25d 50bb ea7f d0be
00000170: f036 15bf c971 313f f4f4 093c 6eb7 1fbf
00000180: d1f0 febe d0f5 b3be c819 df3e 7b98 4abe
00000190: 4046 9bbe 2b1d c8bc cc71 9ebe c439 02bf
000001a0: 7cfa 15be 69f6 2e3f aa75 3c3e 0150 f9be
000001b0: dc62 423e b1bd fdbe 3c87 983c bff5 12bf
000001c0: 5675 10bf 80f7 4b3e 9b95 b73d 6068 cbbc
000001d0: 1768 0bbf 3f0a 273e 30fe c43e 3085 21bd
000001e0: f811 e3bd 83dd 02bf a9d0 b6bd c97a 533f
000001f0: 03c6 593e 366b 2f3e 1ced 333f fec9 723e
0.37334868 -0.060689893 0.6450252 -0.41935924 -0.04425002 0.56237966 -0.6221401 0.11669792
0.36909 0.500907 -0.5139058 -0.51444846 0.35673106 -0.6877255 0.017632077 0.42204994
0.41658467 0.73246515 -0.611667 -0.28901362 -0.12075678 -0.44629544 -0.26389682 0.5865478
-0.6537434 0.55043733 -0.6697154 -0.44329372 0.20572154 0.6025596 0.28754026 0.5189541
0.025438681 -0.29559752 1.30332e-40 1.13872e-40 -0.0069391998 -0.67933756 -0.33509398 0.27272627
0.47710508 0.13105954 0.51673305 -0.07055778 0.49981612 0.48676652 -0.3694455 0.15824778
0.47024438 -0.3466588 -0.56908846 -0.043761782 0.2728664 0.0945679 0.7433087 0.4605514
-0.23585445 -0.7801754 -0.05183299 -0.7708767 0.35341159 -0.3359467 -0.00829743 0.78569484
-0.2004333 -0.7906606 -0.08794591 -0.6265676 -0.55942965 -0.0134670725 0.75878984 0.36361507
-0.2590575 -0.6711541 -0.5304658 -0.66534984 -0.265493 -0.7353149 -0.2627464 0.15789975
0.26815024 -0.33394003 0.52091235 0.03878282 -0.4503158 0.36990193 -0.46220097 0.7906288
-0.7467637 -0.46613982 -0.0031794203 -0.4072259 -0.5828695 0.6931425 0.008420218 -0.62389266
-0.49793103 -0.35148478 0.43574357 -0.19784729 -0.30327034 -0.02442797 -0.30946195 -0.50869393
-0.14646333 0.6834474 0.1840426 -0.4869385 0.18983024 -0.49558786 0.018619172 -0.5740623
-0.5642904 0.19918633 0.08964082 -0.024830043 -0.54455703 0.16312502 0.3847518 -0.039433658
-0.11087412 -0.5111925 -0.089265175 0.8260923 0.21266942 0.17130741 0.70283675 0.23709866

input_embedding_layer.bias f4 [64]
00000000: 22fd 233d 9d21 053e 93ce 183e 4d2c c934
00000010: f398 8b3e 3bb8 5dbe 98fc 933a 8a6e 3a3e
00000020: a99c 9abc 4ac7 d23c 1d42 0f3f c2ce e23e
00000030: 9d84 cd31 5ed4 95ba 4d78 283f 6946 5a31
00000040: 4a9f a73e 0bd2 e7b9 fc21 653d f412 c13c
00000050: 5887 a53b 9b83 ce3b 2f4c 1bbb f3c2 e7be
00000060: 9e33 4eb9 bb45 f9be 7b1e 313f e2f0 2b3f
00000070: 9c3a c8bc 99b3 473c 2f2d bdbe a6c6 97bb
00000080: 5faa 393e 3d38 a23d 311b 8ebd 737c 033f
00000090: 0427 a73e c61f 473c 2d5c 73be 38e2 353f
000000a0: cb63 db3e 1368 f53e b90f f03e 281b f0be
000000b0: 1c24 f73e 273b 6a3c 17c9 77be cf0e 053e
000000c0: 47b4 dc3b 9200 a5be 94dd 443c 6e4b dfbe
000000d0: 18c7 dbbe 808c 0e3b 9afb 2fbe c883 773c
000000e0: af50 143f 6475 073f be58 023f 03f6 ec3a
000000f0: 0be8 e0be 99e1 47be c16a 683d 08db 003f
0.040036328 0.13001104 0.14922552 3.74714e-07 0.27265128 -0.2165231 0.0011290489 0.1820623
-0.01887353 0.025729794 0.55960256 0.4429837 5.9813616e-09 -0.0011431088 0.65808564 3.1763199e-09
0.32738715 -0.00044216248 0.055940613 0.023568608 0.0050515346 0.0063023097 -0.0023696532 -0.45265922
-0.0001966492 -0.48686013 0.69187135 0.67164433 -0.02444201 0.0121888155 -0.36948535 -0.004631835
0.18131398 0.07920883 -0.0693878 0.5136177 0.32646954 0.0121535715 -0.23765631 0.7104831
0.42849573 0.47930965 0.46886995 -0.4689572 0.48269737 0.01429633 -0.24197803 0.1299393
0.006735358 -0.32226998 0.012015719 -0.43612236 -0.42925334 0.0021751225 -0.17185822 0.015107103
0.57935613 0.529135 0.5091666 0.0018078688 -0.43927035 -0.19519652 0.056742433 0.50334215

output_layer.weight f4 [5, 128]
00000000: f2ae efbb efcf 1fbd 512c 1d3d 91f9 5b3c
00000010: b2dc 07be 454e 643d 7b1e 523c 7f53 5cbd
00000020: d301 9dbd b283 bfbd 5633 8abe 0d80 4d3e
00000030: 3867 a7bd fafc 35bd da4f d13c ba9a 7e3e
00000040: b7af 33be b225 5bbe d468 56bc af0c a0bd
00000050: 669a 543e 80ec a8bd 8349 4b3c 2d37 35bd
00000060: f1c9 4fbe eb70 a9bd 53bb 3abe 576a a1bd
00000070: b97d b03b cbe2 e7bd c59b 84be 43e7 2c3c
00000080: 8690 c0bc 6b76 3e3e 154d bdbd af7f d4bd
00000090: c6aa 1dbe 270c 923c 8e72 cdbd 581c 04bd
000000a0: 656e f93d cd47 eebd 3383 cbbd 9e06 473e
000000b0: e5d3 5ebb 9b2a 913d 642f b43d ca1e 083e
000000c0: 6edd 56bc a3e4 cbbb 0427 f73c 9c48 b4bd
000000d0: badf b8bd a134 07bd 747d 5d3d a60d 8ebd
000000e0: f9d4 abbc a644 4f3e 0b9d bf3d 3310 943c
000000f0: 2f62 d43b 65e6 84bd 727d 25be 5a5c a1bd
00000100: 3af7 ee3d 79e7 35bd 5703 82bc b11b 583c
00000110: 9724 c83d e109 1fbe d610 c1bd 9087 da3c
00000120: a0f8 513d 43e3 6e3d 145b bc3c 8017 753c
00000130: db04 3c3d 25f8 b73c 1b1f 6e3e 3f63 f0bd
00000140: 0b21 78bd 76f7 d6bd af95 193d 06ab 293d
00000150: 39da 593e 23b3 18be 6494 483e d6bc 10be
00000160: e395 a1bc e279 aabd c6cd c03c 4948 043c
00000170: 81fb 563c 5141 1f3b 2339 ab3a 4748 ac3d
00000180: 6c1c 05bb 0943 433d 5d7f 34bd 386b a6bd
00000190: cab4 893d 7c6c 003c 5529 d73d 7fa7 39be
000001a0: f59f 4f3d bba5 d5bd ee18 133c cca9 ab3c
000001b0: 64bc 003e 6310 10be 568e 253d 0c2e 2b3e
000001c0: 7922 efbd 0a39 2e3e d166 6f3d 2bdc 2e3e
000001d0: e814 6c3c 564c bc3d cb2a f9bd 9b26 de3d
000001e0: 0feb fdbd 381e c93d 09a7 24bd d75a e93a
000001f0: 5ebc 373e ae0a 113c 2fc1 c63d 67fe cf3d
00000200: 61f7 ea3d e061 31bd 9a86 973d 1e49 a93a
00000210: b5d8 cd3d 5b3e 47bc debf 113e 7240 61be
00000220: 8282 603b 45fd a7bc 6e4d 08bd 21fc efbd
00000230: 3a1e dd3d 40a8 d6bd 4e21 a63d f5a9 e2bd
00000240: 1a9c 153e 939e fa3d 4f52 e63c b3fe 86bc
00000250: e1a4 a8bd a6ba 87bd 7109 3a3d 1026 e73a
00000260: ccc2 bd3d 0849 d13d b7f8 1cbd d2b1 02be
00000270: 97d8 0fbe 89b4 663d fe08 e73d a2e1 5f3c
00000280: 0392 0abe 9f25 13be bca1 e73d 0aa7 e6bc
00000290: e566 843d 079a dc3c 69f6 13bd 2cd7 0c3e
000002a0: 10e7 173e 55ec 01bb 3160 97bd b7b1 a8bd
000002b0: a006 04be 8fe2 e4bb 4d40 84ba 85c5 c03c
000002c0: 18d7 60bd c100 393d a912 963d edff ee3c
000002d0: ab3d 693e 9bc1 803d 91fc c3bc 3b68 e4bd
000002e0: 50ef 44bc 54de 1abe 77e3 21bd 8744 9fbc
000002f0: 85a9 ecbd ad9c 0fbe 774c a9bb 38ec 02bd
00000300: 2498 703d 5709 afbd 7af5 4b3e 7edd 5e3d
00000310: d8f3 ddbd c201 273d 36d2 a5bd a393 a33d
00000320: 8b60 d23d a4f5 ce3d c89f 08bd ea3e b9bd
00000330: 0cfb 343c c76d e4bd 61c8 04bd 2ab5 6dbd
00000340: 5b90 ad3c 2e1f 653d fd12 e43d 33bd a7bd
00000350: 84d2 2dbd 47d9 84bd a281 6cbb 5cb5 6d3d
00000360: a320 a9bd 3e1a 1f3e 982a 993d fa60 54bd
00000370: b5dd f4bd ce7c 043d ce17 a2bd ef7b ecbd
00000380: 6794 24be e326 293e 48e1 193c a9fd 433b
00000390: e8d6 a93d cb08 d23d 5bfc b23d 4bdf 393d
000003a0: 73da 11bc 11b4 3fbd 5b35 d73c 6329 4e3d
000003b0: 3238 5bbc 6b6e 053e 3dc8 8f3c 4da9 f1bc
000003c0: da4b c13d 02a2 0cbe 11ff 3bbd 7aaa 8f3d
000003d0: c7e4 debd eacb 8abd 77c7 f6bc 69cf c4bb
000003e0: 6139 e03d 472d 4c3d a9e5 3e3c d151 babc
000003f0: 214d b13d be57 7e3c a3d8 ef3d 1634 093e
-0.0073145563 -0.03901666 0.03837234 0.0134262005 -0.13267782 0.055738706 0.01282465 -0.053790566
-0.076663636 -0.09351291 -0.2699229 0.20068379 -0.08173984 -0.04443071 0.025550772 0.24863711
-0.17547499 -0.21401098 -0.013086516 -0.07814919 0.20762023 -0.08248234 0.012407663 -0.044242073
-0.20291878 -0.082734905 -0.18235521 -0.07881611 0.005386081 -0.11322554 -0.25900093 0.010553184
-0.023506414 0.1859986 -0.09243218 -0.10375916 -0.15397176 0.01782806 -0.10031615 -0.032253593
0.12179259 -0.11634789 -0.09937134 0.19436118 -0.003400081 0.070882045 0.087981015 0.13292995
-0.013114316 -0.006222324 0.030169971 -0.08802912 -0.090270475 -0.033009175 0.05407472 -0.06936197
-0.020975577 0.20241031 0.093561254 0.01807413 0.006481431 -0.06489257 -0.16161135 -0.07878943
0.116682485 -0.044410203 -0.015870733 0.013190196 0.09772604 -0.15531112 -0.09427039 0.02667597
0.051262498 0.058322202 0.022992648 0.014959216 0.045903068 0.022457192 0.23254053 -0.1173768
-0.060578387 -0.10496418 0.037496265 0.041422866 0.21274652 -0.14912085 0.19587857 -0.14134535
-0.019724792 -0.083240286 0.02353562 0.008073875 0.013121487 0.0024300406 0.0013063293 0.08412223
-0.002031113 0.04767135 -0.044066776 -0.08125919 0.06723936 0.007838365 0.1050593 -0.18130301
0.050689656 -0.10432001 0.008978112 0.020954989 0.12571865 -0.14068751 0.040418945 0.16716784
-0.11676497 0.17013946 0.058447663 0.17076175 0.014409281 0.091942474 -0.12166365 0.10847207
-0.123983495 0.09820217 -0.04019836 0.0017803562 0.1794295 0.008852644 0.097048156 0.10155945
0.11472965 -0.04330623 0.0739872 0.0012915467 0.10051099 -0.012160863 0.14233348 -0.2199724
0.0034257476 -0.02050651 -0.033276968 -0.11718012 0.10796781 -0.1048131 0.08111821 -0.11067573
0.1461033 0.12237277 0.02811542 -0.016478872 -0.08234573 -0.06627397 0.04541916 0.0017635245
0.0926567 0.10219008 -0.03832313 -0.12763146 -0.14047466 0.056324515 0.11281012 0.013664635
-0.13532262 -0.1436982 0.11310145 -0.028155822 0.06464938 0.026928915 -0.036123667 0.13753957
0.14834237 -0.0019824703 -0.07391394 -0.082370214 -0.12893152 -0.0069850157 -0.0010089964 0.023531685
-0.05489263 0.045166735 0.07327778 0.02917477 0.2277743 0.06286927 -0.023924144 -0.11152693
-0.012019947 -0.15123874 -0.039523568 -0.019441856 -0.11555771 -0.14024611 -0.005166586 -0.031963557
0.058738843 -0.08546703 0.1991786 0.05441045 -0.10837525 0.04077316 -0.08096735 0.07987144
0.1027232 0.10105446 -0.033355504 -0.09045203 0.011046182 -0.11153751 -0.03241766 -0.0580341
0.021186998 0.05593794 0.11136434 -0.08190384 -0.04243709 -0.06486755 -0.003608801 0.058034286
-0.08258178 0.15537354 0.07478827 -0.051850297 -0.1195635 0.032345586 -0.07914697 -0.11547076
-0.16072236 0.1651874 0.00939209 0.0029905832 0.08292943 0.102555834 0.08739539 0.045378964
-0.00890218 -0.046802584 0.026270559 0.05033244 -0.013380097 0.13030402 0.017551536 -0.029499674
0.09438296 -0.13733676 -0.045897547 0.07014938 -0.108834796 -0.06777175 -0.03012441 -0.0060061705
0.10948444 0.049847867 0.011651435 -0.022744091 0.08657289 0.015523849 0.11711242 0.13398775

output_layer.bias f4 [5]
00000000: 4a08 09bd d15f 813c 8b39 a8bd 27b3 95bd
00000010: 7eb0 923d
-0.03345517 0.01579276 -0.082141005 -0.07309561 0.071625695

sum f4 [512, 64]
00000000: 07e3 503f 917b 1440 5d44 763f c555 6c40
00000010: 290b b43f ebac c63f 3f81 3d3f 3d0f 333f
00000020: 53ed c83f b1f9 8140 7338 eb3f df3b 4f40
00000030: 9dfd b740 e146 2a40 d071 5b40 a3b6 473f
00000040: 1c2a 0d3f 583c 6a31 139d 133e 2aa7 b23f
00000050: 89c8 833f e7c4 983f 30ef ae3f 05a2 133f
00000060: fee8 8c3f c9cc d03f 85c5 4840 d106 f440
00000070: cc07 ce3e b596 f23d 7e99 b63e 1d20 1340
00000080: 1760 393f 65b7 513e fd53 1740 3418 9b40
00000090: 8a32 b63f a5c8 dd3f ccb0 963e c2ad 6e40
000000a0: 9767 ca3f 50ae 3a40 70b5 8540 cc55 5740
000000b0: 35b2 0a41 b0f4 213d b3b9 8b40 0ca1 663e
000000c0: ec85 bd3f 51f3 1d3f 1de1 333f f514 9f3e
000000d0: b262 903f a288 673e 92d3 1e3e 2809 ac3d
000000e0: 9ac8 9c40 1332 973f e5a5 a840 fca7 373f
000000f0: 93f8 ff3b e67e 0540 b4d4 883e a8c0 a040
00000100: 4f40 ed3c 7145 1c3e ddeb 873f 322a f23e
00000110: 2fb7 293f 9ee9 303d adeb c83d 6df0 123f
00000120: 4ddd 3d3f 1492 273e 43f2 873e 989e ed3f
00000130: c2c7 fa3f 45c1 fa3d dea2 d93f 84d1 c83e
00000140: 6e93 d73d 4d7f 242e 06a8 b13d 6590 ec3e
00000150: 0850 aa3c 1a69 103d 2049 723e 97ae 9b3d
00000160: 59cd 853d a451 883d 6829 ee3e 2d2e 653f
00000170: bf1f 8d3d 9b82 be3d f5fc a83c b053 d43f
00000180: 50d9 e73d 59da a73d 145e 3c3e 126e 073f
00000190: c61c 443e 75dc af3d f59f 133d e1a4 853f
000001a0: a1d4 523e c7e7 813e 14b3 be3f 725c b53f
000001b0: 694b e43e b0a8 dd3c 0dee f23f dddd a93d
000001c0: 6316 973d 7c8e 813c 35a7 7e3d 4ece fb3b
000001d0: 182d 453f a7ac 4e3d deec 0b3d ceb1 5a3d
000001e0: ee2e b53f 3636 6d3e 33d3 8a3f 40a1 a03c
000001f0: 7b2f 283c 4243 be3f c58d 443d e2e7 b43e
00000200: e825 e43e 7e93 4d40 6f1d 0e3f 18ae 8340
00000210: f7a1 933e 2494 0840 a56a 8c40 5261 7d3e
00000220: a144 8c3e befe 5240 4563 2c40 80a1 2d40
00000230: cbe6 a340 04af 8f40 9c5a 3c3f 87ad 0f3e
00000240: 724b 783f 4464 332f 4ed9 1640 c8a1 c43f
00000250: 8bbb 283e bd40 3b3f f233 a73d adbe 403f
00000260: f76c fd3f 5002 0640 2c37 263f e1af 603f
00000270: 7bf4 3f40 869e 4d40 0496 683f 30cd 213f
00000280: 6dfe 7a40 609a 0a40 4cc4 4d40 327e ee3e
00000290: eeea 6a40 f4c0 7940 3699 ee3f 5ad1 1040
000002a0: b3c4 0040 22a4 793f ee13 6040 3b85 0f40
000002b0: fca1 c340 a88b 653f 19a8 6540 41bc 0240
000002c0: 0be9 2340 6ec6 1a3f 80f8 873f 44ea 143f
000002d0: 88cd 3e3f b708 ed3f 50ea c83f 4346 e63f
000002e0: 3244 d840 7186 e53e 8792 b540 4737 b83e
000002f0: b3d5 043f 39d4 713f cb07 9a3c 8e09 4e3f
00000300: 4e93 d63a ca84 f83b 9900 223d 088d 703d
00000310: 8de3 013d 5102 fc3c 77a4 ea3b a6c8 be3c
00000320: 5a05 b13c ba30 833d 0212 233d 300b c33d
00000330: b29c cd3d d70b a33d 2a11 b63d fdca 343c
00000340: 2264 1d3c 20ae 4332 d503 ae3b aa00 013d
00000350: 9e0d c33a fdbb 123b 97e0 fd3b 5522 3b3c
00000360: f294 653b 4a56 003d 38f8 203d bdab 773d
00000370: eb81 3f3c b50d b93b a515 633a b8fc 043d
00000380: ec89 cb3c 3945 073c 28c6 3b3d 62c5 d93c
00000390: 33c4 203d 6861 7d3d d114 263c 9721 fd3d
000003a0: 2539 7c3c ceb6 993c b212 143e 7fa4 693d
000003b0: 5738 303e f712 cb3a d4ee b03d d84a e13b
000003c0: f476 0d3d 7cd7 4d3a b5f0 773c 6ad7 d23b
000003d0: bea2 a43c 6adf 323b bfe2 e73a 8df4 573b
000003e0: d344 133e fd64 c03c 1698 3d3e 0118 9f3a
000003f0: e872 773a 95a6 033d 0459 033b 2db3 d03c
0.81596416 2.320042 0.96198064 3.692735 1.4065906 1.552152 0.7402534 0.69945127
1.5697426 4.06173 1.8376602 3.2380292 5.7497087 2.660576 3.4288216 0.78013057
0.5514238 3.4085783e-09 0.14415388 1.3957264 1.0295573 1.193509 1.3666744 0.576691
1.1008604 1.6312495 3.1370556 7.625832 0.40240324 0.11845151 0.3566398 2.298835
0.72412246 0.20480116 2.3645012 4.8467045 1.4234173 1.7326857 0.2943176 3.7293553
1.5812863 2.9168892 4.178398 3.3646116 8.668508 0.039539993 4.3664184 0.22522372
1.4806495 0.61699396 0.7026537 0.31070676 1.128012 0.22610715 0.15510395 0.08400184
4.8994875 1.1812156 5.270251 0.717407 0.007811615 2.0858703 0.2672478 5.0235176
0.028961329 0.15260865 1.0618855 0.47297817 0.6629514 0.043191545 0.098105766 0.5739811
0.74165803 0.16364318 0.2655202 1.8564024 1.9592211 0.122438945 1.7002828 0.39222348
0.10526167 3.740235e-11 0.08674626 0.46203914 0.020790115 0.035256483 0.23660707 0.0760166
0.065333076 0.06656197 0.46515965 0.89523584 0.06890821 0.09302255 0.020628432 1.6588039
0.11320746 0.081959434 0.18395263 0.5290233 0.19151601 0.08586971 0.03604122 1.0440942
0.20588924 0.25372145 1.48984 1.4168837 0.44588783 0.027057976 1.8978897 0.0829427
0.07377317 0.015815012 0.06217118 0.0076845055 0.7702193 0.050457623 0.03416144 0.053392224
1.4154947 0.23165211 1.0845703 0.01960814 0.0102652265 1.4864275 0.047986764 0.35333163
0.4456017 3.2121272 0.5551366 4.1150017 0.28834507 2.1340418 4.388018 0.24744156
0.2739611 3.2967982 2.693559 2.7129822 5.121923 4.490114 0.7357576 0.14031039
0.9699012 1.6315577e-10 2.3570132 1.5361872 0.16477792 0.7314566 0.08164205 0.7529095
1.9798878 2.0938911 0.64927936 0.8776837 2.999297 3.2128005 0.90853906 0.63203716
3.921779 2.1656723 3.215106 0.46580654 3.670589 3.902402 1.8640506 2.2627778
2.0120056 0.9751607 3.5012164 2.2425067 6.1135235 0.89666224 3.5883849 2.04274
2.5610988 0.6045903 1.0622711 0.5816996 0.74532366 1.8518285 1.5696507 1.7990192
6.7583246 0.44829133 5.6741366 0.35979673 0.5188858 0.9446445 0.018802544 0.8048333
0.0016370805 0.007584189 0.03955135 0.058728248 0.03171115 0.030762823 0.007160719 0.023289036
0.021608997 0.06405778 0.039812095 0.09523618 0.10039653 0.07961243 0.088899925 0.011034724
0.009606393 1.1390085e-08 0.0053105154 0.031494774 0.0014881378 0.0022389882 0.0077477205 0.01142176
0.0035031405 0.03133229 0.03929922 0.060466517 0.01168869 0.005647386 0.0008662588 0.032467574
0.02484604 0.00825625 0.045843273 0.026583377 0.03924961 0.061860472 0.010136799 0.123599224
0.015394484 0.018763926 0.14460257 0.05704164 0.17208992 0.0015493323 0.08639303 0.006875377
0.03453727 0.0007852239 0.015133073 0.0064343708 0.020097133 0.002729381 0.0017691477 0.003295216
0.14381723 0.023485655 0.18515047 0.0012137891 0.00094394246 0.032141287 0.002004207 0.025476063

sum f4 [512, 128]
00000000: ce65 563e 1ff6 803e 8b0c 543d 3677 f03d
00000010: 3545 5c3f 6b1a 3f3f c585 663e 09ba 143d
00000020: 8ffd 003f 96c0 083f d5c9 cf3c b8b1 4c3e
00000030: 2957 f93d da21 063f e50c 013f 7a72 ba3d
00000040: 1a9a 4b3e 8e4e 003f 2e4a 343e f883 113f
00000050: 82cb fd3d 381f 883f 501d 973e d4a2 733e
00000060: e736 643d 2b74 7f3c f896 e63e ebe9 873d
00000070: f785 dc3d 7f42 9d3d 6ffb 173e be44 903e
00000080: 5579 f53d 8a6c 3b3d e9e0 df3e 59bd 573d
00000090: 6f3f ec3c 1bad 8d3e 8a24 2c3f d1a3 863d
000000a0: f4eb 933e be69 cb3e 0414 8c3f 607d 303e
000000b0: c181 bf3e 145f 603e 46d1 b43d 01f7 f23d
000000c0: 51d0 cc3e a031 b73e b5db 343d e1c0 a73f
000000d0: 9d23 723c ef16 a33e fa83 bc3d 5252 6a3e
000000e0: d2b0 6a3e a38f 033e 4595 f43e b2e3 2e3e
000000f0: a61a a03f 5568 993d 7ca4 3c3d 0f07 1c3f
00000100: f70a 583e 3e9b a53e 0961 bf3c 4cac 813e
00000110: 5ba4 9b3d 0395 8a3f 3c87 f33d 27f8 e83c
00000120: defb 0a3f 2da8 203d 8833 c93e 7b28 823f
00000130: c3b3 e93d 7462 be3c eb11 843d 07e5 6b3e
00000140: d041 b33d 0f5d f03e 5dcd 343d 9864 a63d
00000150: c46e f33e 5d62 473d eecc 943f f7f9 913f
00000160: 66ab 793e a86c b43d 4f90 a43e 7390 3c3f
00000170: 1246 973d bba8 ca3c d3d7 9e3e 8a8a f13e
00000180: 8e7f 933c 0b43 973d 4a4b e63e 0383 a43e
00000190: 43db 753e dc42 173f 0b49 6b3f c0ca c03d
000001a0: 402c d43e 48ea 8a3f 9fca fc3e c2d3 163f
000001b0: a8ec c23f 9018 d93d 4c29 9a3e f589 e83e
000001c0: 6570 823f 8f65 6b3e 6de8 bf3d 3855 933e
000001d0: b2d2 bf3d 0a2e 353d 5a20 153f 4dc1 353f
000001e0: c32f 583e 7beb 4a3e 7af6 b23e 4674 473e
000001f0: 5d69 163e 61bd 0c3e 8ca2 fa3e a490 e53d
00000200: 65a1 203d 5592 3d3d ee7c 933b 74ce ad3c
00000210: feca 4a3e fae0 883e 2774 b33d 8b16 1d3c
00000220: 82f8 ad3d 52b7 1f3e 568b 303a 3015 e23c
00000230: 67cc 973d 963b 4d3e d865 3e3e 420a 2d3c
00000240: 072b 883d a5f5 563e 67b7 bb3c 48c0 ed3d
00000250: 2a27 883d e554 ae3e a611 e93d 604e 2e3d
00000260: 3537 203c 175d ad3a 0ea3 243e ff65 143b
00000270: a87e a83c 650d 5c3c 8141 943d 1253 383d
00000280: 711d 9e3d 1fc8 093c 7baf dd3d dc24 e03a
00000290: 8856 183b 8bd5 513d 4009 3a3e d500 813c
000002a0: 90b7 8b3d 1d07 113e 2736 913e 6693 043d
000002b0: 3afd 0e3e 4d96 803d 3e1f 3d3c d938 113c
000002c0: 4f60 8c3d 6316 493d c3da 4a3c 3704 ac3e
000002d0: f1b9 183c 7caf e43d 7f47 6d3c c46a d83c
000002e0: 330a 0d3d 9240 663d bf79 223e 8238 ce3c
000002f0: d7b4 a23e 0534 d33c f5a4 1e3b 8642 103e
00000300: 2518 a13c c923 143e e73e 073c 1bf1 333d
00000310: ab9e 593c c678 8a3e beb7 1d3d 0ade 9b3b
00000320: c141 a53d 4ed3 fa3c 7b80 a83d 751f 853e
00000330: 20b1 a03c 2b15 903b 5de8 f13a 210d b73d
00000340: c797 e13b d511 323e 349f 7d3b 3e6f 0c3c
00000350: 8bb7 023e 5e1e e23c 942c 9d3e c5ad 8e3e
00000360: 246e b53d 7a9c 313d 9066 673d 7ba8 493e
00000370: 75a9 ac3c 63b9 8d3c 2d8f 873d 5ffa 243e
00000380: 2fec 1e3c 52d9 fd3c d558 b93d 39b9 3a3d
00000390: 271c d33d fef2 353e 9693 883e e51d e03c
000003a0: 2199 033e 0791 a33e 86a1 d03d d152 e43d
000003b0: 5e98 783e 5feb c43c e63a d73d 8a36 913d
000003c0: 0680 793e 5e89 173d 4ba9 013d 05ad 2e3d
000003d0: d73a 0d3d 0e70 763b 62e1 213e ac76 683e
000003e0: 13de de3d e368 283d 8bf7 4c3d 11c5 273d
000003f0: d813 ba3c 09df 313d e0b7 8d3d 91b2 603d
0.20937273 0.25187775 0.051769774 0.11741488 0.860431 0.74649686 0.22511967 0.03631023
0.503869 0.5341886 0.025364796 0.1998967 0.121748276 0.52395403 0.504103 0.09103866
0.19883004 0.50119865 0.17606422 0.56841993 0.12392332 1.0634527 0.2951455 0.23792583
0.05571642 0.015591661 0.45037055 0.06636413 0.10767739 0.07678699 0.14842008 0.28177446
0.11986033 0.045757808 0.4372628 0.05267081 0.028838841 0.27671131 0.67243254 0.06574214
0.28890955 0.39729112 1.0943608 0.17235327 0.37403682 0.2191127 0.08828978 0.118635185
0.40002683 0.35780048 0.04415484 1.3105737 0.014778999 0.31853434 0.0920486 0.22882965
0.22919014 0.12847762 0.47770134 0.17079046 1.2508132 0.07490603 0.046055302 0.6094827
0.21097933 0.32345003 0.0233617 0.25326765 0.07599708 1.0826725 0.11891028 0.02843864
0.5429057 0.039222885 0.39297128 1.0168604 0.1141124 0.023240305 0.0644873 0.23036586
0.08752787 0.46945998 0.044141162 0.081246555 0.47545445 0.04867779 1.162504 1.1404408
0.2438179 0.08809787 0.3214135 0.7365791 0.07386412 0.02473866 0.31024036 0.4717601
0.018005159 0.07385834 0.44979316 0.32131204 0.24009423 0.59086394 0.9190833 0.094136715
0.4144001 1.0852747 0.49373338 0.58916867 1.5228472 0.10600388 0.30109632 0.45417753
1.019055 0.2298796 0.093705036 0.28775954 0.09366359 0.04423336 0.5825249 0.7099808
0.2111197 0.19816391 0.34953672 0.19477949 0.1468863 0.13744117 0.48952138 0.11209229
0.039216418 0.04628213 0.0045009768 0.021216609 0.19803998 0.26734143 0.08762389 0.009587894
0.08494665 0.15597275 0.000673463 0.027597994 0.074120335 0.20042261 0.18593538 0.010561528
0.06648832 0.20992143 0.022914601 0.1160894 0.06648095 0.34049144 0.11380319 0.042555213
0.009778787 0.0013226595 0.16077825 0.0022643802 0.020568207 0.013430928 0.072390564 0.045001097
0.07720459 0.008409529 0.10824486 0.0017100829 0.0023244936 0.05122904 0.18167591 0.015747467
0.06822121 0.1416287 0.28361627 0.032367133 0.13963786 0.062786676 0.011543093 0.008863651
0.06854307 0.049093615 0.012381258 0.33596966 0.009321676 0.111662835 0.014482378 0.026418097
0.034433555 0.056213923 0.15866755 0.02517343 0.31778595 0.02578164 0.0024207209 0.14087877
0.019664833 0.14466776 0.008254743 0.043931108 0.013282458 0.27045268 0.03850531 0.0047566937
0.08069182 0.030618336 0.08227631 0.26000562 0.01961571 0.0043970547 0.001845609 0.08938051
0.0068845483 0.17389615 0.0038699629 0.008571444 0.12765329 0.02760237 0.30698073 0.2786695
0.08858898 0.04336212 0.056494296 0.19693176 0.021076897 0.017300313 0.066191055 0.16111134
0.009699865 0.030987415 0.090501465 0.0455868 0.10308104 0.17768475 0.266751 0.027358005
0.12851383 0.31946585 0.10187058 0.111486085 0.24276873 0.024038015 0.10509281 0.070904806
0.24365243 0.036996238 0.03165559 0.042645473 0.034479942 0.003760341 0.15808633 0.2270152
0.10882201 0.041115653 0.050040763 0.04095942 0.02271454 0.043425594 0.06919837 0.054857794
