model/VANILLALSTM/LSTM/VANILLALSTM_lstm_model_43.tar (torch, 809783 bytes, 16 tensors)

cell.weight_ih f4 [512, 64]
0	0xbd174652	-0.036932297
1	0x3d2059dd	0.0391482
2	0xbdb23b47	-0.087027125
3	0xbc9c5da9	-0.01908763
4	0x3dc677c9	0.09690816
5	0xbd3c7947	-0.046014097
6	0xbc39b438	-0.011334471
7	0x3c8a6ace	0.016896632
8	0xbc80217c	-0.015640967
9	0xbd2fd57b	-0.0429282
10	0x3ce5b5f0	0.028040856
11	0x3d223739	0.039603446
12	0xbd923630	-0.07139242
13	0x3cab7c58	0.020933315
14	0xba90a648	-0.0011035884
15	0xbbbed87d	-0.0058241473
16	0x3c695c96	0.014243266
17	0x00015dd9	1.25502e-40
18	0x3cba94c7	0.02277602
19	0x3bfd52a0	0.007730797
20	0x3c80082a	0.015628893
21	0x3d28b336	0.041186534
22	0x3cfeea17	0.031117482
23	0xbcf33da0	-0.029692471
24	0xbc0fcace	-0.00877638
25	0xbb491708	-0.0030683894
26	0x3c1dd3bb	0.009633
27	0xbd8ef3c8	-0.06980091
28	0x3d3bec0d	0.045879412
29	0x3d8a3569	0.067484684
30	0x3d3e0c8e	0.04639869
31	0xba11d290	-0.00055626873
32	0xbb0632bc	-0.0020477017
33	0x3d1720fc	0.03689669
34	0xbd599414	-0.053119734
35	0xbd0d6fdd	-0.03453051
36	0x3d48c630	0.04901713
37	0xbc8fc744	-0.017551072
38	0x3d961270	0.073277354
39	0x3d087d90	0.03332287
40	0x3c888ae8	0.016667798
41	0xbc6c3425	-0.014416729
42	0xbc81d14c	-0.01584687
43	0x3bbe22f2	0.0058025056
44	0xbd4dd27d	-0.050249565
45	0x3dbb8fc2	0.09158279
46	0x3b4a3844	0.003085629
47	0xbbbe9dc8	-0.005817149
48	0x3d74e414	0.059787825
49	0x3caf088f	0.021366386
50	0x3965c776	0.00021913447
51	0x3c8a5b58	0.01688926
52	0x3c50e7d4	0.012750585
53	0x3d05334e	0.03251963
54	0x3d1a50e9	0.03767482
55	0x3d519e9b	0.05117665
56	0xb9c888dc	-0.0003824894
57	0xbd49e0ce	-0.049286656
58	0x3b043ff2	0.0020179716
59	0x3b463605	0.00302446
60	0x3df50d43	0.1196542
61	0x3ca0ffe1	0.019653263
62	0xbcf2d551	-0.029642733
63	0x3dab85fb	0.08375164
64	0xbce3767d	-0.02776646
65	0xbd662ad4	-0.056193188
66	0xbd700b87	-0.058604743
67	0xbb72ecca	-0.0037067407
68	0x3c9472c9	0.01812114
69	0x3cd637d1	0.026149662
70	0xbcee0035	-0.029052833
71	0x3d8c671d	0.06855605
72	0xbd912bc4	-0.07088426
73	0xbd4a2d13	-0.049359392
74	0x3d54e6ad	0.051977802
75	0x3db89752	0.09013237
76	0xbd1ad646	-0.037802003
77	0x3da547d1	0.080703385
78	0x3d241937	0.04006311
79	0xbde21337	-0.11038821
80	0x3c2a2be1	0.010386438
81	0x8000949f	-5.3315e-41
82	0x3cfd04f1	0.030886145
83	0x3ce73f7e	0.028228518
84	0xbd6942a1	-0.056948308
85	0xbd3d880c	-0.046272323
86	0xbcfa4b7e	-0.030553576
87	0x3d3c1e18	0.045927137
88	0xbd3cdd34	-0.046109393
89	0x3d0b70a3	0.034042966
90	0x3dc189a9	0.09450085
91	0xbd03b8c7	-0.03215864
92	0xbbb8a4c5	-0.0056348764
93	0xbcdece30	-0.027197927
94	0xbc36e334	-0.011162568
95	0xbe0d8266	-0.13819274
96	0xbaf3ba5c	-0.0018594968
97	0xbc6f93f9	-0.014622682
98	0x3d2e1399	0.04249916
99	0xbd173ccf	-0.036923226
100	0xbd54bbe3	-0.051936995
101	0x3d8666f8	0.065626085
102	0x3cf1d5bc	0.029520862
103	0x3daf7328	0.08566886
104	0xbc56f1f4	-0.01311921
105	0xbc8bfa68	-0.017087176
106	0x3dbc67bb	0.091994725
107	0x3b69422c	0.003559242
108	0xba91eec0	-0.0011133775
109	0xbd070fda	-0.0329741
110	0x3d25e1b7	0.04049846
111	0xbd63e5f5	-0.055639226
112	0xbcbafdb5	-0.022826055
113	0xbcf287bf	-0.029605744
114	0xba7af73a	-0.0009573583
115	0xbbb63ab8	-0.005561199
116	0xbc1f5e49	-0.009727069
117	0xbd31e366	-0.043429755
118	0xbcd7bd01	-0.026335241
119	0xbc3769f9	-0.011194699
120	0x3d0505af	0.032476123
121	0x3d9adb8d	0.07561407
122	0x3dbf6db5	0.09347097
123	0xbd6e4e7d	-0.05818032
124	0x3c079a2c	0.0082765035
125	0xbdcae1e1	-0.09906364
126	0x3c573201	0.01313448
127	0x3cbd8b88	0.023137823
128	0x3c0f3364	0.00874028
129	0xb98a522b	-0.0002638263
130	0xbd0a9d0b	-0.033841174
131	0x3c2a65e6	0.010400271
132	0x3d4de749	0.0502694
133	0x3aff3391	0.0019470324
134	0x3c18650f	0.009301438
135	0xbcbe7aa4	-0.023251839
136	0xbd5e7670	-0.05431217
137	0xbba5ee3b	-0.0050637997
138	0x3e0abf81	0.13549615
139	0x3d40ce77	0.0470719
140	0x3c19077f	0.009340166
141	0xbd0855ac	-0.033284828
142	0xbd3d94b7	-0.046284404
143	0xbd017be9	-0.03161231
144	0x3c148fd8	0.009067498
145	0x8000dfdf	-8.031e-41
146	0xbce32ae9	-0.027730422
147	0xbcf8593a	-0.030315984
148	0xbd193122	-0.037400372
149	0xbc9bc785	-0.019016037
150	0xbd490f55	-0.049086887
151	0xbc30ebb3	-0.010798383
152	0xbc86630e	-0.016404655
153	0xbcb54d55	-0.022131601
154	0x3d118aab	0.035532635
155	0x3c3efe66	0.011657333
156	0xbb6951d4	-0.0035601752
157	0x3b823287	0.0039733085
158	0xbcc70a73	-0.024296975
159	0xbd626a31	-0.055277053
160	0x3d7e5933	0.062096786
161	0x3c48b098	0.0122491345
162	0xbce7e874	-0.028309084
163	0xbdac8090	-0.08422959
164	0x3e06ec3f	0.13176058
165	0x3bcaec37	0.00619271
166	0xbd4c4218	-0.04986772
167	0x3d1b4186	0.037904285
168	0xbc81ac50	-0.015829235
169	0xbd2d8442	-0.04236246
170	0x3cb23e6c	0.02175828
171	0xbcdb0acb	-0.026738545
172	0x3b962aeb	0.004582753
173	0xbc03d71b	-0.008046891
174	0xbcddc5e5	-0.027071903
175	0xbc308d82	-0.010775926
176	0xbd078a10	-0.03309065
177	0xbc6911d7	-0.014225445
178	0x3d1e666d	0.0386719
179	0x3cd0a973	0.025471425
180	0x3d94c3a3	0.07263877
181	0xbd445e71	-0.04794163
182	0xbd1465f8	-0.036230057
183	0x3caf1038	0.021370038
184	0xbcf8a399	-0.030351447
185	0xbd13f81e	-0.036125295
186	0x3cf0dd05	0.029402265
187	0xbcffb4cb	-0.031214138
188	0x3d0d6588	0.034520656
189	0x3cc3662c	0.02385243
190	0x3cc65a3c	0.024212949
191	0x3c4ed310	0.012623563
192	0x3d9fdd8b	0.07805928
193	0x3e0dfa01	0.138649
194	0x3d4d20ed	0.05008023
195	0xbd6f1da4	-0.058377877
196	0x3da0d50d	0.07853136
197	0xbc6c36b9	-0.014417344
198	0xbc7a060a	-0.015260229
199	0x3d924788	0.0714255
200	0xbcaf9fc2	-0.021438483
201	0x3c6babd3	0.014384228
202	0x3dedba1a	0.11607762
203	0xbd8ec7b3	-0.06971683
204	0x3d412c03	0.047161113
205	0x3a2ba36f	0.0006547486
206	0x3b2f4eb4	0.0026749792
207	0xbcef0240	-0.029175878
208	0x3d949188	0.072543204
209	0x80017b2e	-1.36024e-40
210	0x3d0ced81	0.03440619
211	0xbce35633	-0.027751064
212	0x3d265298	0.04060611
213	0x3d402f2f	0.046919998
214	0xbcd4fa67	-0.025998307
215	0xbc8dfc6d	-0.01733228
216	0x3c5159d7	0.012777767
217	0x3bee964d	0.007281101
218	0x3dd90393	0.10596385
219	0x3c8084e0	0.01568836
220	0xbcdb3651	-0.026759299
221	0xbbf06cfb	-0.0073372102
222	0x3c1a3687	0.009412414
223	0xbcec5988	-0.028851286
224	0x3d1f6aa1	0.03892005
225	0x3c94f961	0.01818532
226	0xbcad68a5	-0.021168062
227	0x3e12034c	0.1425907
228	0x3d7a5a5f	0.06112134
229	0x3c945ec2	0.01811159
230	0xbcac705e	-0.021049675
231	0xbd35a252	-0.044344254
232	0x3e123fab	0.142821
233	0x3e0a2179	0.13489331
234	0xbda0b809	-0.07847602
235	0xbcf3bbb6	-0.029752593
236	0xbd0fdcea	-0.03512279
237	0xbcb36dbe	-0.021902915
238	0xbcb3587b	-0.021892777
239	0x3c298ba4	0.010348234
240	0xbd456fdc	-0.04820238
241	0x3c4729fd	0.012156007
242	0xbd8f168c	-0.06986722
243	0xbc97aa37	-0.018513782
244	0xbcf5350a	-0.029932518
245	0xbcb69c5a	-0.022291351
246	0xbb41e7a0	-0.0029587522
247	0xbcf70423	-0.03015334
248	0xbd51080d	-0.05103307
249	0x3d7c33c0	0.06157279
250	0x3d80738b	0.06272038
251	0x3d0e11c7	0.034684923
252	0xbcd7b711	-0.02633241
253	0xbcd27656	-0.025691193
254	0x3d11a475	0.03555723
255	0x3dcdf771	0.10056961

cell.weight_hh f4 [512, 128]
0	0x3cec413e	0.028839704
1	0xbc71960a	-0.014745245
2	0x3d44cda5	0.04804768
3	0x3ce84b00	0.028356075
4	0xbc869975	-0.016430596
5	0x3d14549e	0.03621351
6	0xbc051ec4	-0.008125011
7	0xbd096b0c	-0.033549353
8	0xbd86f6a1	-0.065900095
9	0xbda87887	-0.08226114
10	0xbc65efcf	-0.014034226
11	0xbd080c06	-0.03321459
12	0xbd345df6	-0.04403492
13	0x3ce57df0	0.028014153
14	0xbd92b931	-0.07164229
15	0xbb9f704b	-0.0048656813
16	0x3cc1ccb0	0.023657173
17	0x3d01b6f7	0.03166863
18	0x3d4fda6c	0.050745413
19	0xbc444fbc	-0.011981901
20	0x3ca0181f	0.019542752
21	0x3da216b0	0.079144835
22	0x3d174477	0.036930528
23	0xbd166ebd	-0.036726702
24	0xbd47c2f2	-0.0487699
25	0xbb7848d4	-0.0037885206
26	0x3aa7a5a9	0.001279046
27	0x3d029656	0.031881653
28	0xbce440c0	-0.027862906
29	0xbd0eaf92	-0.034835406
30	0xbc4e5c71	-0.012595282
31	0x3ce863cb	0.028367897
32	0x3c98ea61	0.018666448
33	0x3ceeadb5	0.029135564
34	0xbc31d3f6	-0.010853758
35	0xbccb476e	-0.024814334
36	0xbbe49200	-0.0069754124
37	0x3d311826	0.04323592
38	0xbb90f43c	-0.0044236463
39	0x3c00a185	0.007851009
40	0x3d39dcc7	0.045376565
41	0x3d6df655	0.05809625
42	0x3c7b57ed	0.015340787
43	0xbc83ee6f	-0.016104905
44	0x3c6522cb	0.013985346
45	0xbd5ce6fa	-0.053931214
46	0x3d5b0f97	0.053481665
47	0xbc095f9a	-0.00838461
48	0xbcbba7be	-0.022907134
49	0x3d59cba4	0.053172722
50	0x3d9d9466	0.076943204
51	0xbd391d75	-0.045194108
52	0x3c93c2e3	0.018037265
53	0xbd142152	-0.03616459
54	0x3ba5e1b2	0.0050623054
55	0x3c5b036a	0.013367513
56	0x3c07c8ad	0.008287591
57	0x3d5f7600	0.054555893
58	0xbd6b0697	-0.05737933
59	0x3ca90753	0.020633375
60	0xbc3355a4	-0.010945711
61	0xbdded3c5	-0.108802356
62	0x3c2cc522	0.010545047
63	0x3caae327	0.020860268
64	0xbd2234d0	-0.039601147
65	0xbc411fb8	-0.0117873475
66	0x3d605d15	0.05477627
67	0x3c91e311	0.017808469
68	0xbd0c216f	-0.034211572
69	0x3c14063a	0.009034688
70	0x3d216077	0.039398637
71	0x3d4b6b7e	0.04966306
72	0x3af013c8	0.0018316442
73	0xbbc300d3	-0.005951026
74	0x3ca01435	0.019540885
75	0xbcec4a46	-0.02884401
76	0x3cc12aad	0.02357992
77	0xbd38cfb5	-0.04511996
78	0xbd50c4da	-0.050968982
79	0x3c8de2b0	0.017320007
80	0xbb397ffd	-0.0028305047
81	0xbca144a7	-0.019686056
82	0xbd68e28f	-0.056856688
83	0x3d42d7c4	0.04756905
84	0xbccb7160	-0.024834335
85	0x3d6660a8	0.056244522
86	0xbb520ab8	-0.0032049846
87	0x3d849a16	0.06474702
88	0x3c8f497c	0.017491095
89	0x3cc2c6f1	0.023776503
90	0xbd16e3b3	-0.036838245
91	0xbcc1c374	-0.02365277
92	0x3d31e32f	0.04342955
93	0x3a5278d6	0.000802887
94	0xbcfdaabb	-0.0309652
95	0xbc80c9e1	-0.015721263
96	0xbc8ea40d	-0.01741221
97	0x3c17c259	0.009262645
98	0xbbf0a588	-0.0073439516
99	0x3b58a753	0.0033058717
100	0x3c3e843f	0.01162821
101	0xbd79afdb	-0.060958724
102	0x3d810ccb	0.06301268
103	0xbc88c675	-0.016696194
104	0x3d195b17	0.037440386
105	0x3c81ab86	0.015828859
106	0xbd13871f	-0.036017533
107	0x3cd39676	0.025828581
108	0xbd8d19c1	-0.06889678
109	0xbd6d6e68	-0.05796662
110	0x3acff70b	0.0015866471
111	0x3c830f72	0.015998576
112	0x3d05f92a	0.032708324
113	0xbc82fd4b	-0.01598992
114	0x3d1c0899	0.038094137
115	0x3cd72b6c	0.026265822
116	0x3ab1cd28	0.001356517
117	0x3c085a96	0.008322379
118	0xbcb752a5	-0.022378275
119	0xbd16df19	-0.036833856
120	0x3d0fdfa4	0.03512539
121	0x3c3d4f3f	0.011554538
122	0x3d5fc66e	0.054632597
123	0xbc5c58a4	-0.013448868
124	0x3cb72225	0.022355149
125	0x3d022c4a	0.03178052
126	0xbd5679e6	-0.052362345
127	0x3d457309	0.04820541
128	0x3d31188c	0.0432363
129	0xbd6edf02	-0.058318146
130	0xbd6bcb0a	-0.05756668
131	0xbc9dace7	-0.019247485
132	0xbd62f22c	-0.055406734
133	0x3c84ffe8	0.016235307
134	0x3bcd401b	0.0062637455
135	0xbc6cacd4	-0.014445502
136	0xbcf33fa0	-0.029693425
137	0xb9b12322	-0.00033786247
138	0x3c4216e8	0.011846282
139	0xbd0840e9	-0.03326503
140	0xbc947323	-0.018121308
141	0x3d21c456	0.03949388
142	0xbd589060	-0.05287206
143	0xbbd60181	-0.006530941
144	0x3acefa81	0.0015791209
145	0xbd0d97bf	-0.034568544
146	0x3d13629f	0.035982724
147	0x3d22b211	0.0397206
148	0xbbf51492	-0.007479259
149	0x3da9ddc4	0.082942516
150	0x3d95ba22	0.07310893
151	0xbcfed79b	-0.031108668
152	0xbae0e2e8	-0.0017157467
153	0x3c51c8fb	0.012804265
154	0x3d306b7c	0.043071255
155	0x3d701cf3	0.058621358
156	0xbd26c743	-0.040717375
157	0xbd4b6601	-0.049657825
158	0x3c35b4e7	0.011090494
159	0xbd2d6ca0	-0.04233992
160	0x3d995c23	0.07488277
161	0xbd1a6ee3	-0.037703406
162	0x3d8324a0	0.0640347
163	0x3c54b57d	0.012982723
164	0x3ca34cb1	0.01993403
165	0x3b09b545	0.0021012586
166	0xbd44e600	-0.048070908
167	0xbd18859e	-0.037236802
168	0x3c8089f4	0.015690781
169	0x3c6979e4	0.014250252
170	0xbc6e325a	-0.014538372
171	0xbd52a2cd	-0.05142479
172	0x3cc08bd6	0.023504179
173	0xbd069b0c	-0.032862708
174	0x3d208756	0.039191566
175	0x3b2b7004	0.0026159296
176	0xba73fcbf	-0.00093073765
177	0xbd6f4732	-0.058417507
178	0x3d000639	0.031255934
179	0x3dd1c38e	0.10242377
180	0xbc8ba454	-0.017046131
181	0xbbf14b1f	-0.0073636915
182	0x3cf3d027	0.02976234
183	0xbd9b3724	-0.075788766
184	0x3d392249	0.045198712
185	0x3d50b113	0.05095012
186	0xbda02917	-0.07820337
187	0xbc27e7f2	-0.010248171
188	0x3cad985d	0.021190817
189	0xbd9a279b	-0.075270854
190	0x3b071b63	0.002061569
191	0xbc844355	-0.016145388
192	0x3c1c853d	0.009553251
193	0x3c8c43f1	0.01712224
194	0xbb7998c1	-0.0038085433
195	0x3d81d15d	0.06338761
196	0x3ace1b57	0.0015724701
197	0x3d593230	0.05302638
198	0x3cf54ae0	0.02994293
199	0xbd676440	-0.05649209
200	0x3c5686f9	0.013093703
201	0x3c32da6f	0.010916336
202	0xbd2b40d2	-0.041809864
203	0xbc9f4cf2	-0.01944587
204	0xbb5e4514	-0.0033915685
205	0xbd13455b	-0.035954814
206	0xbc86415a	-0.016388584
207	0x3c905721	0.017619671
208	0x3b43b219	0.0029860793
209	0x3b8c8840	0.004288703
210	0x3c4facfe	0.012675522
211	0xbd5ffdcf	-0.05468541
212	0x3ca9ed22	0.020742957
213	0x3b2ffe04	0.0026854286
214	0xbd557d34	-0.052121356
215	0x3cc24a83	0.02371717
216	0x3ce6869c	0.028140359
217	0xbc8f9bbe	-0.017530318
218	0x3d453c4b	0.048153203
219	0xbd0e0e28	-0.03468147
220	0x3d3d2b39	0.0461838
221	0xbd45ad66	-0.04826107
222	0xbbdd3f20	-0.00675191
223	0x3d151015	0.03639229
224	0x3c49fd96	0.012328526
225	0xbc604d11	-0.013690249
226	0xbc7a0e10	-0.015262142
227	0xbcd815bd	-0.026377553
228	0x3a69e3de	0.00089221995
229	0xbd8fcc4c	-0.070213884
230	0x3bcde8d0	0.006283857
231	0xbbfeaf6f	-0.007772378
232	0xbc2857e6	-0.010274863
233	0x3ca42389	0.020036476
234	0x3d3a11eb	0.045427244
235	0x3c888c71	0.01666853
236	0x3cf06a80	0.029347658
237	0xbd10cde2	-0.035352595
238	0xbd206b26	-0.039164685
239	0xbd438443	-0.047733556
240	0xbd0ea0d4	-0.034821346
241	0xbd7f12ae	-0.062273674
242	0x3d6a5169	0.057206545
243	0x3b36cf40	0.0027894527
244	0xbc8e5094	-0.017372407
245	0x3c8d0c34	0.017217733
246	0x3c4b5e97	0.012412689
247	0xbd1776c4	-0.036978498
248	0xbc3fcc5c	-0.011706438
249	0x3c8c567f	0.017131088
250	0x3d198aa1	0.037485722
251	0xbd9feb7d	-0.07808588
252	0xbc756a6d	-0.014978987
253	0x3d04b125	0.0323955
254	0xbd112223	-0.035432946
255	0xbc9a3876	-0.01882575

cell.bias_ih f4 [512]
0	0x3dd448f7	0.103654794
1	0x3c22b367	0.009930468
2	0xbd76b284	-0.06022884
3	0x3da3d68b	0.07999905
4	0x3d013feb	0.031555098
5	0x3ddc2249	0.10748727
6	0x3dbe867c	0.093029946
7	0xbd62455a	-0.05524192
8	0x3e53cc87	0.2068349
9	0xbd54d7ed	-0.051963735
10	0x3cfdd593	0.03098563
11	0xbd025f6f	-0.031829294
12	0x3d5210e6	0.051285647
13	0xbd281cce	-0.041043095
14	0xbca795fd	-0.020457262
15	0xbbad60dd	-0.005291088
16	0x3cf578a2	0.029964749
17	0x3e02c72f	0.12771295
18	0x3e0989ee	0.13431522
19	0x3e7d38a9	0.24728645
20	0x3b1dfc28	0.0024106596
21	0x3db44dc5	0.08803896
22	0x3e3038c5	0.17209156
23	0x3e4a0c1e	0.19731185
24	0xbd12f5fb	-0.035879117
25	0x3cc15077	0.023597939
26	0x3d705b5e	0.058680885
27	0x3d514590	0.05109173
28	0x3db3a195	0.08771054
29	0x3db31455	0.087441124
30	0x3c863aa7	0.01638539
31	0x3deab4f8	0.11460298
32	0xbd7463dd	-0.05966555
33	0x3b774cb8	0.0037734937
34	0x3cb6ceca	0.022315402
35	0xbd8390e0	-0.06424117
36	0x3b5455e9	0.003239984
37	0x3e004cda	0.12529317
38	0x3d39adae	0.04533165
39	0xbd82996e	-0.06376921
40	0x3dbd4b86	0.092429206
41	0x3e041ee4	0.12902409
42	0x3ddd48eb	0.108049236
43	0x3d10d307	0.0353575
44	0x3d251fc3	0.040313493
45	0x3e0861bc	0.13318533
46	0xbd174d3d	-0.036938895
47	0xbda8e14d	-0.08246098
48	0x3da7f5dc	0.08201191
49	0x3d607ffa	0.054809548
50	0x3e00f992	0.12595204
51	0x3e53f4d2	0.2069886
52	0xbd59ed29	-0.05320469
53	0x3dd6c737	0.10487216
54	0xbca4eca5	-0.020132372
55	0x3ba7245d	0.0051007704
56	0x3e1b2e62	0.15154412
57	0xbc7a4148	-0.015274353
58	0x3e08f5cf	0.13375019
59	0x3dd02fc1	0.10165358
60	0x3e6748d7	0.2258638
61	0xbc5367df	-0.012903183
62	0x3bb323e3	0.0054669245
63	0x3e4d73d1	0.20063712
64	0x3bf81912	0.007571348
65	0xbce12d50	-0.027487427
66	0xbcaa4540	-0.020784974
67	0xbbc64958	-0.0060512237
68	0x3dc038a2	0.09385802
69	0x3bc4bbdc	0.00600384
70	0x3d1556cc	0.03645973
71	0xbaa536af	-0.0012604798
72	0x3d16a55a	0.036778785
73	0x3d95bf2d	0.073118545
74	0x3e99e8c5	0.30060402
75	0x3df320f0	0.11871517
76	0x3e37bb2d	0.17942496
77	0xbd3160e7	-0.043305304
78	0xbd9d852f	-0.076914184
79	0x3dfee9dd	0.1244695
80	0xbc4af05c	-0.012386408
81	0x3cf2e8f8	0.029652104
82	0x3d4d5490	0.050129473
83	0x3e00f9c7	0.12595282
84	0x3be7342c	0.00705578
85	0xbcf5e80c	-0.030017875
86	0x3d5e799e	0.054315202
87	0x3cefc23a	0.02926742
88	0x3d8996df	0.067182295
89	0xba8e7774	-0.001086934
90	0x3da89cf0	0.082330585
91	0x3e4b49ba	0.19852343
92	0xbd913680	-0.07090473
93	0xbd13448c	-0.035954043
94	0x3e38830a	0.18018737
95	0xbc531105	-0.012882476
96	0xbdb5fe5f	-0.08886408
97	0xbd3a032e	-0.04541319
98	0x3ea1aed5	0.315787
99	0x3b2c4d5a	0.0026291222
100	0x3d4002ec	0.046877787
101	0x3d161d95	0.036649305
102	0x3bf5ba3c	0.0074990075
103	0xbd69b0ba	-0.057053305
104	0x3e2751fa	0.16339865
105	0x3d2d4c2f	0.042308982
106	0x3e946830	0.2898574
107	0x3d6c7e97	0.057737913
108	0x3e5b5f51	0.21423079
109	0xbd962588	-0.07331377
110	0x3e009847	0.12558089
111	0x3ca47689	0.020076053
112	0x3e060d60	0.1309104
113	0x3d58f2e1	0.052966002
114	0x3ddc912f	0.10769879
115	0xbd123870	-0.035698354
116	0xbd945b18	-0.07243937
117	0x3c29e0ac	0.010368507
118	0x3dc99867	0.098435216
119	0x3e1ad3ff	0.15119933
120	0x3d6a4bbf	0.057201143
121	0x3db79eca	0.089658335
122	0x3da80ee5	0.08205966
123	0x3e639875	0.22226126
124	0xbd8f2ac3	-0.06990578
125	0x3d3e8409	0.046512637
126	0x3d19d1c7	0.037553575
127	0xbbc2c46d	-0.005943826
128	0x3bdad178	0.0066778027
129	0xbd8f843b	-0.07007643
130	0x3bebe8b9	0.0071993736
131	0xbbb2040b	-0.005432611
132	0xbd1c720a	-0.038194694
133	0xbc244089	-0.010025152
134	0x3d740175	0.059571702
135	0x3ce2b99c	0.027676396
136	0x3d32eb7e	0.043681614
137	0x3bea081e	0.007142081
138	0xbd8be713	-0.06831183
139	0xbcc25729	-0.023723202
140	0xbccfdaa7	-0.025372816
141	0x3da4259e	0.080149874
142	0x3d8e1b68	0.06938821
143	0x3cfe55f0	0.031046838
144	0x3d54b3ac	0.05192916
145	0xbc801aab	-0.015637716
146	0x3d35cfee	0.04438775
147	0x3d919c3d	0.07109878
148	0xbd90d561	-0.07071949
149	0x3de06859	0.10957403
150	0x3db058e9	0.08610708
151	0xbd3cb44d	-0.046070386
152	0x3d3b6079	0.0457463
153	0xbd97abb5	-0.074057974
154	0x3cebc583	0.028780704
155	0x3d611f1b	0.054961305
156	0xbd82cba0	-0.06386495
157	0x3b2139d3	0.0024601116
158	0xbd078984	-0.03309013
159	0xbd2c6135	-0.04208489
160	0xbcf4016d	-0.029785836
161	0x3d892732	0.06696929
162	0xbd5b2674	-0.05350347
163	0x3bd5d512	0.006525644
164	0x3c3ec73b	0.01164418
165	0x3d43cb83	0.047801506
166	0x3df4f35c	0.119604796
167	0xbcde49a9	-0.027134733
168	0xbd38dcea	-0.045132555
169	0x3be94d52	0.007119813
170	0xbcfcbe23	-0.030852383
171	0xbca350ab	-0.019935926
172	0x3d733ab7	0.059382167
173	0xbd13a308	-0.03604415
174	0xbdb2ca9d	-0.08730052
175	0xbc78a1e3	-0.015175316
176	0x3d9b9448	0.07596642
177	0x3d8fe679	0.07026381
178	0xbd882626	-0.06647901
179	0xbbf8efbe	-0.007596939
180	0xbd95a524	-0.07306889
181	0x3d33651f	0.04379761
182	0xbcb4646a	-0.022020537
183	0xbd3f7a02	-0.046747215
184	0x3de22d39	0.11043782
185	0x3c9171a7	0.017754389
186	0x3d526a27	0.051370766
187	0x3afbed0c	0.0019220426
188	0x3dcfc0af	0.10144173
189	0x3cfb0370	0.030641288
190	0xbc79aa15	-0.015238305
191	0x3d8c45b6	0.06849234
192	0xbd05704c	-0.032577798
193	0xbd92963f	-0.071575634
194	0x3c9823ac	0.018571697
195	0x3d99e0b3	0.07513561
196	0xbbdf1f53	-0.006809154
197	0xbcb671a0	-0.022270977
198	0x3d8c7943	0.06859066
199	0x3b2dfcca	0.002654838
200	0x3d4c9480	0.049946308
201	0xbd2274ff	-0.039662357
202	0x3d6d6743	0.057959806
203	0x3cb6d051	0.02231613
204	0xbcc6c65c	-0.024264507
205	0xbdba2fd5	-0.090911545
206	0x3d553637	0.052053656
207	0xbdd124af	-0.10212075
208	0x3d7499af	0.059716877
209	0x3d038d58	0.032117218
210	0xbd9118fb	-0.07084843
211	0xbdc15aea	-0.094411686
212	0xbcc39e33	-0.023879146
213	0x3d001c8d	0.03127723
214	0x3d677388	0.056506664
215	0x3d2796a7	0.040915158
216	0xbdaa61b2	-0.08319415
217	0xbda840b7	-0.082154684
218	0xbcafb55d	-0.021448785
219	0xb9f34d64	-0.00046406232
220	0x3d1ff5c4	0.03905274
221	0xbd434090	-0.047668993
222	0x3d447bed	0.047969747
223	0xbd7e99b7	-0.062158313
224	0x3ca49845	0.020092139
225	0xbc1a3964	-0.009413097
226	0x3e1aaea5	0.15105684
227	0x3c66eaa4	0.014094029
228	0x3c086b31	0.008326338
229	0x3cd12da9	0.025534468
230	0x3db38a70	0.08766639
231	0xbd6dd054	-0.058060005
232	0xbd3cc4fb	-0.046086293
233	0x3ddf9114	0.10916343
234	0x3d767f18	0.0601798
235	0x3dfd7084	0.12374976
236	0xbd05c17f	-0.032655235
237	0xbd5eaf23	-0.054366242
238	0x3d2dd252	0.042436905
239	0xbca58f7a	-0.020210017
240	0x3da795bd	0.08182857
241	0x3d368608	0.044561416
242	0x3cf2d451	0.029642256
243	0x3d129d84	0.03579475
244	0x3c9d8ac2	0.019231204
245	0xbca052eb	-0.019570788
246	0x3d4853ad	0.048907924
247	0xbd45f2ee	-0.04832738
248	0x3d12b7a0	0.03581965
249	0xbd161e96	-0.036650263
250	0xbc08b495	-0.008343835
251	0x3b2e6b3e	0.0026614214
252	0xbd00e834	-0.031471446
253	0xbd126b7f	-0.035747048
254	0xbd559cb2	-0.05215139
255	0xbd91853c	-0.071054906

cell.bias_hh f4 [512]
0	0x3d86b249	0.06576974
1	0x3e0b3e48	0.13597977
2	0xbd5a5e1a	-0.0533124
3	0x3e14bc4e	0.14524958
4	0x3db1b7da	0.08677645
5	0x3e32c9d0	0.17459798
6	0x3c8c30e9	0.017113166
7	0xbd65d0ea	-0.05610744
8	0x3e21854b	0.15773503
9	0x3c8f8b18	0.01752238
10	0x3c9cc7c4	0.019138224
11	0xbdc39718	-0.09550303
12	0xbc842f0f	-0.01613572
13	0xba9d2332	-0.0011988638
14	0x3cec83b0	0.028871387
15	0xbc246e15	-0.010036011
16	0xbd8094b5	-0.062783636
17	0x3e191c18	0.14952123
18	0x3db91187	0.09036546
19	0x3e21ff75	0.15820105
20	0xbdabd6a2	-0.08390547
21	0x3e36cef5	0.17852385
22	0x3e29bcc2	0.16575912
23	0x3e00836c	0.12550133
24	0xbd84082f	-0.064468734
25	0xbd9d39a1	-0.076770075
26	0x3d922e3f	0.07137727
27	0x3b4bae4f	0.0031079238
28	0x3d082651	0.033239666
29	0x3d92b909	0.07164199
30	0x3d54a6bc	0.051916823
31	0x3e506389	0.2035047
32	0x3d35d5f5	0.0443935
33	0xbd8b8fce	-0.06814538
34	0x3db72c80	0.089440346
35	0xbd989d49	-0.07451875
36	0xbca122cd	-0.019669915
37	0x3e4fe5b5	0.2030247
38	0x3d88005a	0.06640692
39	0x3cd9a169	0.026566224
40	0x3d6f8d56	0.058484398
41	0xbba8cf87	-0.0051516923
42	0x3da9c68c	0.08289823
43	0x3dcac842	0.099014774
44	0x3ddfdba2	0.109305635
45	0x3e0cb900	0.13742447
46	0x3d7c8959	0.061654422
47	0x3ba35e80	0.0049856305
48	0x3e2e85d9	0.17043246
49	0x3e133ae3	0.14377932
50	0x3b66d8df	0.003522448
51	0x3e27e9db	0.16397803
52	0xbd950dfc	-0.07278058
53	0x3e10724e	0.14106104
54	0x3d69321b	0.05693255
55	0x3cc61e6d	0.02418443
56	0x3e5f02f1	0.21778466
57	0xbd3f79d2	-0.046747036
58	0x3d286db6	0.041120254
59	0x3de7d4a1	0.113198526
60	0x3e403a34	0.18772203
61	0x3d2bbec7	0.041929986
62	0x3bf47884	0.0074606556
63	0x3e43211c	0.19055599
64	0xbcf8a005	-0.03034974
65	0x3d90eb55	0.07076136
66	0xbd62f6e0	-0.05541122
67	0x3de97df3	0.11400976
68	0xbd5687bf	-0.05237555
69	0x3cbe51d8	0.023232386
70	0x3c2d559b	0.010579492
71	0xbc55ce00	-0.0130496025
72	0x3de0e440	0.10981035
73	0xbd87096c	-0.06593594
74	0x3ea03972	0.31293827
75	0x3e63ac39	0.22233666
76	0x3e100bb3	0.14066963
77	0xbd891786	-0.0669394
78	0xbd8aac5b	-0.067711554
79	0x3d94ef43	0.07272198
80	0x3ddd1997	0.107958965
81	0xbcfcbde0	-0.030852258
82	0x3d707cf9	0.058712933
83	0xbc04f53c	-0.008115109
84	0x3d685e57	0.056730594
85	0x3d0002f3	0.031252813
86	0xbd983837	-0.07432597
87	0x3cf5f0f2	0.030022118
88	0x3e013dee	0.1262128
89	0x3bead08d	0.0071659745
90	0x3cbd781a	0.023128558
91	0x3dfb6039	0.122742124
92	0xbd8b5a3c	-0.0680432
93	0xbb59ef62	-0.0033254256
94	0x3df98c3b	0.1218495
95	0xbc93e213	-0.018052137
96	0x3caf024d	0.021363402
97	0x3d160d10	0.03663355
98	0x3e6319ad	0.22177763
99	0x3e081b39	0.13291635
100	0xbd4a5de2	-0.04940594
101	0x3d8cafbb	0.068694554
102	0x3e119553	0.14217119
103	0xbbcff79b	-0.0063466555
104	0x3e31810a	0.17334381
105	0x3dc23841	0.09483386
106	0x3e36136a	0.17780843
107	0x3dbd06fe	0.09229849
108	0x3e40b189	0.18817724
109	0xbcca3d10	-0.02468732
110	0x3db3eb17	0.08785074
111	0x3d7e3bf8	0.06206891
112	0x3ddd46d0	0.10804522
113	0x3d978416	0.0739824
114	0x3def218c	0.116763204
115	0xbd685932	-0.05672569
116	0xbb2faafb	-0.0026804793
117	0x3d58cb41	0.052928213
118	0x3e432c86	0.19059953
119	0x3e182bec	0.14860505
120	0x3c4db128	0.012554444
121	0x3d690115	0.056885798
122	0x3d86ca0c	0.06581506
123	0x3e1598de	0.14609095
124	0xbb97a042	-0.0046272585
125	0x3d3429d6	0.04398521
126	0x3db13066	0.086518094
127	0xbd695fb2	-0.056976028
128	0xbda0e0e8	-0.078553975
129	0xbbd8f6a0	-0.006621197
130	0x3d7d0c16	0.061779104
131	0xbcf6baf6	-0.030118447
132	0x3d1243f9	0.035709355
133	0x3c5725f9	0.013131612
134	0xbc952b6b	-0.01820918
135	0xbc8f081a	-0.017459918
136	0x3d80a154	0.06280771
137	0xbd06111b	-0.032731157
138	0x3d149d13	0.03628261
139	0xbd5181df	-0.051149245
140	0xbd7df2ba	-0.06199906
141	0xbb188483	-0.0023272343
142	0x3d8730ae	0.06601082
143	0xbd613216	-0.054979406
144	0xbd025683	-0.031820785
145	0xbd5e387e	-0.054253094
146	0xbd6e3b13	-0.058161806
147	0x3d3468b7	0.044045176
148	0x3d3b2f21	0.045699243
149	0x3d8d61bb	0.06903406
150	0x3ba604af	0.0050664763
151	0xbbe3e619	-0.00695492
152	0xbbf206b2	-0.007386052
153	0xbd905f27	-0.07049399
154	0x3cea5581	0.028605225
155	0xbd834915	-0.06410424
156	0x3d1a5dbe	0.037687056
157	0x3be35239	0.006937292
158	0xbd3fd20f	-0.046831187
159	0x3d006e71	0.031355325
160	0x3d82f74b	0.06394824
161	0xbcc890c0	-0.024483085
162	0xbd99a9e9	-0.07503111
163	0xbadfa326	-0.0017062172
164	0xbcda36da	-0.026637483
165	0x3d9b71f2	0.07590093
166	0x3a77ac0f	0.0009447941
167	0x3d779c7a	0.060451962
168	0x3adbef0c	0.0016779616
169	0x3d1578c4	0.036492124
170	0x3dcaeb93	0.099082135
171	0xbd8766eb	-0.06611427
172	0x3db03c0b	0.08605202
173	0x3cf8a518	0.03035216
174	0x3d7722c4	0.06033589
175	0x3c62b8ea	0.013838032
176	0xbd07dbef	-0.03316873
177	0xbd5f8a65	-0.054575343
178	0xbd5d393c	-0.05400966
179	0x3de0cec2	0.10976936
180	0x3cdfc85d	0.02731722
181	0x3d1814cb	0.037129205
182	0xbd875b5c	-0.06609222
183	0xbd3c80ed	-0.04602139
184	0x3d72d90b	0.05928902
185	0x3d7560ba	0.0599067
186	0x3c802768	0.01564379
187	0xbcf1e091	-0.029526027
188	0xbc498c61	-0.012301535
189	0x3c27897b	0.010225649
190	0xbc6bf47d	-0.014401552
191	0x3c3da799	0.011575603
192	0xbd567cf6	-0.052365266
193	0x3d817cd7	0.063226394
194	0x3d251af5	0.04030891
195	0x3c9a70c4	0.018852599
196	0x3d351b34	0.044215396
197	0x3cb56f83	0.0221479
198	0xbd8f4f04	-0.06997493
199	0xbd76228b	-0.060091536
200	0xbd350f84	-0.04420425
201	0x3d14ebb1	0.036357585
202	0x3db48ce3	0.088159345
203	0x3c0dbf2a	0.008651534
204	0xbdc2dfe4	-0.0951536
205	0xbd38dd81	-0.045133118
206	0x3c520bb5	0.012820174
207	0x3d1c4bab	0.0381581
208	0x3da65ff0	0.081237674
209	0xbd1ece20	-0.038770795
210	0xbc5113d8	-0.012761079
211	0xbdb65407	-0.08902746
212	0x3d522390	0.051303446
213	0x3d221778	0.039573163
214	0x3dbb2ffd	0.091400124
215	0x3d8d39c5	0.06895784
216	0x3d065ec1	0.032805208
217	0x3d450f1e	0.04811012
218	0xbd11c6c6	-0.035589956
219	0x3d2faa0a	0.04288677
220	0x3cee91b3	0.02912221
221	0xbd81f0a6	-0.06344728
222	0x3ce7999b	0.028271487
223	0xbd8b7c72	-0.068108454
224	0xbd469634	-0.04848309
225	0xbd115fe5	-0.035491843
226	0x3e0c8d9b	0.13725893
227	0xbcca898b	-0.024723789
228	0x3bb71cb2	0.0055881375
229	0x3d69b706	0.05705931
230	0x3d948234	0.07251397
231	0xba3d82d7	-0.00072292745
232	0x3d9913a6	0.07474451
233	0x3d09f128	0.03367725
234	0x3d01e814	0.031715468
235	0x3d69a578	0.05704257
236	0x3c221877	0.009893528
237	0xbd803e7e	-0.062619194
238	0x3d19f900	0.03759098
239	0xbd2f7289	-0.04283384
240	0xbc942c7b	-0.018087616
241	0xbd62b59f	-0.05534899
242	0x3cf13d2c	0.029448114
243	0xbaeb5569	-0.0017954531
244	0xbc62c4c4	-0.013840858
245	0xbda7c9c8	-0.081927836
246	0x3da327db	0.07966586
247	0x3cbdec34	0.02318392
248	0xbcca4713	-0.024692094
249	0xbcc3fd43	-0.023924476
250	0x3cf48094	0.029846467
251	0xbca17312	-0.01970819
252	0x3b90be7b	0.0044172383
253	0x3c3e16b8	0.011602096
254	0x3dc87234	0.097874075
255	0xbd4d1486	-0.0500684

input_embedding_layer.weight f4 [64, 2]
0	0x3ebf278f	0.37334868
1	0xbd7895fb	-0.060689908
2	0x3f25205f	0.6450252
3	0xbed6b641	-0.41935924
4	0xbd353f86	-0.044250034
5	0x3f0ff81d	0.56237966
6	0xbf1f4493	-0.6221401
7	0x3deeff52	0.11669792
8	0x3ebcf95d	0.36909
9	0x3f003b71	0.500907
10	0xbf038f55	-0.5139058
11	0xbf03b2e5	-0.51444846
12	0x3eb6a574	0.35673106
13	0xbf300ec7	-0.6877255
14	0x3c907135	0.017632106
15	0x3ed816ee	0.42204994
16	0x3ed54a96	0.41658467
17	0x3f3b82d6	0.73246515
18	0xbf1c9635	-0.611667
19	0xbe93f998	-0.28901362
20	0xbdf74f55	-0.12075678
21	0xbee480d6	-0.44629544
22	0xbe871d7c	-0.26389682
23	0x3f1627ff	0.5865478
24	0xbf275bba	-0.6537434
25	0x3f0ce976	0.55043733
26	0xbf2b7278	-0.6697154
27	0xbee2f765	-0.44329372
28	0x3e52a8ab	0.20572154
29	0x3f1a4159	0.6025596
30	0x3e93387a	0.28754026
31	0x3f04da2d	0.5189541
32	0x3cd064cd	0.02543869
33	0xbe97588f	-0.29559752
34	0x00016b50	1.30332e-40
35	0x00013d6e	1.13872e-40
36	0xbbe3624a	-0.006939207
37	0xbf2de911	-0.67933756
38	0xbeab9170	-0.33509398
39	0x3e8ba2c7	0.27272627
40	0x3ef4471e	0.47710508
41	0x3e063479	0.13105954
42	0x3f04489e	0.51673305
43	0xbd908099	-0.07055778
44	0x3effe7e6	0.49981612
45	0x3ef93976	0.48676652
46	0xbebd27f6	-0.3694455
47	0x3e220bb5	0.15824778
48	0x3ef0c3df	0.47024438
49	0xbeb17d43	-0.3466588
50	0xbf11afc8	-0.56908846
51	0xbd333f8a	-0.043761767
52	0x3e8bb525	0.2728664
53	0x3dc1acd1	0.0945679
54	0x3f3e497b	0.7433087
55	0x3eebcd65	0.4605514
56	0xbe7183d4	-0.23585445
57	0xbf47b993	-0.7801754
58	0xbd544ed8	-0.051833004
59	0xbf45582d	-0.7708767
60	0x3eb4f25d	0.35341159
61	0xbeac0135	-0.3359467
62	0xbc07f1fe	-0.0082974415
63	0x3f49234c	0.78569484
64	0xbe4d3e63	-0.2004333
65	0xbf4a68bc	-0.7906606
66	0xbdb41cfc	-0.08794591
67	0xbf2066bc	-0.6265676
68	0xbf0f36c8	-0.55942965
69	0xbc5ca4b4	-0.013467003
70	0x3f42400d	0.75878984
71	0x3eba2bc1	0.36361507
72	0xbe84a32f	-0.2590575
73	0xbf2bd0c1	-0.6711541
74	0xbf07cc9b	-0.5304658
75	0xbf2a545e	-0.66534984
76	0xbe87eeb3	-0.265493
77	0xbf3c3d99	-0.7353149
78	0xbe8686b2	-0.2627464
79	0x3e21b079	0.15789975
80	0x3e894afd	0.26815024
81	0xbeaafa30	-0.33394003
82	0x3f055a83	0.52091235
83	0x3d1edabb	0.038782816
84	0xbee68fcb	-0.4503158
85	0x3ebd63c9	0.36990193
86	0xbeeca59b	-0.46220097
87	0x3f4a66a6	0.7906288
88	0xbf3f2be8	-0.7467637
89	0xbeeea9e1	-0.46613982
90	0xbb505e35	-0.0031794433
91	0xbed07fea	-0.4072259
92	0xbf1536f0	-0.5828695
93	0x3f3171c9	0.6931425
94	0x3c09f4e4	0.008420203
95	0xbf1fb76e	-0.62389266
96	0xbefef0d1	-0.49793103
97	0xbeb3f5d0	-0.35148478
98	0x3edf19c8	0.43574357
99	0xbe4a987b	-0.19784729
100	0xbe9b4640	-0.30327034
101	0xbcc81d15	-0.02442793
102	0xbe9e71cc	-0.30946195
103	0xbf0239c4	-0.50869393
104	0xbe15fa7c	-0.14646333
105	0x3f2ef669	0.6834474
106	0x3e3c75aa	0.1840426
107	0xbef95001	-0.4869385
108	0x3e4262dc	0.18983024
109	0xbefdbdb1	-0.49558786
110	0x3c988743	0.018619185
111	0xbf12f5bf	-0.5740623
112	0xbf107556	-0.5642904
113	0x3e4bf780	0.19918633
114	0x3db7959b	0.08964082
115	0xbccb684a	-0.024830002
116	0xbf0b6817	-0.54455703
117	0x3e270a3f	0.16312502
118	0x3ec4fe30	0.3847518
119	0xbd218531	-0.03943366
120	0xbde311f8	-0.11087412
121	0xbf02dd83	-0.5111925
122	0xbdb6d0a9	-0.089265175
123	0x3f537ac9	0.8260923
124	0x3e59c603	0.21266942
125	0x3e2f6b36	0.17130741
126	0x3f33ed1c	0.70283675
127	0x3e72c9fe	0.23709866

input_embedding_layer.bias f4 [64]
0	0x3d23fd24	0.040036336
1	0x3e05219d	0.13001104
2	0x3e18ce93	0.14922552
3	0x350b72ed	5.1948774e-07
4	0x3e8b98f3	0.27265128
5	0xbe5db83b	-0.2165231
6	0x3a93fe6f	0.0011291037
7	0x3e3a6e8a	0.1820623
8	0xbc9a9cbb	-0.018873563
9	0x3cd2c772	0.025729869
10	0x3f0f421d	0.55960256
11	0x3ee2cec2	0.4429837
12	0x320b58ae	8.111028e-09
13	0xba95d59d	-0.001143146
14	0x3f28784d	0.65808564
15	0x33c8016f	9.3134865e-08
16	0x3ea79f4a	0.32738715
17	0xb9e7d20b	-0.00044216248
18	0x3d6521fd	0.055940617
19	0x3cc11315	0.02356867
20	0x3ba587d4	0.0050515924
21	0x3bce8426	0.0063023744
22	0xbb1b4c52	-0.0023696613
23	0xbee7c2f3	-0.45265922
24	0xb94e2f99	-0.00019663422
25	0xbef945bb	-0.48686013
26	0x3f311e7b	0.69187135
27	0x3f2bf0e2	0.67164433
28	0xbcc83aad	-0.024442041
29	0x3c47b396	0.012188813
30	0xbebd2d2f	-0.36948535
31	0xbb97c6bf	-0.0046318467
32	0x3e39aa5f	0.18131398
33	0x3da2383d	0.07920883
34	0xbd8e1b31	-0.0693878
35	0x3f037c73	0.5136177
36	0x3ea72704	0.32646954
37	0x3c472006	0.012153631
38	0xbe735c2d	-0.23765631
39	0x3f35e238	0.7104831
40	0x3edb63cb	0.42849573
41	0x3ef56813	0.47930965
42	0x3ef00fb9	0.46886995
43	0xbef01b28	-0.4689572
44	0x3ef7241c	0.48269737
45	0x3c6a3b16	0.014296314
46	0xbe77c917	-0.24197803
47	0x3e050ecf	0.1299393
48	0x3bdcb499	0.006735396
49	0xbea50092	-0.32226998
50	0x3c44ddcc	0.012015771
51	0xbedf4b6e	-0.43612236
52	0xbedbc718	-0.42925334
53	0x3b0e8d01	0.0021751525
54	0xbe2ffb9a	-0.17185822
55	0x3c7783cf	0.015107109
56	0x3f1450af	0.57935613
57	0x3f077564	0.529135
58	0x3f0258be	0.5091666
59	0x3aecf77e	0.001807913
60	0xbee0e80b	-0.43927035
61	0xbe47e199	-0.19519652
62	0x3d686ac3	0.05674244
63	0x3f00db08	0.50334215

output_layer.weight f4 [5, 128]
0	0xbbefaee5	-0.00731455
1	0xbd1fcfef	-0.03901666
2	0x3d1d2c50	0.038372338
3	0x3c5bf9b1	0.01342623
4	0xbe07dcb2	-0.13267782
5	0x3d644e45	0.055738706
6	0x3c521e64	0.0128246285
7	0xbd5c537f	-0.053790566
8	0xbd9d01d3	-0.076663636
9	0xbdbf83b2	-0.09351291
10	0xbe8a3356	-0.2699229
11	0x3e4d800d	0.20068379
12	0xbda76738	-0.08173984
13	0xbd35fcfa	-0.04443071
14	0x3cd14fd9	0.02555077
15	0x3e7e9aba	0.24863711
16	0xbe33afb7	-0.17547499
17	0xbe5b25b2	-0.21401098
18	0xbc5668eb	-0.013086538
19	0xbda00caf	-0.07814919
20	0x3e549a66	0.20762023
21	0xbda8ec80	-0.08248234
22	0x3c4b4986	0.012407666
23	0xbd35372d	-0.044242073
24	0xbe4fc9f1	-0.20291878
25	0xbda970eb	-0.082734905
26	0xbe3abb53	-0.18235521
27	0xbda16a57	-0.07881611
28	0x3bb07dc8	0.005386088
29	0xbde7e2cb	-0.11322554
30	0xbe849bc5	-0.25900093
31	0x3c2ce747	0.010553188
32	0xbcc090aa	-0.023506481
33	0x3e3e766b	0.1859986
34	0xbdbd4d15	-0.09243218
35	0xbdd47faf	-0.10375916
36	0xbe1daac6	-0.15397176
37	0x3c920c2d	0.017828071
38	0xbdcd728e	-0.10031615
39	0xbd041c54	-0.03225358
40	0x3df96e65	0.12179259
41	0xbdee47cd	-0.11634789
42	0xbdcb8333	-0.09937134
43	0x3e47069e	0.19436118
44	0xbb5ed394	-0.0034000622
45	0x3d912a9b	0.070882045
46	0x3db42f64	0.087981015
47	0x3e081eca	0.13292995
48	0xbc56dd5d	-0.013114301
49	0xbbcbe4c2	-0.0062223384
50	0x3cf726fd	0.030169958
51	0xbdb4489c	-0.08802912
52	0xbdb8dfba	-0.090270475
53	0xbd0734a1	-0.033009175
54	0x3d5d7d74	0.05407472
55	0xbd8e0da6	-0.06936197
56	0xbcabd4f9	-0.020975577
57	0x3e4f44a6	0.20241031
58	0x3dbf9d0b	0.093561254
59	0x3c94102f	0.018074123
60	0x3bd46228	0.0064814277
61	0xbd84e665	-0.06489257
62	0xbe257d72	-0.16161135
63	0xbda15c5a	-0.07878943
64	0x3deef73a	0.116682485
65	0xbd35e779	-0.044410203
66	0xbc820337	-0.015870674
67	0x3c581bb4	0.013190199
68	0x3dc82497	0.09772604
69	0xbe1f09e1	-0.15531112
70	0xbdc110d6	-0.09427039
71	0x3cda879a	0.026675988
72	0x3d51f8a0	0.051262498
73	0x3d6ee343	0.058322202
74	0x3cbc5b10	0.02299264
75	0x3c75176d	0.014959198
76	0x3d3c04db	0.045903068
77	0x3cb7f810	0.022457153
78	0x3e6e1f1b	0.23254053
79	0xbdf0633f	-0.1173768
80	0xbd78210b	-0.060578387
81	0xbdd6f776	-0.10496418
82	0x3d1995af	0.037496265
83	0x3d29ab06	0.041422866
84	0x3e59da39	0.21274652
85	0xbe18b323	-0.14912085
86	0x3e489464	0.19587857
87	0xbe10bcd6	-0.14134535
88	0xbca195df	-0.019724784
89	0xbdaa79e2	-0.083240286
90	0x3cc0cdc6	0.02353562
91	0x3c04486c	0.008073907
92	0x3c56fb70	0.013121471
93	0x3b1f4153	0.002430041
94	0x3aab38db	0.0013063209
95	0x3dac4847	0.08412223
96	0xbb051c48	-0.0020311046
97	0x3d434309	0.04767135
98	0xbd347f5d	-0.044066776
99	0xbda66b38	-0.08125919
100	0x3d89b4ca	0.06723936
101	0x3c006cb2	0.007838415
102	0x3dd72955	0.1050593
103	0xbe39a77f	-0.18130301
104	0x3d4f9ff5	0.050689656
105	0xbdd5a5bb	-0.10432001
106	0x3c1318ef	0.008978113
107	0x3caba9cb	0.020954987
108	0x3e00bc64	0.12571865
109	0xbe101063	-0.14068751
110	0x3d258e56	0.040418945
111	0x3e2b2e0c	0.16716784
112	0xbdef2279	-0.11676497
113	0x3e2e390a	0.17013946
114	0x3d6f66d1	0.058447663
115	0x3e2edc2b	0.17076175
116	0x3c6c14b3	0.014409232
117	0x3dbc4c56	0.091942474
118	0xbdf92acb	-0.12166365
119	0x3dde269b	0.10847207
120	0xbdfdeb0f	-0.123983495
121	0x3dc91e38	0.09820217
122	0xbd24a709	-0.04019836
123	0x3ae95aa3	0.0017803501
124	0x3e37bc5e	0.1794295
125	0x3c110aac	0.008852642
126	0x3dc6c12f	0.097048156
127	0x3dcffe67	0.10155945
128	0x3deaf761	0.11472965
129	0xbd3161e0	-0.04330623
130	0x3d97869a	0.0739872
131	0x3aa94a6f	0.001291586
132	0x3dcdd8b5	0.10051099
133	0xbc473e27	-0.012160814
134	0x3e11bfde	0.14233348
135	0xbe614072	-0.2199724
136	0x3b608406	0.003425838
137	0xbca7fd45	-0.02050651
138	0xbd084d6d	-0.033276964
139	0xbdeffc21	-0.11718012
140	0x3ddd1e3a	0.10796781
141	0xbdd6a840	-0.1048131
142	0x3da6214e	0.08111821
143	0xbde2a9f5	-0.11067573
144	0x3e159c1a	0.1461033
145	0x3dfa9e93	0.12237277
146	0x3ce65250	0.028115422
147	0xbc86feb2	-0.01647887
148	0xbda8a4e1	-0.08234573
149	0xbd87baa6	-0.06627397
150	0x3d3a0971	0.04541916
151	0x3ae727bc	0.0017635743
152	0x3dbdc2cc	0.0926567
153	0x3dd14908	0.10219008
154	0xbd1cf8b7	-0.03832313
155	0xbe02b1d2	-0.12763146
156	0xbe0fd897	-0.14047466
157	0x3d66b489	0.056324515
158	0x3de708fe	0.11281012
159	0x3c5fe1e7	0.013664699
160	0xbe0a9203	-0.13532262
161	0xbe13259f	-0.1436982
162	0x3de7a1bc	0.11310145
163	0xbce6a701	-0.028155806
164	0x3d8466e5	0.06464938
165	0x3cdc9a08	0.026928917
166	0xbd13f669	-0.036123667
167	0x3e0cd72c	0.13753957
168	0x3e17e710	0.14834237
169	0xbb01ecd7	-0.0019825005
170	0xbd976031	-0.07391394
171	0xbda8b1b7	-0.082370214
172	0xbe0406a0	-0.12893152
173	0xbbe4e335	-0.006985093
174	0xba843f30	-0.0010089632
175	0x3cc0c594	0.023531713
176	0xbd60d718	-0.05489263
177	0x3d3900c1	0.045166735
178	0x3d9612a9	0.07327778
179	0x3ceeffed	0.02917477
180	0x3e693dab	0.2277743
181	0x3d80c19b	0.06286927
182	0xbcc3fc98	-0.023924157
183	0xbde4683b	-0.11152693
184	0xbc44ef72	-0.012019979
185	0xbe1ade54	-0.15123874
186	0xbd21e377	-0.039523568
187	0xbc9f4489	-0.01944186
188	0xbdeca985	-0.11555771
189	0xbe0f9cad	-0.14024611
190	0xbba94c24	-0.0051665474
191	0xbd02ec38	-0.031963557
192	0x3d709824	0.058738843
193	0xbdaf0957	-0.08546703
194	0x3e4bf57a	0.1991786
195	0x3d5edd7e	0.05441045
196	0xbdddf3d8	-0.10837525
197	0x3d2701c2	0.04077316
198	0xbda5d236	-0.08096735
199	0x3da393a3	0.07987144
200	0x3dd2608b	0.1027232
201	0x3dcef5a4	0.10105446
202	0xbd089fc8	-0.033355504
203	0xbdb93eea	-0.09045203
204	0x3c34fac2	0.011046113
205	0xbde46dc7	-0.11153751
206	0xbd04c861	-0.03241766
207	0xbd6db52a	-0.0580341
208	0x3cad906a	0.021187026
209	0x3d651f2e	0.05593794
210	0x3de412fd	0.11136434
211	0xbda7bd33	-0.08190384
212	0xbd2dd284	-0.04243709
213	0xbd84d947	-0.06486755
214	0xbb6c822c	-0.003608833
215	0x3d6db55c	0.058034286
216	0xbda920a3	-0.08258178
217	0x3e1f1a3e	0.15537354
218	0x3d992a98	0.07478827
219	0xbd5460fa	-0.051850297
220	0xbdf4ddb5	-0.1195635
221	0x3d047cce	0.032345586
222	0xbda217ce	-0.07914697
223	0xbdec7bef	-0.11547076
224	0xbe249467	-0.16072236
225	0x3e2926e3	0.1651874
226	0x3c19e174	0.009392131
227	0x3b43fe84	0.0029906342
228	0x3da9d6e8	0.08292943
229	0x3dd208cb	0.102555834
230	0x3db2fc5b	0.08739539
231	0x3d39df50	0.045378983
232	0xbc11da4a	-0.008902142
233	0xbd3fb411	-0.046802584
234	0x3cd7355b	0.026270559
235	0x3d4e2963	0.05033244
236	0xbc5b3808	-0.013380058
237	0x3e056e6b	0.13030402
238	0x3c8fc83d	0.017551536
239	0xbcf1a94f	-0.029499678
240	0x3dc14bda	0.09438296
241	0xbe0ca202	-0.13733676
242	0xbd3bff11	-0.045897547
243	0x3d8faa7a	0.07014938
244	0xbddee4c7	-0.108834796
245	0xbd8acbea	-0.06777175
246	0xbcf6c777	-0.03012441
247	0xbbc4cfb8	-0.0060062073
248	0x3de03961	0.10948444
249	0x3d4c2d47	0.049847867
250	0x3c3ee5f9	0.011651509
251	0xbcba51d1	-0.022744091
252	0x3db14d21	0.08657289
253	0x3c7e57fc	0.015523907
254	0x3defd8a3	0.11711242
255	0x3e093416	0.13398775

output_layer.bias f4 [5]
0	0xbd09084a	-0.03345517
1	0x3c815fd1	0.01579276
2	0xbda8398b	-0.082141005
3	0xbd95b327	-0.07309561
4	0x3d92b07e	0.071625695

sum f4 [512, 64]
0	0x3f358d10	0.7091837
1	0x400317ed	2.0483353
2	0x3f525dfc	0.8217466
3	0x404a3015	3.1591847
4	0x3f9dce38	1.2328558
5	0x3fa90f34	1.3207765
6	0x3f284750	0.65733814
7	0x3f17e2af	0.59330267
8	0x3fafc1fd	1.3731076
9	0x406120a8	3.5176182
10	0x3fcfdc92	1.6239188
11	0x40328331	2.7892573
12	0x409f8ab3	4.985681
13	0x4011a1ff	2.2755125
14	0x403e3c42	2.9724278
15	0x3f2f7e5c	0.68552184
16	0x3ef879ef	0.48530528
17	0x316a3c58	3.4085783e-09
18	0x3e00d4ca	0.12581173
19	0x3f97dfbb	1.1865152
20	0x3f67838f	0.9043512
21	0x3f87b5c0	1.0602341
22	0x3f997e10	1.1991596
23	0x3efeaee2	0.497428
24	0x3f78b621	0.97152907
25	0x3fb1b54e	1.3883455
26	0x402fde8e	2.7479587
27	0x40d614a6	6.6900206
28	0x3eb06069	0.34448555
29	0x3dd1fc34	0.10253182
30	0x3ea1d8b6	0.3161065
31	0x3ffc30d0	1.9702396
32	0x3f217e99	0.630838
33	0x3e37a4eb	0.17934005
34	0x40037ace	2.0543704
35	0x4088fd0f	4.280891
36	0x3f9f2f8d	1.2436386
37	0x3fbdb692	1.4821341
38	0x3e814ff2	0.25256306
39	0x40503d53	3.253743
40	0x3fafec6f	1.3744029
41	0x4024ccab	2.574992
42	0x4066d6d3	3.6068618
43	0x40370d16	2.8601737
44	0x40ed9958	7.4249687
45	0x3d0dedb0	0.034650505
46	0x40705e73	3.7557647
47	0x3e4b97c8	0.19882119
48	0x3fa1b432	1.2633116
49	0x3f0b8e07	0.5451359
50	0x3f19fb0b	0.60148686
51	0x3e890841	0.2676411
52	0x3f79d952	0.9759723
53	0x3e4ba01d	0.19885297
54	0x3e0be651	0.13662077
55	0x3d953db6	0.07287161
56	0x4087a964	4.2394276
57	0x3f84c3ef	1.0372294
58	0x40911ace	4.534522
59	0x3f21abc1	0.631527
60	0x3bdb3537	0.0066896933
61	0x3fe088bf	1.7541732
62	0x3e6fd191	0.23419787
63	0x408d66cc	4.4187984
64	0x3ccf3729	0.025294857
65	0x3e09d6ab	0.13460796
66	0x3f6abd03	0.9169466
67	0x3ed4a1a2	0.41529566
68	0x3f15b431	0.58478075
69	0x3d18908f	0.037247237
70	0x3dae36ed	0.0850657
71	0x3effb7c2	0.49944884
72	0x3f277a81	0.654213
73	0x3e164e41	0.14678289
74	0x3e703d03	0.23460774
75	0x3fcea7e2	1.6144984
76	0x3fdeddf0	1.741148
77	0x3dda217b	0.10650917
78	0x3fbd9aa1	1.4812814
79	0x3eb22e4a	0.3480094
80	0x3dbda509	0.092599936
81	0x2e247f4d	3.740235e-11
82	0x3d9d2fac	0.07675108
83	0x3ecee652	0.40410095
84	0x3c9468a3	0.0181163
85	0x3cfb8df9	0.030707346
86	0x3e565a1f	0.20932816
87	0x3d8b1cf6	0.06792633
88	0x3d6aa552	0.057286568
89	0x3d6fc211	0.058534686
90	0x3ecf79ab	0.40522513
91	0x3f4667e8	0.775023
92	0x3d797e02	0.060911186
93	0x3da838ec	0.08213982
94	0x3c948aaf	0.018132536
95	0x3fb783d6	1.4337108
96	0x3dcdec6f	0.10054862
97	0x3d92d950	0.07170355
98	0x3e2405e5	0.16017874
99	0x3eea9f29	0.45824555
100	0x3e2e3fd6	0.17016539
101	0x3d9cd011	0.07656873
102	0x3d01e581	0.031713013
103	0x3f6cef5f	0.9255275
104	0x3e37f4a6	0.1796442
105	0x3e62c497	0.22145306
106	0x3fa8a5ad	1.317556
107	0x3f9f49ae	1.244436
108	0x3eca213c	0.3947848
109	0x3cc2933b	0.023751846
110	0x3fd628dc	1.6731219
111	0x3d9674d4	0.07346502
112	0x3d83c39d	0.06433795
113	0x3c62f04b	0.013851236
114	0x3d6493ae	0.0558049
115	0x3be330df	0.006933316
116	0x3f2d9860	0.6781063
117	0x3d33f7cb	0.043937486
118	0x3cf7ad46	0.03023399
119	0x3d414d19	0.047192667
120	0x3f9d04c8	1.2267084
121	0x3e4ec466	0.20192108
122	0x3f74a8d3	0.95570105
123	0x3c8d504a	0.017250199
124	0x3c1507bb	0.009096081
125	0x3fa75eb0	1.3075771
126	0x3d2e9386	0.042621158
127	0x3e9cbca9	0.30612686
128	0x3ec6b388	0.38808846
129	0x403273ed	2.7883255
130	0x3ef734f6	0.48282593
131	0x4062424f	3.5352972
132	0x3e805a20	0.2506876
133	0x3feb7693	1.8395561
134	0x406f01df	3.7344892
135	0x3e55e378	0.20887554
136	0x3e62dbb2	0.2215412
137	0x4037aa3e	2.8697658
138	0x40160f7a	2.3446946
139	0x4016607f	2.3496397
140	0x408ccec4	4.40024
141	0x407ade6f	3.9198263
142	0x3f230951	0.6368609
143	0x3df65abe	0.120290264
144	0x3f583c92	0.8446742
145	0x2f336444	1.6315577e-10
146	0x400317f5	2.0483372
147	0x3faa66f7	1.3312672
148	0x3e12130c	0.14265078
149	0x3f232070	0.6372137
150	0x3d926044	0.071472675
151	0x3f26305c	0.6491754
152	0x3fdc6fa4	1.722157
153	0x3fe7790c	1.8083816
154	0x3f0ecab9	0.5577808
155	0x3f42e085	0.7612384
156	0x4026fc89	2.6091635
157	0x4030eb28	2.7643528
158	0x3f49f17a	0.7888409
159	0x3f0d82f2	0.5527793
160	0x40597ece	3.3983645
161	0x3fecf857	1.8513287
162	0x403345f3	2.8011444
163	0x3ecda043	0.40161332
164	0x404ca269	3.1974127
165	0x40572e51	3.362202
166	0x3fccdacb	1.600427
167	0x3ffb0210	1.9610004
168	0x3fdce8b7	1.7258519
169	0x3f556666	0.8335937
170	0x4040896e	3.008388
171	0x3ff4f9b2	1.9138701
172	0x40aab691	5.334786
173	0x3f472164	0.77785325
174	0x4047684e	3.1157413
175	0x3fe342bb	1.775474
176	0x400b56a8	2.177164
177	0x3f054f93	0.52074546
178	0x3f6bcdd9	0.92110974
179	0x3f01dea6	0.5073036
180	0x3f2488a6	0.6427101
181	0x3fcd0fad	1.6020409
182	0x3fae7fbc	1.3632731
183	0x3fc6ac3e	1.5521314
184	0x40bc2ded	5.880606
185	0x3ec6322f	0.38710162
186	0x409cd1a2	4.90059
187	0x3e9ebeb5	0.31004873
188	0x3ee469ce	0.44611973
189	0x3f4fcc54	0.81171155
190	0x3c85589a	0.0162776
191	0x3f31cac9	0.6945005
192	0x3abf08fd	0.0014574822
193	0x3bdeef77	0.006803449
194	0x3d0e2eee	0.034712724
195	0x3d565340	0.052325487
196	0x3ce44ca0	0.027868569
197	0x3cdfb3b7	0.027307374
198	0x3bd01338	0.0063499473
199	0x3ca846c0	0.020541549
200	0x3c9b5cd7	0.018965168
201	0x3d6c66fd	0.057715405
202	0x3d10c388	0.035342723
203	0x3dab2f10	0.08358586
204	0x3db4ce68	0.08828431
205	0x3d9300a8	0.071778595
206	0x3da17e15	0.07885376
207	0x3c1ed4d7	0.0096943
208	0x3c09384d	0.00837524
209	0x3243ae20	1.1390085e-08
210	0x3b9dca45	0.004815372
211	0x3ce40ec7	0.027839078
212	0x3aac3427	0.0013138101
213	0x3b019a75	0.0019775901
214	0x3bdf7876	0.00681978
215	0x3c239df3	0.0099863885
216	0x3b4d695b	0.0031343314
217	0x3ce1f50e	0.027582671
218	0x3d0d180f	0.034446772
219	0x3d598a37	0.053110328
220	0x3c2c14d2	0.010503011
221	0x3ba6731d	0.0050796405
222	0x3a4b5a79	0.0007757317
223	0x3ce54997	0.027989192
224	0x3cb564b7	0.022142751
225	0x3bf1de67	0.0073812488
226	0x3d281cc8	0.041043073
227	0x3cbf52c3	0.023354894
228	0x3d0ed59d	0.034871686
229	0x3d634aaf	0.055491146
230	0x3c13435c	0.008988228
231	0x3ddf435a	0.10901518
232	0x3c5b6cbe	0.013392625
233	0x3c857bfd	0.016294474
234	0x3e024fac	0.12725705
235	0x3d4e9330	0.050433338
236	0x3e1b9bbf	0.15196131
237	0x3ab74630	0.001398271
238	0x3d9c32ac	0.076268524
239	0x3bce0ea0	0.0062883645
240	0x3cfd7372	0.030938838
241	0x3a37975a	0.0007003449
242	0x3c5c322a	0.013439694
243	0x3bc046a8	0.005867798
244	0x3c8f7d24	0.017515726
245	0x3b1eebdc	0.002424947
246	0x3ad09c5c	0.0015915739
247	0x3b44d900	0.0030036569
248	0x3e039da8	0.1285311
249	0x3ca79671	0.020457478
250	0x3e279b5d	0.1636786
251	0x3a8c75c8	0.0010716254
252	0x3a65527a	0.00087479467
253	0x3ce7d0ee	0.028297868
254	0x3aeab6a6	0.0017907217
255	0x3cb66208	0.022263542
