model/VANILLALSTM/LSTM/VANILLALSTM_lstm_model_24.tar (torch, 809783 bytes, 16 tensors)

cell.weight_ih f4 [512, 64]
-0.03695548 0.039138563 -0.087002315 -0.019057399 0.096886545 -0.045980364 -0.011331763 0.01689703
-0.015659763 -0.042907182 0.028041746 0.039629176 -0.071359746 0.020969706 -0.0011491014 -0.0058322637
0.01422773 1.25502e-40 0.022800429 0.0077589517 0.015599456 0.041165523 0.031081753 -0.02966626
-0.00879456 -0.0030448022 0.009607086 -0.0698212 0.04593808 0.06754821 0.046377495 -0.00054567
-0.002013764 0.036933944 -0.053098544 -0.034579247 0.049048305 -0.017513966 0.073313884 0.03333372
0.016646458 -0.0144481715 -0.015836168 0.0058223484 -0.05021872 0.09162086 0.0031267845 -0.0057763928
0.059837516 0.021337198 0.00024858527 0.016921233 0.012802715 0.0325393 0.03767313 0.051238053
-0.00035781556 -0.04930414 0.0020483963 0.0029891797 0.11963447 0.019669425 -0.029677622 0.08374347
-0.027768457 -0.056211572 -0.05860071 -0.0036906183 0.018089918 0.026144022 -0.02905353 0.06855247
-0.07086153 -0.049355935 0.051948246 0.09012701 -0.03778865 0.080732174 0.040032014 -0.110368565
0.010359232 -5.3315e-41 0.030895391 0.028244242 -0.05697877 -0.046289828 -0.030570664 0.045938257
-0.046125293 0.034061845 0.09444813 -0.03222238 -0.0056147478 -0.027190601 -0.0111697875 -0.13816383
-0.001854954 -0.01462136 0.042502936 -0.036988463 -0.051944487 0.065642804 0.029518578 0.085651375
-0.013146269 -0.01713524 0.091986306 0.0035700244 -0.0011034211 -0.03296932 0.04051974 -0.055639725
-0.022827253 -0.029631032 -0.0009535643 -0.005581989 -0.009694488 -0.04343471 -0.02634302 -0.011183379
0.032458436 0.07556964 0.09347063 -0.05820519 0.008249967 -0.09904278 0.013097479 0.02305985
0.008755073 -0.00024115661 -0.03382668 0.010406292 0.050276063 0.0019846326 0.009321913 -0.02321021
-0.054283768 -0.0050631315 0.13550448 0.04709655 0.009346058 -0.033279587 -0.04625238 -0.031602476
0.009074739 -8.031e-41 -0.027713422 -0.03032108 -0.03738317 -0.018996228 -0.04908019 -0.010782315
-0.016385458 -0.022120193 0.03555685 0.011686351 -0.003528503 0.003987169 -0.024263714 -0.055275813
0.062105738 0.012276409 -0.028292516 -0.08417903 0.13175438 0.006202543 -0.049823683 0.0379055
-0.015813582 -0.042349234 0.021751989 -0.026731187 0.0045873304 -0.008018727 -0.02705533 -0.010746671
-0.03307725 -0.014192258 0.038682867 0.0255048 0.07266567 -0.047926214 -0.036197692 0.021389987
-0.030355671 -0.036113262 0.0294012 -0.031187195 0.034551337 0.023869133 0.024246091 0.012647444
0.07804763 0.13860297 0.05007762 -0.058401715 0.07850687 -0.0144446455 -0.0152909495 0.07140971
-0.021467535 0.014375173 0.11600854 -0.06974557 0.04715596 0.0006361935 0.0026229827 -0.02920551
0.07243967 -1.36024e-40 0.03439918 -0.027763339 0.040590525 0.04690189 -0.026015447 -0.017352989
0.012742471 0.00726967 0.10591914 0.01564217 -0.026784513 -0.0073430277 0.009388572 -0.028878693
0.038899645 0.018166754 -0.02119377 0.14255169 0.061074946 0.018102707 -0.02106227 -0.044399112
0.1427311 0.1348227 -0.07850601 -0.029764209 -0.035166316 -0.02192074 -0.021919472 0.010292976
-0.04825058 0.0121191 -0.06989316 -0.018523712 -0.029957553 -0.022313807 -0.0029690743 -0.030172668
-0.051049255 0.06149109 0.06269933 0.034657694 -0.026337733 -0.025714554 0.035548043 0.10052895
00000000: a15e 17bd c24f 203d 452e b2bd 431e 9cbc
00000010: 746c c63d e855 3cbd dca8 39bc a46b 8a3c
00000020: e748 80bc 71bf 2fbd ceb7 e53c 3452 223d
00000030: 0f25 92bd a9c8 ab3c 729d 96ba 931c bfbb
00000040: 6d1b 693c d95d 0100 f7c7 ba3c ce3e fe3b
00000050: dc94 7f3c 2e9d 283d 299f fe3c a806 f3bc
00000060: 0f17 10bc 4e8b 47bb 0a67 1d3c 6bfe 8ebd
00000070: 9129 3c3d b756 8a3d 54f6 3d3d 4b0b 0fba
00000080: 5bf9 03bb 0c48 173d dc7d 59bd f8a2 0dbd
00000090: e0e6 483d 7379 8fbc 9725 963d f088 083d
000000a0: 275e 883c 06b8 6cbc daba 81bc 66c9 be3b
000000b0: 25b2 4dbd b8a3 bb3d bdea 4c3b e547 bdbb
000000c0: 2f18 753d 59cb ae3c 8d54 8239 669e 8a3c
000000d0: 7bc2 513c ee47 053d 244f 1a3d fede 513d
000000e0: 3199 bbb9 23f3 49bd 633e 063b 1de6 433b
000000f0: eb02 f53d c621 a13c 7c1e f3bc b281 ab3d
00000100: ad7a e3bc 1b3e 66bd 4c07 70bd 4dde 71bb
00000110: 4f31 943c fd2b d63c ab01 eebc 3d65 8c3d
00000120: da1f 91bd 7329 4abd afc7 543d 8394 b83d
00000130: 45c8 1abd e956 a53d 9cf8 233d ea08 e2bd
00000140: c5b9 293c 9f94 0080 5518 fd3c 7860 e73c
00000150: 9262 69bd 679a 3dbd 546f fabc c129 3c3d
00000160: e0ed 3cbd 6f84 0b3d 056e c13d 9dfb 03bd
00000170: ebfb b7bb d3be debc 7c01 37bc d27a 0dbe
00000180: ee21 f3ba 6e8e 6fbc 8f17 2e3d 3781 17bd
00000190: bec3 54bd bc6f 863d f2d0 f13c fd69 af3d
000001a0: 7363 57bc 345f 8cbc 5163 bc3d 12f7 693b
000001b0: aba0 90ba d60a 07bd 07f8 253d 7be6 63bd
000001c0: 3800 bbbc c7bc f2bc 9ef8 79ba 1ee9 b6bb
000001d0: a1d5 1ebc 98e8 31bd 51cd d7bc 7e3a 37bc
000001e0: 23f3 043d 41c4 9a3d 886d bf3d 9168 6ebd
000001f0: df2a 073c f1d6 cabd cf96 563c 03e8 bc3c
00000200: 7071 0f3c fcde 7cb9 d88d 0abd 277f 2a3c
00000210: 46ee 4d3d 9c10 023b f0ba 183c 5723 bebc
00000220: a858 5ebd a0e8 a5bb b0c1 0a3e 50e8 403d
00000230: 3520 193c 2d50 08bd 2373 3dbd 9971 01bd
00000240: 37ae 143c dfdf 0080 4207 e3bc ea63 f8bc
00000250: 181f 19bd fa9d 9bbc 4f08 49bd 4fa8 30bc
00000260: cc3a 86bc 6835 b5bc 0fa4 113d 1c78 3f3c
00000270: 753e 67bb cca6 823b b2c4 c6bc e468 62bd
00000280: 9662 7e3d fe22 493c b5c5 e7bc 0e66 acbd
00000290: 9fea 063e b43e cb3b eb13 4cbd cc42 1b3d
000002a0: 7c8b 81bc 6476 2dbd 3a31 b23c 5dfb dabc
000002b0: 5151 963b fb60 03bc 24a3 ddbc ce12 30bc
000002c0: 037c 07bd a586 68bc ed71 1e3d 71ef d03c
000002d0: bdd1 943d 474e 44bd 0844 14bd 0e3a af3c
000002e0: 75ac f8bc 80eb 13bd c9da f03c 4a7c ffbc
000002f0: b485 0d3d 3389 c33c bd9f c63c 3a37 4f3c
00000300: 70d7 9f3d f0ed 0d3e 311e 4d3d a336 6fbd
00000310: 36c8 a03d 3ca9 6cbc e486 7abc 413f 923d
00000320: afdc afbc d885 6b3c e395 ed3d c4d6 8ebd
00000330: 9c26 413d 39c6 263a 59e6 2b3b 6540 efbc
00000340: 405b 943d 2e7b 0180 28e6 0c3d f16f e3bc
00000350: 4042 263d 321c 403d 591e d5bc db27 8ebc
00000360: ccc5 503c 6936 ee3b 22ec d83d 0224 803c
00000370: 326b dbbc c89d f0bb 86d2 193c 0293 ecbc
00000380: 3c55 1f3d 72d2 943c 8f9e adbc 12f9 113e
00000390: b929 7a3d 214c 943c c88a acbc d8db 35bd
000003a0: 1a28 123e f60e 0a3e c2c7 a0bd 12d4 f3bc
000003b0: 8e0a 10bd 2093 b3bc 7790 b3bc dfa3 283c
000003c0: 66a2 45bd 318f 463c 2524 8fbd 0abf 97bc
000003d0: 8b69 f5bc 72cb b6bc cd94 42bb ac2c f7bc
000003e0: 0619 51bd 15de 7b3d 8268 803d 3af5 0d3d
000003f0: 3bc2 d7bc 54a7 d2bc d39a 113d 1fe2 cd3d

cell.weight_hh f4 [512, 128]
0.028854895 -0.014760476 0.048027106 0.02833681 -0.016378632 0.036145028 -0.008093007 -0.033527937
-0.065944135 -0.08225285 -0.013996785 -0.033265475 -0.044033498 0.028035512 -0.071641766 -0.004914491
0.023704793 0.031707183 0.050774716 -0.011985213 0.019495603 0.07917137 0.036935017 -0.03675821
-0.04872969 -0.0037803748 0.001312737 0.0319148 -0.027868224 -0.03480018 -0.012550394 0.028331846
0.018648483 0.029112708 -0.010829434 -0.024780696 -0.0069412827 0.043200865 -0.004422148 0.007849439
0.045352057 0.05810523 0.015382357 -0.016129274 0.013989056 -0.053875953 0.05342494 -0.008439771
-0.022921553 0.05313765 0.07695427 -0.045181327 0.018078288 -0.036174275 0.0050251973 0.013408021
0.008321602 0.054518897 -0.05737221 0.020623576 -0.010967131 -0.10877451 0.010555277 0.02086285
-0.03966883 -0.0117716715 0.054783303 0.017848633 -0.03424251 0.009023138 0.039422005 0.049647026
0.0018406796 -0.005963329 0.019565377 -0.028850686 0.023572309 -0.04513222 -0.051016912 0.017329035
-0.0028190522 -0.019689834 -0.056890056 0.047534153 -0.024856703 0.05622756 -0.003194658 0.06473467
0.017514827 0.023783106 -0.036905516 -0.023716735 0.043447316 0.0008277684 -0.0309833 -0.015769469
-0.017419053 0.009260403 -0.007373851 0.0032837808 0.011611816 -0.060995895 0.06296699 -0.016671699
0.037368707 0.015850177 -0.035996933 0.025800439 -0.068963386 -0.057919133 0.0015645917 0.015949594
0.032756615 -0.016032213 0.03806835 0.02622777 0.0013848541 0.008299707 -0.022347476 -0.036834702
0.03514679 0.011533728 0.05458157 -0.01346678 0.022316353 0.03175995 -0.05235351 0.04819101
0.043281037 -0.058373395 -0.05759592 -0.019289022 -0.055368975 0.01620591 0.00629608 -0.014456982
-0.0297472 -0.00036158803 0.011834135 -0.033284016 -0.018128794 0.039521385 -0.05289218 -0.006552485
0.0015896767 -0.034557566 0.03603705 0.039685782 -0.007488206 0.082979314 0.07313104 -0.031158334
-0.0017403658 0.012738692 0.043103024 0.058673173 -0.040753126 -0.049666114 0.011101786 -0.04240128
0.07487053 -0.037711386 0.06408188 0.013033363 0.019956293 0.002051386 -0.048099652 -0.037279144
0.015701305 0.014272497 -0.014499313 -0.051425505 0.023525974 -0.03282985 0.039166953 0.0025770995
-0.00097616925 -0.058485176 0.031291306 0.10246489 -0.017046632 -0.00738635 0.029712424 -0.07579529
0.04524422 0.050946344 -0.07822841 -0.010278081 0.02113579 -0.07525396 0.002032602 -0.0161717
0.009509858 0.01714215 -0.0038089599 0.0634515 0.0015476826 0.05300303 0.029950041 -0.056513358
0.013141045 0.010916883 -0.04177198 -0.019479087 -0.003390505 -0.035993956 -0.0164123 0.017613078
0.0029614945 0.0042677224 0.012661974 -0.05471 0.020749737 0.0026766756 -0.052085932 0.023684332
0.028170109 -0.017542139 0.04811115 -0.03473832 0.046212 -0.04827147 -0.0067924694 0.03635796
0.012319189 -0.01368489 -0.015304649 -0.026427547 0.0008916073 -0.07024567 0.0062544695 -0.007723346
-0.010322305 0.020074122 0.045474406 0.016620409 0.029280854 -0.035348743 -0.039194036 -0.047774512
-0.034770202 -0.062302653 0.057203814 0.002772044 -0.017362598 0.01724788 0.012454165 -0.03695571
-0.011710087 0.017143147 0.03741556 -0.07813426 -0.015000211 0.03236886 -0.035401292 -0.018825242
00000000: 1a61 ec3c ecd5 71bc 12b8 443d 9922 e83c
00000010: 7b2c 86bc cf0c 143d 8898 04bc 9754 09bd
00000020: b80d 87bd 2f74 a8bd c552 65bc 6141 08bd
00000030: 785c 34bd bbaa e53c ebb8 92bd bd09 a1bb
00000040: 8e30 c23c 64df 013d 26f9 4f3d a05d 44bc
00000050: 3eb5 9f3c 9924 a23d 2c49 173d c78f 16bd
00000060: c998 47bd 2ac0 77bb 2510 ac3a 18b9 023d
00000070: e74b e4bc a28a 0ebd 2ba0 4dbc 3018 e83c
00000080: b4c4 983c c67d ee3c f06d 31bc e300 cbbc
00000090: b373 e3bb 64f3 303d abe7 90bb ef9a 003c
000000a0: 14c3 393d c0ff 6d3d 4806 7c3c 8a21 84bc
000000b0: 5b32 653c 08ad 5cbd 1cd4 5a3d f746 0abc
000000c0: fbc5 bbbc dda6 593d 339a 9d3d 0e10 39bd
000000d0: eb18 943c 7a2b 14bd 69aa a43b 51ad 5b3c
000000e0: 5457 083c 354f 5f3d 1fff 6abd c6f2 a83c
000000f0: 7baf 33bc 2cc5 debd 0af0 2c3c 91e8 aa3c
00000100: c87b 22bd f8dd 40bc 7564 603d 4c37 923c
00000110: e041 0cbd c9d5 133c f878 213d ae5a 4b3d
00000120: f542 f13a 0868 c3bb 9247 a03c 4658 ecbc
00000130: b71a c13c 90dc 38bd 1cf7 50bd 9ff5 8d3c
00000140: d9bf 38bb 934c a1bc 8c05 69bd 2cb3 423d
00000150: 49a0 cbbc df4e 663d 785d 51bb 9c93 843d
00000160: 417b 8f3c cad4 c23c 3d2a 17bd 9949 c2bc
00000170: d0f5 313d 99fe 583a b1d0 fdbc f92e 81bc
00000180: 67b2 8ebc f2b8 173c 58a0 f1bb b334 573b
00000190: 7c3f 3e3c d5d6 79bd d6f4 803d 1693 88bc
000001a0: ee0f 193d 3bd8 813c 8571 13bd 715b d33c
000001b0: ad3c 8dbd 9d3c 6dbd fc12 cd3a b9a8 823c
000001c0: cd2b 063d fd55 83bc 8fed 1b3d 9fdb d63c
000001d0: fe83 b53a 7ffb 073c 0e12 b7bc fcdf 16bd
000001e0: 15f6 0f3d f6f7 3c3c ed90 5f3d c5a3 5cbc
000001f0: c9d0 b63c b916 023d a270 56bd f063 453d
00000200: 7547 313d f118 6fbd b3e9 6bbd 0304 9ebc
00000210: 94ca 62bd 42c2 843c 594f ce3b fadc 6cbc
00000220: 66b0 f3bc 8693 bdb9 f6e3 413c d254 08bd
00000230: d682 94bc 2de1 213d 78a5 58bd 3ab6 d6bb
00000240: b35c d03a 3c8c 0dbd 969b 133d 8f8d 223d
00000250: a05f f5bb 0ff1 a93d bac5 953d c33f ffbc
00000260: fc1c e4ba f2b5 503c cc8c 303d 4853 703d
00000270: c0ec 26bd b26e 4bbd 44e4 353c f7ac 2dbd
00000280: b855 993d 4177 1abd 5c3d 833d e389 553c
00000290: 617b a33c 8c70 063b 2404 45bd 04b2 18bd
000002a0: 06a0 803c 31d7 693c 878e 6dbc 8da3 52bd
000002b0: 8bb9 c03c 9878 06bd 876d 203d 8ee4 283b
000002c0: 9ce5 7fba 278e 6fbd 502b 003d 1dd9 d13d
000002d0: 61a5 8bbc 3209 f2bb 7867 f33c 903a 9bbd
000002e0: 0152 393d 1dad 503d 3736 a0bd 6565 28bc
000002f0: f724 ad3c c01e 9abd 6735 053b 837a 84bc
00000300: 3ccf 1b3c b26d 8c3c be9f 79bb dcf2 813d
00000310: 9cdb ca3a b519 593d ca59 f53c 8d7a 67bd
00000320: 8a4d 573c badc 323c 1819 2bbd 9b92 9fbc
00000330: 3c33 5ebb 666e 13bd 1673 86bc 4d49 903c
00000340: a215 423b 40d8 8b3b 2b74 4f3c 9817 60bd
00000350: 5afb a93c 2a6b 2f3b 0f58 55bd a505 c23c
00000360: 00c5 e63c 88b4 8fbc 3210 453d c549 0ebd
00000370: cb48 3d3d 4eb8 45bd 5d93 debb 16ec 143d
00000380: 6cd6 493c 9736 60bc 5ac0 7abc 957e d8bc
00000390: c1ba 693a f6dc 8fbd 4bf2 cc3b 1f14 fdbb
000003a0: e31e 29bc 7c72 a43c 5f43 3a3d 8627 883c
000003b0: 67de ef3c d8c9 10bd ed89 20bd 35af 43bd
000003c0: 336b 0ebd 1131 7fbd 8c4e 6a3d 2eab 353b
000003d0: 023c 8ebc 6d4b 8d3c 8e0c 4c3c df5e 17bd
000003e0: aadb 3fbc c96f 8c3c 0f41 193d db04 a0bd
000003f0: 72c3 75bc 3695 043d f200 11bd 6537 9abc

cell.bias_ih f4 [512]
0.10363815 0.009861368 -0.06021115 0.07987384 0.03156713 0.10731924 0.092995614 -0.055202726
0.20672272 -0.05195908 0.030935057 -0.03183374 0.05129147 -0.04098869 -0.020434078 -0.0052834153
0.02999335 0.12768835 0.13428986 0.24724877 0.0023959146 0.08796072 0.17199484 0.19720395
-0.035916723 0.023608027 0.058712117 0.051122412 0.08769495 0.08742645 0.016404903 0.11451755
-0.05966906 0.0037676988 0.022285735 -0.064233765 0.0032304444 0.1251509 0.04527945 -0.06376946
0.0924274 0.12902056 0.10803945 0.035369266 0.040342342 0.13310644 -0.03695247 -0.082425475
0.08196177 0.05480441 0.12584347 0.2069077 -0.053159654 0.10483846 -0.020209773 0.0051028817
0.15141927 -0.015249898 0.13370302 0.10156056 0.22580905 -0.012983864 0.0054312535 0.20057341
0.007585234 -0.027441641 -0.020764275 -0.006110174 0.093856 0.0059806705 0.036507178 -0.0012357262
0.036712617 0.073133804 0.30048767 0.1186413 0.17931673 -0.043315846 -0.07690783 0.1244285
-0.012402833 0.029662786 0.050119914 0.12591267 0.007045059 -0.030003482 0.05431968 0.029284269
0.067133754 -0.0010341337 0.08228642 0.1984026 -0.07088547 -0.035937596 0.18012688 -0.01292673
-0.08886788 -0.045396972 0.3156899 0.0025775153 0.04691569 0.036689166 0.0075386106 -0.057097595
0.16333942 0.042271774 0.28974038 0.05767675 0.21421072 -0.07328839 0.12553999 0.020101983
0.13089462 0.052984945 0.10764479 -0.03571287 -0.07239679 0.010369748 0.09841567 0.15116411
0.057214655 0.089597605 0.081982076 0.22213216 -0.069899276 0.04640589 0.037484422 -0.005883716
0.0066628167 -0.07010948 0.0072343214 -0.005457181 -0.038220752 -0.010182656 0.059537932 0.027693689
0.04361936 0.0071230354 -0.06835848 -0.023746047 -0.025353286 0.080205224 0.06940618 0.031054411
0.051943272 -0.015629455 0.044386722 0.07107797 -0.07076805 0.1095593 0.086060636 -0.046114396
0.045669064 -0.07406307 0.028801043 0.05500002 -0.06385931 0.002467231 -0.03308794 -0.04211214
-0.029783227 0.06696425 -0.05353194 0.0065431995 0.011644798 0.0477736 0.11957928 -0.02714478
-0.04511697 0.007116131 -0.030856954 -0.019909069 0.059387706 -0.03610097 -0.08730379 -0.015145287
0.075919025 0.07027906 -0.066533394 -0.007604605 -0.07304145 0.04381748 -0.022058994 -0.0467519
0.11043304 0.017769165 0.051361468 0.0018833071 0.10139867 0.030587882 -0.015263503 0.06846977
-0.032560848 -0.07153155 0.018598048 0.07507246 -0.0067951586 -0.022285918 0.06860618 0.002684743
0.049906712 -0.03963158 0.057960708 0.022279423 -0.024249407 -0.09090986 0.05206453 -0.10208126
0.05972415 0.03211478 -0.070804395 -0.09442033 -0.023893112 0.03127842 0.056482296 0.04092426
-0.08316544 -0.082126014 -0.0214324 -0.0005343034 0.03904453 -0.047645465 0.047959182 -0.062194657
0.020114366 -0.0093898205 0.15104955 0.014053015 0.008361804 0.025554799 0.087702915 -0.05806461
-0.046148747 0.10915117 0.06013571 0.123722054 -0.03263608 -0.054353908 0.042419173 -0.020199098
0.0818043 0.044575658 0.029648058 0.035796132 0.019281125 -0.019558787 0.048935935 -0.04834254
0.03582499 -0.03669704 -0.008391443 0.0026263392 -0.031469855 -0.035804927 -0.05219609 -0.0710161
00000000: 3d40 d43d 9391 213c f89f 76bd e594 a33d
00000010: 894c 013d 31ca db3d 7c74 be3d 411c 62bd
00000020: 1faf 533e 0bd3 54bd 846b fd3c 1964 02bd
00000030: 0117 523d c2e3 27bd 5e65 a7bc 8020 adbb
00000040: 9db4 f53c bcc0 023e 4883 093e c82e 7d3e
00000050: c704 1d3b c024 b43d 6a1f 303e d5ef 493e
00000060: 6a1d 13bd 9f65 c13c 1e7c 703d bc65 513d
00000070: 6999 b33d a30c b33d 9363 863c 2d88 ea3d
00000080: 8b67 74bd 7feb 763b 9390 b63c fe8c 83bd
00000090: ddb5 533b 8f27 003e f276 393d 9099 82bd
000000a0: 944a bd3d f71d 043e ca43 dd3d 5ddf 103d
000000b0: 033e 253d 0e4d 083e 795b 17bd b0ce a8bd
000000c0: 93db a73d 977a 603d 1cdd 003e 9ddf 533e
000000d0: f0bd 59bd 8cb5 d63d f78e a5bc 1336 a73b
000000e0: a70d 1b3e b5da 79bc 72e9 083e fcfe cf3d
000000f0: 7d3a 673e 46ba 54bc a8f8 b13b 1e63 4d3e
00000100: 8e8d f83b 4bcd e0bc d719 aabc db37 c8bb
00000110: 9337 c03d 80f9 c33b 8d88 153d 17f8 a1ba
00000120: f85f 163d 2dc7 953d 85d9 993e 36fa f23d
00000130: ce9e 373e f56b 31bd da81 9dbd 5fd4 fe3d
00000140: 4135 4bbc 5fff f23c 8a4a 4d3d 40ef 003e
00000150: 3dda e63b ddc9 f5bc 507e 5e3d 90e5 ef3c
00000160: 6c7d 893d c58b 87ba c885 a83d 0d2a 4b3e
00000170: 672c 91bd 4d33 13bd 2e73 383e a3ca 53bc
00000180: 5d00 b6bd 2df2 39bd 1ba2 a13e 88eb 283b
00000190: ab2a 403d 6147 163d 7306 f73b 2bdf 69bd
000001a0: 7342 273e 2b25 2d3d da58 943e 753e 6c3d
000001b0: 0e5a 5b3e 3918 96bd 8e8d 003e eaac a43c
000001c0: 3d09 063e be06 593d df74 dc3d a947 12bd
000001d0: c544 94bd e0e5 293c 288e c93d c4ca 1a3e
000001e0: ea59 6a3d f37e b73d 38e6 a73d 9d76 633e
000001f0: 5a27 8fbd 1a14 3e3d 4489 193d 30cc c0bb
00000200: c253 da3b 8f95 8fbd e30d ed3b 27d2 b2bb
00000210: 5d8d 1cbd 28d5 26bc 0cde 733d e0dd e23c
00000220: 37aa 323d 5a68 e93b 88ff 8bbd 1287 c2bc
00000230: b2b1 cfbc a342 a43d d424 8e3d d265 fe3c
00000240: 78c2 543d 5809 80bc dace 353d 5491 913d
00000250: d7ee 90bd a060 e03d 8f40 b03d 73e2 3cbd
00000260: 7c0f 3b3d 61ae 97bd 2af0 eb3c b347 613d
00000270: abc8 82bd 44b1 213b 3887 07bd c87d 2cbd
00000280: f4fb f3bc 8d24 893d 4f44 5bbd 5668 d63b
00000290: d3c9 3e3c 40ae 433d fbe5 f43d bb5e debc
000002a0: 92cc 38bd 6f2e e93b b9c7 fcbc 5818 a3bc
000002b0: 8640 733d 9cde 13bd 54cc b2bd f023 78bc
000002c0: 6f7b 9b3d 78ee 8f3d a942 88bd 0d30 f9bb
000002d0: c196 95bd f579 333d 10b5 b4bc ec7e 3fbd
000002e0: b82a e23d a490 913c 6760 523d 4dd9 f63a
000002f0: 1baa cf3d 7093 fa3c c613 7abc e139 8c3d
00000300: 865e 05bd 227f 92bd ef5a 983c 97bf 993d
00000310: eca9 debb f590 b6bc 6681 8c3d 83f2 2f3b
00000320: fb6a 4c3d b954 22bd 3568 6d3d 5683 b63c
00000330: b1a6 c6bc f32e babd 9e41 553d fb0f d1bd
00000340: 4fa1 743d ca8a 033d e501 91bd 725f c1bd
00000350: 7dbb c3bc cd1d 003d fb59 673d 32a0 273d
00000360: a452 aabd af31 a8bd 0093 afbc 7f10 0cba
00000370: 28ed 1f3d e427 43bd d970 443d d3bf 7ebd
00000380: e2c6 a43c c3d7 19bc bcac 1a3e 9e3e 663c
00000390: f3ff 083c 4c58 d13c 969d b33d 28d5 6dbd
000003a0: 7806 3dbd a68a df3d dd50 763d fd61 fd3d
000003b0: 69ad 05bd 34a2 5ebd babf 2d3d 9478 a5bc
000003c0: 0389 a73d f794 363d 7ce0 f23c f79e 123d
000003d0: 73f3 9d3c c039 a0bc 0c71 483d d402 46bd
000003e0: 3abd 123d a34f 16bd 437c 09bc a91e 2c3b
000003f0: 89e6 00bd 30a8 12bd 91cb 55bd e470 91bd

cell.bias_hh f4 [512]
0.06575253 0.13591447 -0.053294554 0.14513022 0.08679106 0.17443484 0.017077725 -0.05606825
0.15761946 0.017528592 0.019087363 -0.0955087 -0.016131401 -0.0011438768 0.028895432 -0.010028393
-0.0627564 0.14949751 0.09033736 0.15815048 -0.08392168 0.17844959 0.16566198 0.12539032
-0.064506784 -0.07676425 0.071408555 0.0031377685 0.03322336 0.07162691 0.051936634 0.20342253
0.044392172 -0.068152435 0.089411765 -0.074511774 -0.019680064 0.20288894 0.06635542 0.026567196
0.058481753 -0.0051587536 0.082887426 0.09902717 0.10933555 0.13734567 0.06164515 0.0050227316
0.17038618 0.1437761 0.0034098749 0.16389287 -0.07273624 0.14102907 0.05685829 0.024186943
0.21766602 -0.0467228 0.041068863 0.11310645 0.18766496 0.041850124 0.007425022 0.19049159
-0.030336563 0.070809856 -0.055390954 0.113954954 -0.05238083 0.023209613 0.010626332 -0.013025276
0.10974634 -0.06592509 0.3128255 0.22227275 0.14056052 -0.066950426 -0.067705095 0.072679326
0.10794627 -0.030843 0.058703624 -0.008158784 0.056720346 0.03126794 -0.07432313 0.030038992
0.12616645 0.0072188866 0.023082277 0.12261597 -0.068023905 -0.003306795 0.1217788 -0.018096471
0.02136234 0.036651485 0.22166711 0.1328691 -0.049370043 0.06873587 0.14221522 -0.0063899867
0.1732848 0.094799094 0.17767152 0.092238456 0.18815522 -0.024661396 0.08780745 0.062095597
0.10802827 0.07400212 0.1167095 -0.056740593 -0.0026369893 0.052930903 0.1905876 0.14856975
0.012567149 0.056824427 0.06573727 0.1459566 -0.0046198596 0.043878313 0.086450465 -0.05691691
-0.0785705 -0.006650994 0.06181791 -0.030146811 0.035684016 0.012974608 -0.018243933 -0.01744396
0.06274578 -0.032751124 0.036240995 -0.051172934 -0.06198093 -0.002273167 0.06602873 -0.05497428
-0.03180911 -0.05424585 -0.058171976 0.044023603 0.04565545 0.06901784 0.0050144335 -0.0069970456
-0.007464865 -0.07049874 0.02862556 -0.06407173 0.037696008 0.006944598 -0.046829335 0.03133108
0.06395398 -0.024491858 -0.07505975 -0.001689334 -0.02663932 0.07587533 0.0009172224 0.060443576
0.0016945978 0.03648904 0.09908016 -0.066088356 0.0860581 0.030296791 0.060339447 0.013869072
-0.03321894 -0.05456319 -0.054063145 0.1097653 0.027352164 0.03714882 -0.06613275 -0.04602605
0.05928131 0.05992234 0.01563376 -0.02956716 -0.01234571 0.010171781 -0.014426721 0.011550758
-0.052348904 0.063273534 0.040335976 0.018787922 0.044231024 0.022133417 -0.0699655 -0.060066164
-0.044245876 0.03639171 0.08816662 0.008614467 -0.095142774 -0.045128673 0.012829709 0.038203586
0.08124631 -0.03877473 -0.0127133345 -0.0890358 0.051290084 0.039574537 0.091376476 0.06896714
0.032838684 0.048141547 -0.035573926 0.04281777 0.029113993 -0.063425995 0.028258579 -0.06814463
-0.048464134 -0.03546961 0.1372513 -0.02476576 0.005623517 0.057080504 0.072550304 -0.0007259774
0.074684374 0.033663828 0.03166833 0.057014033 0.00991327 -0.062607296 0.037573114 -0.04282308
-0.018113144 -0.055337407 0.029453905 -0.0017946432 -0.013792014 -0.08191948 0.07969473 0.023170406
-0.024688382 -0.023970673 0.029799545 -0.019745598 0.0044198153 0.011546774 0.09783106 -0.050028928
00000000: 43a9 863d 2a2d 0b3e 644b 5abd 049d 143e
00000010: 83bf b13d 0c9f 323e 96e6 8b3c d2a7 65bd
00000020: ff66 213e 1f98 8f3c 1a5d 9c3c 119a c3bd
00000030: 0026 84bc 23ee 95ba 1db6 ec3c 214e 24bc
00000040: 6d86 80bd e015 193e cb02 b93d 33f2 213e
00000050: 21df abbd 7dbb 363e 4ba3 293e 5266 003e
00000060: 221c 84bd 9336 9dbd a63e 923d 05a3 4d3b
00000070: 3815 083d 21b1 923d 82bb 543d ff4d 503e
00000080: 91d4 353d 8193 8bbd 841d b73d a199 98bd
00000090: 1638 a1bc 1ec2 4f3e 5ae5 873d 73a3 d93c
000000a0: 908a 6f3d c30a a9bb e2c0 a93d c2ce ca3d
000000b0: 51eb df3d 58a4 0c3e a07f 7c3d ba95 a43b
000000c0: b779 2e3e 0b3a 133e 3578 5f3b 88d3 273e
000000d0: bdf6 94bd ed69 103e 3de4 683d b223 c63c
000000e0: d7e3 5e3e 6860 3fbd d337 283d 5ba4 e73d
000000f0: 3e2b 403e 096b 2b3d 994d f33b 3a10 433e
00000100: 6284 f8bc c204 913d a0e1 62bd 3761 e93d
00000110: 488d 56bd 1622 be3c 111a 2e3c f867 55bc
00000120: b0c2 e03d bc03 87bd aa2a a03e 789b 633e
00000130: 19ef 0f3e 4e1d 89bd f8a8 8abd e6d8 943d
00000140: ef12 dd3d 76aa fcbc 3673 703d 6cac 05bc
00000150: 9853 683d d012 003d ba36 98bd 5514 f63c
00000160: c731 013e 698c ec3b 0b17 bd3c 151e fb3d
00000170: 1e50 8bbd d0b6 58bb 2a67 f93d 0d3f 94bc
00000180: 1300 af3c de1f 163d b4fc 623e d60e 083e
00000190: 3e38 4abd 64c5 8c3d dea0 113e 1863 d1bb
000001a0: 9271 313e 0726 c23d 86ef 353e 84e7 bc3d
000001b0: c3ab 403e b206 cabc 64d4 b33d f457 7e3d
000001c0: ed3d dd3d 6c8e 973d 6405 ef3d d368 68bd
000001d0: 57d1 2cbb 13ce 583d 6529 433e ab22 183e
000001e0: 71e6 4d3c bbc0 683d 43a1 863d a675 153e
000001f0: 3162 97bb bfb9 333d f10c b13d b521 69bd
00000200: 92e9 a0bd 95f0 d9bb c734 7d3d 72f6 f6bc
00000210: 6729 123d 7393 543c 4d74 95bc a3e6 8ebc
00000220: dc80 803d 0b26 06bd 7071 143d b69a 51bd
00000230: b7df 7dbd 6af9 14bb 123a 873d b62c 61bd
00000240: 454a 02bd e530 5ebd bd45 6ebd 1852 343d
00000250: 3601 3b3d 3a59 8d3d 1e50 a43b 7947 e5bb
00000260: d49b f4bb a561 90bd 2780 ea3c 0a38 83bd
00000270: 2167 1a3d 838f e33b 1ed0 3fbd 0555 003d
00000280: 4efa 823d 26a3 c8bc edb8 99bd a56c ddba
00000290: b43a dabc 8664 9b3d c171 703a af93 773d
000002a0: 441d de3a 8875 153d 8aea ca3d 5559 87bd
000002b0: 3b3f b03d fa30 f83c 7f26 773d 1b3b 633c
000002c0: 9510 08bd a77d 5fbd 5171 5dbd a1cc e03d
000002d0: a511 e03c 5c29 183d 9b70 87bd d085 3cbd
000002e0: f5d0 723d 2171 753d 5f12 803c d436 f2bc
000002f0: a945 4abc 8ba7 263c 0e5e 6cbc 643f 3d3c
00000300: ce6b 56bd 8e95 813d 5637 253d 21e9 993c
00000310: 972b 353d 2451 b53c 124a 8fbd f007 76bd
00000320: 2a3b 35bd 790f 153d b390 b43d b223 0d3c
00000330: 37da c2bd d8d8 38bd b333 523c 5d7b 1c3d
00000340: 7764 a63d 40d2 1ebd 974b 50bc 6758 b6bd
00000350: 8d15 523d e918 223d 9723 bb3d a53e 8d3d
00000360: db81 063d 1230 453d f7b5 11bd b061 2f3d
00000370: 7880 ee3c 7de5 81bd 897e e73c 698f 8bbd
00000380: 5482 46bd 9548 11bd 9b8b 0c3e 90e1 cabc
00000390: 7b45 b83b 3fcd 693d 4195 943d 854f 3eba
000003a0: 1ff4 983d 15e3 093d a7b6 013d 8c87 693d
000003b0: 456b 223c 4138 80bd 44e6 193d 4167 2fbd
000003c0: 0462 94bc 7aa9 62bd 5149 f13c 3c3a ebba
000003d0: e6f7 61bc 66c5 a7bd fe36 a33d ddcf bd3c
000003e0: 4a3f cabc 255e c4bc 2d1e f43c 85c1 a1bc
000003f0: 19d4 903b ae2e 3d3c a75b c83d 22eb 4cbd

input_embedding_layer.weight f4 [64, 2]
0.37328008 -0.060710594 0.64495945 -0.41934252 -0.044274196 0.56227076 -0.6221291 0.11670318
0.36904103 0.5008937 -0.51384974 -0.514486 0.3567189 -0.6877261 0.017655065 0.42198086
0.4165956 0.7324525 -0.61163634 -0.28901204 -0.12078043 -0.4462449 -0.26389265 0.5865012
-0.65374225 0.5503953 -0.66967154 -0.44332108 0.20572309 0.602522 0.28754446 0.5189267
0.025437858 -0.2955184 1.30332e-40 1.13872e-40 -0.006955163 -0.679311 -0.3350659 0.27268764
0.47709 0.13100713 0.5167096 -0.07058264 0.49977455 0.48678163 -0.36944735 0.15825684
0.4702151 -0.34668678 -0.569069 -0.043758254 0.2728544 0.094550565 0.7432444 0.4605743
-0.23586062 -0.7801583 -0.05190101 -0.7708635 0.3534143 -0.3359509 -0.008295115 0.78563696
-0.2004215 -0.7906354 -0.08799221 -0.6265212 -0.5593991 -0.013432512 0.75876015 0.3635912
-0.25904474 -0.6711275 -0.530418 -0.66538644 -0.2655002 -0.73529845 -0.26276433 0.15792322
0.2681362 -0.3338709 0.5208788 0.038773265 -0.45028007 0.36988252 -0.462195 0.7905795
-0.7466877 -0.46617475 -0.0031900937 -0.40720162 -0.5828687 0.6931097 0.008415215 -0.62383145
-0.49787736 -0.35151243 0.43573743 -0.19787239 -0.30322924 -0.024401113 -0.30945385 -0.5087101
-0.14647089 0.6834169 0.18404552 -0.4869253 0.18985085 -0.49555966 0.018636636 -0.5740564
-0.56427515 0.199205 0.08962939 -0.024831794 -0.5445118 0.1631671 0.384723 -0.03946484
-0.11089266 -0.5111927 -0.08928816 0.8260249 0.21258889 0.17130743 0.7028086 0.23705691
00000000: 911e bf3e acab 78bd 101c 253f 10b4 d6be
00000010: dc58 35bd faf0 0f3f da43 1fbf 1402 ef3d
00000020: f2f2 bc3e 923a 003f a88b 03bf 5bb5 03bf
00000030: dca3 b63e d10e 30bf 5ba1 903c e00d d83e
00000040: 054c d53e 0282 3b3f 3394 1cbf 63f9 93be
00000050: bb5b f7bd 367a e4be f01c 87be f124 163f
00000060: a75b 27bf b5e6 0c3f 986f 2bbf fbfa e2be
00000070: 13a9 523e e23e 1a3f 0739 933e 61d8 043f
00000080: 0e63 d03c 304e 97be 506b 0100 6e3d 0100
00000090: 23e8 e3bb 53e7 2dbf c28d abbe b79d 8b3e
000000a0: 2445 f43e bc26 063e 1547 043f a28d 90bd
000000b0: 73e2 ff3e 713b f93e 3428 bdbe 150e 223e
000000c0: 09c0 f03e ee80 b1be 82ae 11bf db3b 33bd
000000d0: 92b3 8b3e baa3 c13d 4445 3e3f 65d0 eb3e
000000e0: 7285 71be 74b8 47bf 2796 54bd 4f57 45bf
000000f0: b8f2 b43e c201 acbe 3ce8 07bc 811f 493f
00000100: 4b3b 4dbe 1567 4abf 4335 b4bd b263 20bf
00000110: c834 0fbf 0a14 5cbc 1b3e 423f a028 ba3e
00000120: 83a1 84be 03cf 2bbf 79c9 07bf c456 2abf
00000130: a4ef 87be 853c 3cbf 0c89 86be a0b6 213e
00000140: 2649 893e 20f1 aabe 5058 053f b7d0 1e3d
00000150: 1c8b e6be 3e61 bd3e d3a4 ecbe 6b63 4a3f
00000160: ed26 3fbf 75ae eebe e410 51bb bb7c d0be
00000170: e236 15bf a36f 313f f8df 093c 6bb3 1fbf
00000180: c8e9 febe 70f9 b3be fa18 df3e 0f9f 4abe
00000190: dd40 9bbe d8e4 c7bc bc70 9ebe d33a 02bf
000001a0: 77fc 15be 69f4 2e3f 6e76 3c3e 464e f9be
000001b0: 4368 423e ffb9 fdbe dcab 983c 5cf5 12bf
000001c0: 5674 10bf 65fc 4b3e 9d8f b73d 0c6c cbbc
000001d0: 2065 0bbf 4715 273e 6afa c43e e2a5 21bd
000001e0: b11b e3bd 86dd 02bf b6dc b6bd 5e76 533f
000001f0: e7b0 593e 376b 2f3e 44eb 333f 0cbf 723e

input_embedding_layer.bias f4 [64]
0.040122777 0.13012607 0.1493523 5.073487e-05 0.27272114 -0.2165788 0.0011704765 0.18212715
-0.01891124 0.025766095 0.55957294 0.4429856 9.984813e-05 -0.0011782838 0.6580821 0.0001239739
0.3273556 -0.0004459551 0.05594277 0.023687128 0.005113971 0.0063552824 -0.0023530957 -0.4526489
-0.00017319403 -0.48688856 0.69182575 0.67164457 -0.02446939 0.012187931 -0.36948928 -0.004631893
0.18135157 0.079255395 -0.06951659 0.51365405 0.32647783 0.012190691 -0.23769666 0.7104258
0.42847523 0.47929356 0.46886116 -0.46901947 0.4826913 0.014267073 -0.24206142 0.12995945
0.0067482498 -0.32227376 0.01203811 -0.4360999 -0.42929086 0.0021850397 -0.1718778 0.015094258
0.5793738 0.52907395 0.5091414 0.0018375545 -0.4392611 -0.19530536 0.05688273 0.5033626
00000000: c857 243d c53f 053e cfef 183e 27cc 5438
00000010: 1ba2 8b3e d5c6 5dbe ad6a 993a 8a7f 3a3e
00000020: bfeb 9abc 6b13 d33c 2c40 0f3f 02cf e23e
00000030: 8e65 d138 a570 9aba 1278 283f fefe 0139
00000040: 279b a73e 15cf e9b9 3f24 653d 820b c23c
00000050: 1993 a73b f93f d03b 6536 1abb 99c1 e7be
00000060: 6b9b 35b9 7549 f9be 7e1b 313f e6f0 2b3f
00000070: 0874 c8bc e3af 473c b32d bdbe 22c7 97bb
00000080: 3ab4 393e a750 a23d b75e 8ebd d57e 033f
00000090: 1a28 a73e 77bb 473c c166 73be 77de 353f
000000a0: 1b61 db3e f765 f53e 920e f03e 5223 f0be
000000b0: 5023 f73e 71c0 693c f3de 77be 1714 053e
000000c0: 6c20 dd3b 1101 a5be 7e3b 453c 7c48 dfbe
000000d0: 03cc dbbe e232 0f3b bc00 30be e84d 773c
000000e0: d751 143f 6471 073f 1757 023f 19da f03a
000000f0: d5e6 e0be 21fe 47be defd 683d 5fdc 003f

output_layer.weight f4 [5, 128]
-0.0073285047 -0.039007146 0.03837493 0.013445115 -0.13268572 0.055712882 0.012820306 -0.053778484
-0.07666471 -0.09349017 -0.26983878 0.20065108 -0.0817211 -0.044445585 0.025567062 0.24860297
-0.175448 -0.2139813 -0.013102919 -0.078119315 0.2075798 -0.0825 0.012383939 -0.044224985
-0.20286499 -0.08270052 -0.18236278 -0.07880888 0.0053942897 -0.11317756 -0.25896797 0.010568986
-0.02351104 0.18596567 -0.09243451 -0.103732646 -0.1539374 0.017845988 -0.10029109 -0.03224369
0.121792324 -0.11634609 -0.09938844 0.19432592 -0.003413541 0.070874795 0.087983705 0.13292682
-0.01309375 -0.006211002 0.030136148 -0.0880398 -0.09025034 -0.03298786 0.054064494 -0.069358684
-0.020986559 0.20237882 0.09355247 0.018088948 0.006484834 -0.06487775 -0.16156128 -0.07876832
0.11667548 -0.04442129 -0.015871173 0.013176406 0.09771519 -0.15529673 -0.09427537 0.026670918
0.05125448 0.05831379 0.0229751 0.01496979 0.04587737 0.022455245 0.2324959 -0.117376626
-0.06056203 -0.10493536 0.03747936 0.04141453 0.21271601 -0.14910129 0.1958568 -0.14132838
-0.019746741 -0.08322129 0.023548283 0.008098948 0.013110586 0.0024482117 0.001316722 0.0841162
-0.0020325852 0.047673944 -0.044047344 -0.081242144 0.06725874 0.007862823 0.10508884 -0.18125197
0.050685007 -0.10433266 0.008962691 0.020963702 0.12573472 -0.14065987 0.040425606 0.16717625
-0.11676984 0.17012967 0.05840855 0.17075714 0.014391768 0.0919212 -0.121679775 0.10844406
-0.12395987 0.098175354 -0.040175356 0.0017947347 0.17941286 0.0088648135 0.0970442 0.10155406
0.11470148 -0.043284193 0.07400546 0.0013293587 0.10048658 -0.01209095 0.14231159 -0.21995562
0.0035071932 -0.020479208 -0.033266895 -0.11715879 0.10799594 -0.10484156 0.08114762 -0.11066534
0.1461042 0.122366905 0.028094029 -0.016449288 -0.08235358 -0.06631867 0.04536091 0.0018170532
0.09264478 0.10219026 -0.03835713 -0.12764218 -0.14046785 0.05633862 0.11282268 0.01372147
-0.1352927 -0.1436704 0.11307082 -0.028183246 0.06463319 0.026989175 -0.036082182 0.1375259
0.14833887 -0.0020147641 -0.073952645 -0.08239029 -0.12894894 -0.0070667346 -0.0009843017 0.02355142
-0.05483957 0.045222584 0.07319143 0.02914009 0.22775531 0.062916696 -0.023866246 -0.11153443
-0.012044892 -0.15124404 -0.039494503 -0.01942584 -0.11553111 -0.14016297 -0.0051203473 -0.031926192
0.058755096 -0.085494116 0.19914623 0.054347258 -0.1083672 0.040816944 -0.080983505 0.079876386
0.102699906 0.10104765 -0.03340535 -0.09041499 0.011015998 -0.11151821 -0.032404333 -0.058030166
0.021188715 0.05598386 0.11135907 -0.08186452 -0.04247093 -0.06487803 -0.0036478327 0.05807554
-0.082634866 0.15539864 0.07482633 -0.05180114 -0.119552754 0.032358464 -0.07911283 -0.11543539
-0.16067354 0.1651639 0.009417736 0.0030339544 0.08296429 0.102606885 0.08744814 0.04536693
-0.008850742 -0.046845015 0.026223572 0.05037335 -0.0133428415 0.1302935 0.017592391 -0.02947908
0.09435307 -0.13734148 -0.045896914 0.07014165 -0.10885821 -0.06777268 -0.030161677 -0.0060399305
0.109501645 0.049814653 0.011720933 -0.022697337 0.086556815 0.015571817 0.11707883 0.13400713
00000000: f423 f0bb f5c5 1fbd 082f 1d3d e648 5c3c
00000010: c4de 07be 3133 643d 430c 523c d446 5cbd
00000020: 6302 9dbd c677 bfbd 4f28 8abe 7a77 4d3e
00000030: 645d a7bd 930c 36bd 0472 d13c c791 7e3e
00000040: a4a8 33be ea1d 5bbe a0ad 56bc 05fd 9fbd
00000050: cd8f 543e c3f5 a8bd 01e6 4a3c 4225 35bd
00000060: d7bb 4fbe e45e a9bd 4fbd 3abe 8d66 a1bd
00000070: 95c2 b03b a3c9 e7bd 7397 84be 8a29 2d3c
00000080: 399a c0bc c96d 3e3e 4e4e bdbd c871 d4bd
00000090: c4a1 1dbe c031 923c 6a65 cdbd f611 04bd
000000a0: 416e f93d dc46 eebd 2b8c cbbd 60fd 463e
000000b0: b7b5 5fbb ce26 913d cd30 b43d f81d 083e
000000c0: 2b87 56bc a985 cbbb 15e0 f63c 364e b4bd
000000d0: 2cd5 b8bd 471e 07bd bb72 5d3d ed0b 8ebd
000000e0: 01ec abbc 653c 4f3e 7098 bf3d 462f 943c
000000f0: bb7e d43b a0de 84bd 5270 25be 4951 a1bd
00000100: 8ef3 ee3d 19f3 35bd 4304 82bc dae1 573c
00000110: e71e c83d 1b06 1fbe 7213 c1bd f87c da3c
00000120: 38f0 513d 71da 6e3d 4736 bc3c da43 753c
00000130: e9e9 3b3d 10f4 b73c 6813 6e3e 2863 f0bd
00000140: e40f 78bd 5ae8 d6bd f583 193d 48a2 293d
00000150: 3ad2 593e 02ae 18be af8e 483e 63b8 10be
00000160: ebc3 a1bc ec6f aabd 54e8 c03c 73b1 043c
00000170: c9cd 563c 2d72 203b dc95 ac3a 1d45 ac3d
00000180: 1f35 05bb c145 433d fd6a 34bd 4862 a6bd
00000190: f3be 893d 12d3 003c d138 d73d 1e9a 39be
000001a0: 159b 4f3d 5dac d5bd 40d8 123c 12bc ab3c
000001b0: 9ac0 003e 2409 10be 5295 253d 4030 2b3e
000001c0: 0725 efbd 7936 2e3e ce3d 6f3d f6da 2e3e
000001d0: 73cb 6b3c 2f41 bc3d 3f33 f9bd eb17 de3d
000001e0: acde fdbd 2910 c93d ea8e 24bd 4e3d eb3a
000001f0: 01b8 373e b93d 113c 1cbf c63d 93fb cf3d
00000200: 9ce8 ea3d c44a 31bd 2d90 973d e03d ae3a
00000210: e8cb cd3d 1f19 46bc 21ba 113e 0c3c 61be
00000220: f0d8 653b 03c4 a7bc de42 08bd f3f0 efbd
00000230: fa2c dd3d 2cb7 d6bd b930 a63d 83a4 e2bd
00000240: 579c 153e 809b fa3d 7325 e63c a8c0 86bc
00000250: fea8 a8bd 15d2 87bd 5dcc 393d 302a ee3a
00000260: 8cbc bd3d 2149 d13d 5e1c 1dbd a2b4 02be
00000270: ced6 0fbe 53c3 663d 940f e73d 04d0 603c
00000280: 2b8a 0abe 551e 13be ad91 e73d 8de0 e6bc
00000290: 685e 843d 6718 dd3c e9ca 13bd 97d3 0c3e
000002a0: 25e6 173e 220a 04bb 7c74 97bd 3ebc a8bd
000002b0: 310b 04be 1190 e7bb af03 81ba e8ee c03c
000002c0: 759f 60bd 513b 393d 63e5 953d 33b7 ee3c
000002d0: b038 693e 78da 803d 2583 c3bc 2a6c e4bd
000002e0: f057 45bc b8df 1abe fdc4 21bd f022 9fbc
000002f0: 939b ecbd e286 0fbe 96c8 a7bb 0ac5 02bd
00000300: 2fa9 703d 8a17 afbd fdec 4b3e 3b9b 5e3d
00000310: 9fef ddbd ab2f 273d aeda a5bd 3b96 a33d
00000320: 5454 d23d 12f2 ce3d 0cd4 08bd 7f2b b9bd
00000330: 727c 343c a963 e4bd 68ba 04bd 0ab1 6dbd
00000340: f593 ad3c 554f 653d 3910 e43d 96a8 a7bd
00000350: fff5 2dbd c6de 84bd 7a10 6fbb 9ee0 6d3d
00000360: 783c a9bd d220 1f3e 8c3e 993d 6f2d 54bd
00000370: 13d8 f4bd 4f8a 043d e805 a2bd 6469 ecbd
00000380: 9b87 24be ba20 293e d94c 1a3c 4fd5 463b
00000390: 2fe9 a93d 8f23 d23d 0318 b33d add2 393d
000003a0: b402 11bc 8fe0 3fbd d1d2 d63c 4954 4e3d
000003b0: ef9b 5abc a96b 053e eb1d 903c 1d7e f1bc
000003c0: 2f3c c13d 3fa3 0cbe 67fe 3bbd 6da6 8f3d
000003d0: 0ef1 debd 67cc 8abd 9f15 f7bc 9cea c5bb
000003e0: 6642 e03d 730a 4c3d 2809 403c c4ef b9bc
000003f0: b344 b13d ef20 7f3c 07c7 ef3d 2a39 093e

output_layer.bias f4 [5]
-0.033440318 0.015831798 -0.08208106 -0.07302632 0.07162818
00000000: b7f8 08bd b0b1 813c 1d1a a8bd d38e 95bd
00000010: ccb1 923d

sum f4 [512, 64]
0.36470452 1.1396891 0.43611065 1.5068617 0.6867133 0.63123703 0.33102176 0.30271825
0.73092633 1.6974787 0.9085611 1.4127697 2.5855486 1.0429989 1.6178205 0.37505567
0.27283365 3.4085783e-09 0.06924288 0.5848791 0.48265362 0.54611075 0.67456186 0.23484863
0.543956 0.64032567 1.5075926 3.525943 0.15935253 0.05266698 0.16814196 0.98683256
0.31822017 0.09622037 0.9900538 2.3006728 0.6720515 0.69503933 0.117734075 1.7497663
0.7497836 1.3772998 1.8283924 1.3860997 3.576768 0.017636225 1.823952 0.11123661
0.58892965 0.28965363 0.2821639 0.12344289 0.46797928 0.1023327 0.06805808 0.038634904
2.179171 0.5668609 2.2499952 0.33024237 0.0030414155 0.8528314 0.11786682 2.3040419
0.014377865 0.075858 0.503618 0.23443504 0.32041305 0.020196358 0.04877119 0.27753267
0.34873268 0.081749365 0.13217928 0.8839175 1.0044965 0.055639558 0.7737831 0.19240935
0.051604535 3.740235e-11 0.044301607 0.22549245 0.009658355 0.017002964 0.10869227 0.040990025
0.03143176 0.031462155 0.22020528 0.41083032 0.034581535 0.046888743 0.009854848 0.80879986
0.05835305 0.04129082 0.08682736 0.2399108 0.09853787 0.042393994 0.018239038 0.5079074
0.09971794 0.11845366 0.7385133 0.67423105 0.20963728 0.013307657 0.92036295 0.042411204
0.03687165 0.007691885 0.03241262 0.0043629655 0.37206677 0.02459679 0.01695789 0.027920319
0.69245553 0.107974395 0.5506036 0.009195809 0.00511742 0.70714444 0.023308517 0.16387936
0.19929124 1.3767828 0.24677503 1.6475656 0.13647006 0.85745394 1.9387735 0.1158619
0.12314654 1.3736324 1.1630977 1.1516167 2.1002839 1.7979565 0.3400105 0.07008892
0.39971498 1.6315577e-10 1.0535733 0.6478474 0.079303585 0.3303347 0.039997447 0.31136712
0.8927911 0.83617276 0.2794196 0.40562037 1.3019394 1.463125 0.38220996 0.3143065
1.6768702 0.92416614 1.3298099 0.20481777 1.5606428 1.6152818 0.7793988 0.94689107
0.88827837 0.4126999 1.4247829 0.9263015 2.4483328 0.38380828 1.494995 0.8999929
1.0247655 0.27203187 0.4278677 0.2414788 0.37599757 0.81533587 0.6996036 0.8103284
2.9091358 0.19687468 2.3379467 0.15765072 0.21942721 0.45178607 0.008653198 0.3644277
0.0008709579 0.004171247 0.018515628 0.029944863 0.01546698 0.014792715 0.003970671 0.010636057
0.009267965 0.03328132 0.019046156 0.045431476 0.050202366 0.03903564 0.04123655 0.0048913066
0.0045053083 1.1390085e-08 0.0033226123 0.015389961 0.00076086604 0.0011764381 0.003657982 0.00579882
0.0018235602 0.015181624 0.018427707 0.028925903 0.0060939305 0.003200462 0.00047094683 0.0145042585
0.013774834 0.0049395785 0.022229012 0.0122440765 0.020563755 0.0336898 0.005927514 0.058996826
0.007326017 0.008718673 0.0686803 0.02701479 0.0861982 0.0008519159 0.040124744 0.003969025
0.017920481 0.00042264874 0.006979669 0.003827774 0.009039824 0.0014933893 0.00095645717 0.0020313805
0.07560778 0.0109909205 0.09123632 0.000614574 0.00061768555 0.014130203 0.0010013983 0.011970953
00000000: 8dba ba3e 55e1 913f e549 df3e d8e0 c03f
00000010: 71cc 2f3f c098 213f af7b a93e e3fd 9a3e
00000020: fd1d 3b3f fb46 d93f 7697 683f a3d5 b43f
00000030: a179 2540 fd80 853f be14 cf3f 4c07 c03e
00000040: dab0 8b3e 583c 6a31 36cf 8d3d a3ba 153f
00000050: 601e f73e eacd 0b3f 16b0 2c3f 297c 703e
00000060: b340 0b3f 62ec 233f cbf8 c03f 0da9 6140
00000070: 4f2d 233e 55b9 573d 682d 2c3e 0fa1 7c3f
00000080: c1ed a23e 2f0f c53d 2a74 7d3f 393e 1340
00000090: 910b 2c3f 19ee 313f 901e f13d 58f8 df3f
000000a0: d1f1 3f3f 5c4b b03f c308 ea3f b76b b13f
000000b0: c4e9 6440 d879 903c 4277 e93f 05d0 e33d
000000c0: 18c4 163f 7b4d 943e c977 903e a0cf fc3d
000000d0: fb9a ef3e ce93 d13d 0962 8b3d a23f 1e3d
000000e0: 8a77 0b40 cc1d 113f ecff 0f40 8715 a93e
000000f0: 7c52 473b 2953 5a3f 2964 f13d 6c75 1340
00000100: 2391 6b3c 705b 9b3d 1ced 003f bd0f 703e
00000110: 2e0d a43e d572 a53c 4dc4 473d c318 8e3e
00000120: 178d b23e 366c a73d 015a 073e 6b48 623f
00000130: 5793 803f 4ee6 633d a616 463f f506 453e
00000140: 475f 533d 4d7f 242e 9a75 353d 7ee7 663e
00000150: 143e 1e3c cd49 8b3c 0e9a de3d 28e5 273d
00000160: 97be 003d 76de 003d 7e7d 613e 5a58 d23e
00000170: 5ea5 0d3d 690e 403d 3a76 213c 820d 4f3f
00000180: 9c03 6f3d 9020 293d 8bd2 b13d 2dab 753e
00000190: 39ce c93d 53a5 2d3d 096a 953c 3806 023f
000001a0: eb38 cc3d d597 f23d 350f 3d3f 689a 2c3f
000001b0: 28ab 563e 5c08 5a3c e89c 6b3f 5fb7 2d3d
000001c0: ba06 173d 350c fc3b 18c3 043d 35f7 8e3b
000001d0: 897f be3e 357f c93c 46eb 8a3c 27b9 e43c
000001e0: c444 313f ae21 dd3d 5cf4 0c3f 05aa 163c
000001f0: 08b0 a73b 6b07 353f 81f1 be3c fecf 273e
00000200: 0113 4c3e 6b3a b03f 98b2 7c3e 6ee3 d23f
00000210: cfbe 0b3e 1a82 5b3f bb29 f83f 0149 ed3d
00000220: 4134 fc3d 30d3 af3f 63e0 943f 2d68 933f
00000230: 0d6b 0640 7023 e63f db15 ae3e c88a 8f3d
00000240: 71a7 cc3e 4464 332f 7ddb 863f 54d9 253f
00000250: eb69 a23d a121 a93e 5dd4 233d 836b 9f3e
00000260: f58d 643f 6b0f 563f 1610 8f3e 79ad cf3e
00000270: f3a5 a63f ae47 bb3f 06b1 c33e c8ec a03e
00000280: afa3 d63f 2796 6c3f 3637 aa3f c0bb 513e
00000290: 25c3 c73f 8ec1 ce3f ae86 473f 7467 723f
000002a0: 3666 633f 674d d33e 495f b63f 1822 6d3f
000002b0: 7cb1 1c40 8582 c43e ff5b bf3f ef65 663f
000002c0: 842b 833f c347 8b3e 7a11 db3e 3846 773e
000002d0: c182 c03e dab9 503f 3919 333f af71 4f3f
000002e0: 482f 3a40 8499 493e eba0 1540 316f 213e
000002f0: 87b1 603e 8150 e73e 25c6 0d3c 4496 ba3e
00000300: ff50 643a f5ae 883b 16ae 973c ee4e f53c
00000310: 3769 7d3c 255d 723c 671c 823b db42 2e3c
00000320: aad8 173c fe51 083d af06 9c3c 5b16 3a3d
00000330: ffa0 4d3d d6e3 1f3d a8e7 283d 4147 a03b
00000340: 44a1 933b 20ae 4332 2fc0 593b 2d26 7c3c
00000350: db74 473a b632 9a3a c1ba 6f3b 0704 be3b
00000360: 8704 ef3a 59bc 783c b4f5 963c 04f6 ec3c
00000370: 98af c73b d8be 513b 6ae9 f639 45a3 6d3c
00000380: d7af 613c 30dc a13b 9e19 b63c 619b 483c
00000390: 5275 a83c 51fe 093d 973b c23b a8a6 713d
000003a0: 160f f03b c4d8 0e3c 42a8 8c3d 1f4e dd3c
000003b0: af88 b03d 1c53 5f3a d859 243d 980e 823b
000003c0: f9cd 923c f496 dd39 b5b5 e43b 64db 7a3b
000003d0: c51b 143c d4bd c33a c1ba 7a3a e920 053b
000003e0: 40d8 9a3d 4313 343c 1cda ba3d 5d1b 213a
000003f0: 2dec 213a 5e82 673c 5a41 833a d121 443c

sum f4 [512, 128]
0.115698345 0.12069828 0.02151604 0.06570959 0.42523813 0.35778984 0.103967085 0.016705044
0.27496597 0.26610512 0.014360828 0.07988659 0.056431342 0.27474296 0.24748346 0.04067635
0.08342328 0.2055262 0.082724586 0.30140916 0.053798813 0.56573266 0.14819337 0.1385305
0.025211383 0.007867797 0.22062707 0.024815757 0.049311996 0.037625343 0.063523605 0.15980425
0.052964576 0.01969494 0.22718485 0.020399382 0.011341527 0.14958864 0.34921038 0.030359522
0.12771514 0.19373882 0.5782183 0.08534995 0.18223627 0.106988855 0.048141688 0.0555995
0.22242199 0.19525367 0.019033559 0.6860679 0.0067409943 0.1677854 0.04475892 0.09411228
0.12074694 0.056598604 0.23930736 0.087172665 0.6715953 0.03438185 0.022356704 0.31170478
0.08934059 0.16448791 0.01113815 0.13324668 0.03842845 0.56817454 0.048497744 0.013866652
0.28791845 0.018799243 0.21785977 0.5337202 0.055775654 0.010423674 0.028682753 0.10231461
0.043367304 0.25045502 0.019167665 0.03668286 0.22925793 0.020343682 0.6242364 0.5988713
0.12566389 0.04385375 0.1373624 0.34199983 0.03382059 0.010418937 0.16373259 0.24701183
0.008238121 0.032707382 0.24175063 0.18388432 0.10298104 0.29020256 0.46266463 0.03814117
0.20232926 0.57298845 0.27806997 0.3247316 0.7747365 0.043915696 0.16547267 0.2088768
0.5404913 0.09619342 0.044028495 0.13671158 0.03996721 0.021019025 0.30811217 0.3625477
0.09466711 0.0878158 0.18261135 0.10709767 0.06356311 0.073418126 0.26268905 0.047918294
0.021894064 0.0230599 0.0022317579 0.011459258 0.10356365 0.12735936 0.0436011 0.00515426
0.044088773 0.07780688 0.0004095283 0.013939295 0.036182698 0.09906939 0.08951348 0.005785678
0.033762924 0.09772913 0.011070159 0.057163894 0.031186162 0.16584033 0.054250102 0.023079146
0.0042353757 0.00069879164 0.07808691 0.0010704991 0.011277769 0.006358138 0.035196327 0.023799172
0.03751032 0.0035074619 0.05261096 0.0007998473 0.0010795651 0.025013108 0.08856215 0.006981346
0.033152897 0.06799067 0.14284684 0.016530585 0.067145064 0.027245963 0.006747145 0.004946482
0.035498805 0.02586083 0.005143642 0.16240357 0.0047041695 0.055206668 0.006986892 0.0126565965
0.017667321 0.027869323 0.07662167 0.0130303 0.16034758 0.011327952 0.0011748929 0.06894281
0.009772353 0.07038564 0.0047518145 0.02194042 0.0073909652 0.13842642 0.019162502 0.002326921
0.042291146 0.015768282 0.04134506 0.12617484 0.009365882 0.0021357432 0.0009881118 0.043687187
0.00407484 0.086489834 0.0020050535 0.0047279927 0.064380325 0.013085778 0.15445103 0.14246422
0.04184923 0.022488054 0.02481094 0.093352064 0.0105519 0.0079142535 0.032601546 0.08368115
0.0057583717 0.015332165 0.045775518 0.02618958 0.05144195 0.088179454 0.13471662 0.01371253
0.0639728 0.1571182 0.052252397 0.057429433 0.12495843 0.012535731 0.052502785 0.034636892
0.12862788 0.017286148 0.014696295 0.021054586 0.017527776 0.0019046859 0.07718113 0.10982058
0.053154133 0.018049728 0.02401959 0.020701325 0.011082054 0.020360589 0.03655787 0.027997538
00000000: 41f3 ec3d a930 f73d 6842 b03c c092 863d
00000010: d0b8 d93e 3b30 b73e b2ec d43d 04d9 883c
00000020: 57c8 8c3e ee3e 883e ae49 6b3c 959b a33d
00000030: 8d24 673d 1cab 8c3e 4e6c 7d3e 3f9c 263d
00000040: d3d9 aa3d 7675 523e 826b a93d 4d52 9a3e
00000050: 255c 5c3d dbd3 103f 01c0 173e f0da 0d3e
00000060: 1a88 ce3c efe7 003c 10ec 613e 6a4a cb3c
00000070: 60fb 493d 081d 1a3d aa18 823d baa3 233e
00000080: 62f1 583d 4857 a13c 25a3 683e 9b1c a73c
00000090: d0d1 393c c42d 193e b4cb b23e 88b4 f83c
000000a0: c2c7 023e 7863 463e 1d06 143f f4cb ae3d
000000b0: 259c 3a3e f91c db3d 3830 453d 4dbc 633d
000000c0: 97c2 633e 94f0 473e 44ec 9b3c 25a2 2f3f
000000d0: 8fe3 dc3b f0cf 2b3e 2155 373d f0bd c03d
000000e0: 2c4a f73d f0d3 673d fd0c 753e 9587 b23d
000000f0: abed 2b3f fcd3 0c3d 6825 b73c c597 9f3e
00000100: 33f8 b63d 856f 283e c97c 363c d171 083e
00000110: 2667 1d3d e373 113f 92a5 463d f430 633c
00000120: 0c6a 933e df00 9a3c a216 5f3e e3a1 083f
00000130: 0375 643d 0fc8 2a3c 18f8 ea3c 528a d13d
00000140: eaa1 313d a43b 803e 8205 9d3c c440 163d
00000150: 97c2 6a3e cba7 a63c f5cd 1f3f a14f 193f
00000160: 09ae 003e fd9f 333d bba8 0c3e 9a1a af3e
00000170: 7587 0a3d 30b4 2a3c 84a9 273e abf0 7c3e
00000180: 2ff9 063c 2df8 053d 7a8d 773e 2c4c 3c3e
00000190: b9e7 d23d 6e95 943e 61e2 ec3e ea39 1c3d
000001a0: 672f 4f3e 5faf 123f 305f 8e3e 3843 a63e
000001b0: 2255 463f f2e0 333d ab71 293e cde3 553e
000001c0: a35d 0a3f 0e01 c53d 3957 343d 1ffe 0b3e
000001d0: a8b4 233d 1730 ac3c e1c0 9d3e da9f b93e
000001e0: d4e0 c13d c5d8 b33d 78fe 3a3e 0656 db3d
000001f0: 602d 823d 3e5c 963d 2e7f 863e f945 443d
00000200: 2e5b b33c 1ee8 bc3c af42 123b 9dbf 3b3c
00000210: 2e19 d43d 7e6a 023e 1197 323d 11e5 a83b
00000220: 6e96 343d 3759 9f3d f5b5 d639 a461 643c
00000230: 4f34 143d e4e4 ca3d d852 b73d c995 bd3b
00000240: fe4a 0a3d 3626 c83d 9d5f 353c b024 6a3d
00000250: 1f7a ff3c 0cd2 293e 5b35 5e3d 7a10 bd3c
00000260: e8c8 8a3b 1d2f 373a 08ec 9f3d fd4f 8c3a
00000270: 64c6 383c ed57 d03b 062a 103d 7bf6 c23c
00000280: 6ca4 193d 72dd 653b 977e 573d d8ac 513a
00000290: 3280 8d3a 4ae8 cc3c 1360 b53d c6c3 e43b
000002a0: 55cb 073d b13e 8b3d 7146 123e 266b 873c
000002b0: 5a83 893d ed32 df3c 2817 dd3b 1916 a23b
000002c0: 3267 113d 17da d33c ff8b a83b 1f4d 263e
000002d0: 6f25 9a3b 6320 623d 4cf2 e43b 9d5d 4f3c
000002e0: 0fbb 903c 354e e43c d2eb 9c3d 0a7d 553c
000002f0: 2832 243e e098 393c ddfe 993a e331 8d3d
00000300: 381c 203c 5926 903d 1cb5 9b3b 65bc b33c
00000310: e92f f23b a8bf 0d3e aefa 9c3c 427f 183b
00000320: 7b39 2d3d 7c2c 813c 7059 293d fa33 013e
00000330: 5b73 193c d3f7 0b3b 8883 813a 56f1 323d
00000340: 3c86 853b 9521 b13d 3767 033b 47ed 9a3b
00000350: d5d9 833d bb65 563c 6928 1e3e 24e2 113e
00000360: 196a 2b3d de38 b83c 5040 cb3c 5e2f bf3d
00000370: e0e1 2c3c c9aa 013c 3389 053d 0661 ab3d
00000380: b9b0 bc3b c333 7b3c 1c7f 3b3d 888b d63c
00000390: cbb4 523d 6e97 b43d 27f3 093e 85aa 603c
000003a0: 2c04 833d 98e3 203e 9c06 563d 203b 6b3d
000003b0: 35ea ff3d ab62 4d3c 290d 573d 6adf 0d3d
000003c0: 07b7 033e ae9b 8d3c bbc8 703c ab7a ac3c
000003d0: 6996 8f3c a7a6 f93a 2411 9e3d 9de9 e03d
000003e0: 26b8 593d 06dd 933c bbc4 c43c d395 a93c
000003f0: 8191 353c 40cb a63c b5bd 153d 185b e53c
