model/VANILLALSTM/LSTM/VANILLALSTM_lstm_model_21.tar (torch, 809783 bytes, 16 tensors)

cell.weight_ih f4 [512, 64]
0	0xbd1838df	-0.03716361
1	0x3d1faee0	0.038985133
2	0xbdb1bf4a	-0.086790636
3	0xbc9c1da8	-0.01905711
4	0x3dc65515	0.09684197
5	0xbd3c69f2	-0.045999475
6	0xbc3b5f0f	-0.011436238
7	0x3c8a2314	0.01686243
8	0xbc80a894	-0.015705384
9	0xbd2fdfb2	-0.04293794
10	0x3ce623a1	0.028093161
11	0x3d22c8cb	0.039742272
12	0xbd921292	-0.07132448
13	0x3cab0d3e	0.020880338
14	0xbaa4ab2f	-0.0012563224
15	0xbbc3552d	-0.0059610815
16	0x3c683a7e	0.014174102
17	0x00015dd9	1.25502e-40
18	0x3cba6d33	0.022757148
19	0x3bfd86d6	0.007737021
20	0x3c79a701	0.015237571
21	0x3d279e61	0.040922526
22	0x3cfd87fd	0.030948633
23	0xbcf38557	-0.029726667
24	0xbc13d2b1	-0.009022401
25	0xbb4e293f	-0.003145769
26	0x3c1dcde2	0.009631606
27	0xbd8f38c8	-0.06993252
28	0x3d3c44b8	0.045963973
29	0x3d8a8d18	0.06765193
30	0x3d3d7455	0.04625352
31	0xba093765	-0.00052343897
32	0xbaf88bc2	-0.001896255
33	0x3d179366	0.037005804
34	0xbd59d9cb	-0.05318622
35	0xbd0e5560	-0.03474939
36	0x3d4976a9	0.04918543
37	0xbc8fd3d2	-0.017557058
38	0x3d960329	0.073248215
39	0x3d089fad	0.033355404
40	0x3c872596	0.016497415
41	0xbc700e0b	-0.014651786
42	0xbc81c006	-0.015838634
43	0x3bbc21db	0.0057413406
44	0xbd4d9879	-0.050194237
45	0x3dbbcfeb	0.091705166
46	0x3b4f5e86	0.0031642034
47	0xbbb78929	-0.0056010676
48	0x3d75405f	0.059875842
49	0x3cacb3b6	0.021081787
50	0x394943bb	0.00019194085
51	0x3c8a077e	0.016849276
52	0x3c54b2c2	0.012982072
53	0x3d04de4d	0.032438565
54	0x3d19d539	0.03755686
55	0x3d529bc9	0.0514181
56	0xb9b72198	-0.0003492951
57	0xbd49d742	-0.04927755
58	0x3b0b5254	0.0021258788
59	0x3b335eaf	0.0027369668
60	0x3df41737	0.119184904
61	0x3ca12c8e	0.019674566
62	0xbcf4bf9b	-0.02987652
63	0x3dab5f0f	0.0836774
64	0xbce27b97	-0.027646823
65	0xbd66e2d1	-0.056368653
66	0xbd705a4e	-0.05867987
67	0xbb72ef8a	-0.0037069046
68	0x3c92b1a8	0.017906979
69	0x3cd5d62d	0.026103104
70	0xbced4b7e	-0.028966662
71	0x3d8c0eb9	0.068387456
72	0xbd90fd86	-0.07079606
73	0xbd4a7783	-0.04943038
74	0x3d5501f5	0.05200382
75	0x3db8583c	0.09001204
76	0xbd1ab495	-0.037769873
77	0x3da58b00	0.08083153
78	0x3d2378c8	0.039910108
79	0xbde21892	-0.11039843
80	0x3c2ac52f	0.010422989
81	0x8000949f	-5.3315e-41
82	0x3cfe59ae	0.031048622
83	0x3ce71cfe	0.028212067
84	0xbd69949f	-0.0570265
85	0xbd3de466	-0.046360396
86	0xbcfb57e2	-0.030681554
87	0x3d3bfdc3	0.045896303
88	0xbd3cd59c	-0.04610215
89	0x3d0b32fd	0.033984173
90	0x3dc11e55	0.094296135
91	0xbd04e99a	-0.032449342
92	0xbbb6e39c	-0.0055813324
93	0xbcdd170a	-0.026988525
94	0xbc35e6fc	-0.011102434
95	0xbe0d7176	-0.13812813
96	0xbadc1690	-0.0016791392
97	0xbc6e3e7f	-0.014541267
98	0x3d2dd97a	0.04244373
99	0xbd185dbb	-0.037198763
100	0xbd5460f0	-0.05185026
101	0x3d86c12c	0.06579813
102	0x3cf25e48	0.029585972
103	0x3daf1f32	0.08550872
104	0xbc5696b6	-0.013097456
105	0xbc8dd10f	-0.017311601
106	0x3dbc4be3	0.09194162
107	0x3b6b474c	0.003590065
108	0xba8b3837	-0.0010621612
109	0xbd06b1d3	-0.03288443
110	0x3d260e0c	0.04054074
111	0xbd6376f5	-0.05553337
112	0xbcbb64f9	-0.022875296
113	0xbcf3aed1	-0.029746445
114	0xba8a7cc0	-0.0010565743
115	0xbbba58a1	-0.005686835
116	0xbc1e1f4a	-0.009651015
117	0xbd31e9e5	-0.04343595
118	0xbcd7c91f	-0.02634102
119	0xbc349cc1	-0.011023701
120	0x3d042b5c	0.032267913
121	0x3d9a86f6	0.07545273
122	0x3dbf5335	0.09342042
123	0xbd6e9762	-0.05824984
124	0x3c05fca8	0.008177914
125	0xbdcac107	-0.09900098
126	0x3c538298	0.012909554
127	0x3cbaf638	0.022822484
128	0x3c0f275f	0.008737414
129	0xb9917696	-0.0002774491
130	0xbd0a8958	-0.033822387
131	0x3c29a01c	0.010353114
132	0x3d4df997	0.050286856
133	0x3b0735a9	0.002063135
134	0x3c1795f7	0.009252063
135	0xbcbd40e1	-0.023102226
136	0xbd5dd038	-0.05415365
137	0xbba6f547	-0.0050951573
138	0x3e0a8e49	0.1353084
139	0x3d4118b4	0.0471427
140	0x3c197150	0.009365395
141	0xbd083f26	-0.033263348
142	0xbd3d1e7c	-0.04617165
143	0xbd01517a	-0.031571843
144	0x3c12bf17	0.008956692
145	0x8000dfdf	-8.031e-41
146	0xbce343dc	-0.027742319
147	0xbcf8f074	-0.030388094
148	0xbd194494	-0.037418917
149	0xbc9bdc66	-0.019025993
150	0xbd48d02f	-0.049026664
151	0xbc30c9ee	-0.010790331
152	0xbc869867	-0.016430093
153	0xbcb5b4db	-0.022180965
154	0x3d1150ff	0.035477635
155	0x3c4034e0	0.011731356
156	0xbb64ebeb	-0.0034930657
157	0x3b801464	0.0039086808
158	0xbcc60637	-0.024172885
159	0xbd62407c	-0.05523728
160	0x3d7dbe12	0.061948843
161	0x3c486722	0.01223162
162	0xbce83c81	-0.028349163
163	0xbdac57bd	-0.08415172
164	0x3e06c37a	0.13160506
165	0x3bc91426	0.006136435
166	0xbd4badd0	-0.049726307
167	0x3d1ae21f	0.037813302
168	0xbc8225ca	-0.01588716
169	0xbd2de6b1	-0.042456333
170	0x3cb1d4e8	0.021707967
171	0xbcdb0a9b	-0.026738456
172	0x3b91e75f	0.0044526304
173	0xbc032bb0	-0.008006021
174	0xbcdd4e5b	-0.027014902
175	0xbc2fec2e	-0.010737462
176	0xbd07a9d0	-0.03312093
177	0xbc683190	-0.014171973
178	0x3d1e4446	0.03863933
179	0x3cd0b573	0.025477147
180	0x3d94b5b9	0.07261223
181	0xbd4471f9	-0.047960255
182	0xbd145148	-0.03621033
183	0x3caf2618	0.02138047
184	0xbcf934c3	-0.030420667
185	0xbd1467b7	-0.036231723
186	0x3cf0f0c6	0.029411685
187	0xbcfff50e	-0.03124478
188	0x3d0d803f	0.034546133
189	0x3cc4075b	0.023929289
190	0x3cc6e292	0.024277959
191	0x3c4e9150	0.012607887
192	0x3d9fbf78	0.07800192
193	0x3e0db35f	0.13837956
194	0x3d4d3197	0.05009612
195	0xbd6fa72a	-0.05850903
196	0x3da0ae27	0.07845717
197	0xbc6f9c05	-0.0146246
198	0xbc7bd09e	-0.015369562
199	0x3d9236b8	0.07139343
200	0xbcb07e29	-0.021544533
201	0x3c699202	0.014256002
202	0x3dec9315	0.11551491
203	0xbd8f27be	-0.06990002
204	0x3d4106b7	0.047125544
205	0x39e2ff24	0.00043296174
206	0x3b19407e	0.0023384388
207	0xbcefd8be	-0.029278155
208	0x3d932fc0	0.07186842
209	0x80017b2e	-1.36024e-40
210	0x3d0cfd76	0.034421407
211	0xbce40332	-0.027833555
212	0x3d263348	0.04057625
213	0x3d3fa446	0.046787523
214	0xbcd516d9	-0.026011871
215	0xbc8f8c4c	-0.017522953
216	0x3c4f6f48	0.012660809
217	0x3bea64ec	0.007153144
218	0x3dd884cd	0.10572205
219	0x3c7c5cd7	0.015402994
220	0xbcdd1065	-0.026985357
221	0xbbeebd03	-0.0072857155
222	0x3c19a007	0.009376532
223	0xbceccb5e	-0.028905567
224	0x3d1ede93	0.038786482
225	0x3c94527d	0.01810574
226	0xbcae5eb1	-0.021285387
227	0x3e11c82b	0.14236514
228	0x3d78c15f	0.060731288
229	0x3c937d9f	0.018004237
230	0xbcad318a	-0.021141786
231	0xbd3734cd	-0.04472809
232	0x3e118d3c	0.14214033
233	0x3e09a029	0.13440003
234	0xbda12848	-0.07869011
235	0xbcf49151	-0.029854449
236	0xbd1110a3	-0.035416257
237	0xbcb435c2	-0.02199829
238	0xbcb45e6f	-0.022017686
239	0x3c23db4d	0.010001016
240	0xbd46a8d4	-0.04850085
241	0x3c440aff	0.011965512
242	0xbd8f76ab	-0.07005056
243	0xbc981b04	-0.01856757
244	0xbcf5a8ed	-0.029987777
245	0xbcb80b23	-0.022466248
246	0xbb4438e9	-0.0029941148
247	0xbcf7b3f2	-0.030237172
248	0xbd5176bc	-0.051138625
249	0x3d7a1573	0.06105561
250	0x3d8006d3	0.062513016
251	0x3d0d6e52	0.034529038
252	0xbcd7e686	-0.02635504
253	0xbcd3244c	-0.025774144
254	0x3d1183a0	0.035525918
255	0x3dcd7f8c	0.10034093

cell.weight_hh f4 [512, 128]
0	0x3cece3b9	0.02891718
1	0xbc72c35e	-0.014817087
2	0x3d45b0fa	0.04826448
3	0x3ce877bc	0.028377406
4	0xbc85f14c	-0.01635041
5	0x3d14584b	0.036217015
6	0xbc02cc0c	-0.007983219
7	0xbd093f6c	-0.03350775
8	0xbd872906	-0.065996215
9	0xbda874d6	-0.0822541
10	0xbc61df28	-0.013786115
11	0xbd0837d8	-0.03325638
12	0xbd344187	-0.044007804
13	0x3ce64696	0.02810983
14	0xbd92bfa0	-0.07165456
15	0xbba5abef	-0.0050558965
16	0x3cc2c3bd	0.023774976
17	0x3d02392c	0.031792805
18	0x3d509d95	0.050931532
19	0xbc43e144	-0.011955563
20	0x3c9ec865	0.019382665
21	0x3da23030	0.07919347
22	0x3d170d3e	0.036877863
23	0xbd1660ca	-0.0367134
24	0xbd47666a	-0.048681654
25	0xbb6c03d7	-0.003601303
26	0x3aadd959	0.0013263627
27	0x3d02243c	0.031772837
28	0xbce51c31	-0.027967544
29	0xbd0db1d4	-0.03459342
30	0xbc4b79ae	-0.012419147
31	0x3ce896e6	0.028392266
32	0x3c99251e	0.018694457
33	0x3cedede0	0.029044092
34	0xbc308af8	-0.01077532
35	0xbccc0e1d	-0.024909073
36	0xbbe21775	-0.006899769
37	0x3d313d02	0.043271072
38	0xbb90398e	-0.0044013923
39	0x3c005609	0.007833012
40	0x3d39a0a1	0.045319203
41	0x3d6e4714	0.058173254
42	0x3c7bad67	0.015361167
43	0xbc8568d4	-0.016285338
44	0x3c664cca	0.014056394
45	0xbd5d29e9	-0.053995047
46	0x3d5a26b3	0.053259563
47	0xbc0c14bc	-0.008549865
48	0xbcbb7648	-0.02288355
49	0x3d5a36fe	0.0532751
50	0x3d9d890d	0.07692156
51	0xbd390791	-0.04517323
52	0x3c95d26e	0.018288817
53	0xbd13fd9b	-0.03613053
54	0x3ba517cf	0.0050382386
55	0x3c5b8f25	0.013400828
56	0x3c091c5d	0.008368579
57	0x3d5ef1a1	0.054429654
58	0xbd6af1ed	-0.057359625
59	0x3ca8705c	0.02056139
60	0xbc33be6e	-0.010970695
61	0xbdde36c4	-0.108502895
62	0x3c312dfd	0.010814187
63	0x3cab2f8e	0.0208967
64	0xbd23092c	-0.03980367
65	0xbc3fdb86	-0.011710053
66	0x3d60c0cf	0.054871377
67	0x3c92afc8	0.017906085
68	0xbd0cd6f4	-0.034384683
69	0x3c15068f	0.009095802
70	0x3d216f0d	0.039412547
71	0x3d4b6096	0.04965266
72	0x3af34880	0.0018561035
73	0xbbc49949	-0.0059997183
74	0x3c9fe26c	0.019517146
75	0xbcec378b	-0.028835079
76	0x3cc0428d	0.023469234
77	0xbd39a4db	-0.045323234
78	0xbd515e77	-0.05111548
79	0x3c8e2b46	0.017354619
80	0xbb37631d	-0.002798266
81	0xbca09ec0	-0.019606948
82	0xbd69331c	-0.056933507
83	0x3d4336df	0.04765975
84	0xbccc8796	-0.024966996
85	0x3d65e48f	0.056126174
86	0xbb53dd56	-0.0032327971
87	0x3d84b5e5	0.06480006
88	0x3c8f0a41	0.017460944
89	0x3cc3b3ac	0.023889385
90	0xbd16c18f	-0.036805686
91	0xbcc2356d	-0.023707116
92	0x3d324647	0.043524053
93	0x3a719e50	0.0009217011
94	0xbcfdc4f0	-0.030977696
95	0xbc80bb20	-0.015714228
96	0xbc8e1b08	-0.017346874
97	0x3c1699ab	0.009191911
98	0xbbf28535	-0.0074011334
99	0x3b579628	0.0032895897
100	0x3c4068af	0.0117437085
101	0xbd79a3a6	-0.060947083
102	0x3d810002	0.062988296
103	0xbc875a10	-0.016522437
104	0x3d18f055	0.037338573
105	0x3c820100	0.015869617
106	0xbd13a042	-0.036041506
107	0x3cd3a4a8	0.02583535
108	0xbd8d6a3a	-0.06905027
109	0xbd6d0644	-0.057867303
110	0x3aca13ba	0.0015417256
111	0x3c8226e4	0.015887685
112	0x3d0646c3	0.032782327
113	0xbc84f810	-0.016231567
114	0x3d1b65c1	0.037938837
115	0x3cd59420	0.026071608
116	0x3aa7ce76	0.0012802619
117	0x3c04dfa4	0.008109961
118	0xbcb6c075	-0.022308568
119	0xbd16fa7c	-0.036859974
120	0x3d1017d6	0.03517898
121	0x3c3c69a0	0.011499792
122	0x3d5fb92e	0.05461996
123	0xbc5baae8	-0.013407446
124	0x3cb5b533	0.02218113
125	0x3d024774	0.031806424
126	0xbd56d872	-0.052452512
127	0x3d4588db	0.04822622
128	0x3d31c781	0.043403152
129	0xbd6f9cec	-0.05849926
130	0xbd6c3070	-0.05766338
131	0xbc9ea38a	-0.01936509
132	0xbd6319bd	-0.055444468
133	0x3c84d0e4	0.016212888
134	0x3bcedfb3	0.006313288
135	0xbc6d2c93	-0.014475959
136	0xbcf58af7	-0.02997349
137	0xb9ee64d5	-0.00045470023
138	0x3c42141f	0.011845618
139	0xbd085de8	-0.03329268
140	0xbc950992	-0.01819304
141	0x3d2266ad	0.0396487
142	0xbd590b9d	-0.05298959
143	0xbbd829dd	-0.0065967874
144	0x3acc7cb2	0.0015601127
145	0xbd0e048e	-0.034672312
146	0x3d147b9b	0.03625069
147	0x3d2255d7	0.039632645
148	0xbbf45b52	-0.0074571753
149	0x3daa33bf	0.08310651
150	0x3d95f68d	0.073224165
151	0xbd0005d5	-0.03125556
152	0xbaf0b65c	-0.0018364894
153	0x3c4d996a	0.012548784
154	0x3d30f82e	0.043205433
155	0x3d70ea97	0.058817472
156	0xbd2745d9	-0.040838096
157	0xbd4b7353	-0.04967053
158	0x3c356bfc	0.011073109
159	0xbd2e1f94	-0.042510584
160	0x3d997f4a	0.074949816
161	0xbd1aabcf	-0.037761506
162	0x3d8389c9	0.06422765
163	0x3c56a2e5	0.0131003605
164	0x3ca3ea8b	0.0200093
165	0x3b018138	0.0019760858
166	0xbd45653f	-0.04819226
167	0xbd18f761	-0.037345294
168	0x3c7ff61f	0.015622645
169	0x3c6b7963	0.014372203
170	0xbc6bf352	-0.014401274
171	0xbd52a1ac	-0.051423714
172	0x3cc19623	0.023631161
173	0xbd06aede	-0.03288161
174	0x3d209709	0.03920654
175	0x3b246abf	0.002508804
176	0xba8e7b30	-0.0010870453
177	0xbd7024ff	-0.058629032
178	0x3d00d560	0.03145349
179	0x3dd21e4d	0.10259686
180	0xbc8bec0a	-0.017080326
181	0xbbf4c22d	-0.0074694366
182	0x3cf2227e	0.029557463
183	0xbd9b3485	-0.07578377
184	0x3d398d36	0.045300685
185	0x3d50f9a2	0.05101932
186	0xbda07084	-0.07833961
187	0xbc2a2cd1	-0.010386662
188	0x3cacd0e4	0.0210957
189	0xbd99e492	-0.075142995
190	0x3b0105a0	0.001968719
191	0xbc852ce5	-0.016256759
192	0x3c198630	0.009370372
193	0x3c8d7f0f	0.0172725
194	0xbb7dbc5a	-0.0038717003
195	0x3d82666c	0.06367192
196	0x3aceeb1b	0.001578662
197	0x3d58d094	0.05293329
198	0x3cf5c30d	0.030000234
199	0xbd67e349	-0.05661324
200	0x3c58a0d9	0.013221943
201	0x3c3213a4	0.0108689405
202	0xbd2adf30	-0.041716754
203	0xbca06f44	-0.019584306
204	0xbb60e91b	-0.003431863
205	0xbd140a1d	-0.036142457
206	0xbc874059	-0.016510176
207	0x3c90ea7f	0.017689941
208	0x3b4223ac	0.0029623313
209	0x3b890674	0.0041816775
210	0x3c4dc9e5	0.012560342
211	0xbd600543	-0.054692518
212	0x3caa6468	0.02079983
213	0x3b2da508	0.0026496071
214	0xbd54ec8c	-0.0519834
215	0x3cc127df	0.023578582
216	0x3ce77f7b	0.02825903
217	0xbc90a4e3	-0.01765675
218	0x3d456124	0.048188344
219	0xbd0e5fb2	-0.03475923
220	0x3d3dbb8e	0.046321444
221	0xbd4620fe	-0.048371308
222	0xbbe0498f	-0.0068447064
223	0x3d152acd	0.03641777
224	0x3c4aaae2	0.012369843
225	0xbc60fb94	-0.013731856
226	0xbc7bcb76	-0.015368333
227	0xbcd96094	-0.02653531
228	0x3a625deb	0.00086352107
229	0xbd9014a4	-0.07035187
230	0x3bc9d085	0.0061588907
231	0xbbf84d85	-0.0075776004
232	0xbc29618b	-0.010338197
233	0x3ca56fed	0.020194972
234	0x3d3abd7d	0.045590866
235	0x3c874ccd	0.016516114
236	0x3cee7ad2	0.0291113
237	0xbd110598	-0.035405725
238	0xbd20fafe	-0.039301865
239	0xbd43dc9c	-0.04781781
240	0xbd0e6719	-0.03476629
241	0xbd7f96d6	-0.062399708
242	0x3d6a4ce8	0.05720225
243	0x3b2d52c2	0.0026447033
244	0xbc8dea22	-0.017323557
245	0x3c8e2844	0.017353185
246	0x3c4df5db	0.012570824
247	0xbd170d4c	-0.036877915
248	0xbc41262f	-0.011788889
249	0x3c8cd046	0.017189156
250	0x3d18dbf0	0.037319124
251	0xbda045ee	-0.07825838
252	0xbc77ad6d	-0.0151170315
253	0x3d04664d	0.032324124
254	0xbd113d85	-0.03545906
255	0xbc9ab516	-0.018885177

cell.bias_ih f4 [512]
0	0x3dd447f7	0.10365289
1	0x3c1d44b7	0.009598902
2	0xbd7729a6	-0.060342453
3	0x3da22889	0.07917888
4	0x3d020019	0.031738374
5	0x3dd9f3f6	0.10642235
6	0x3dbe7199	0.09299011
7	0xbd61f93d	-0.055169333
8	0x3e5337d1	0.20626761
9	0xbd548424	-0.05188383
10	0x3cfbff82	0.030761484
11	0xbd02a5ce	-0.031896405
12	0x3d519693	0.05116899
13	0xbd284d4d	-0.041089345
14	0xbca7fa95	-0.020505229
15	0xbbaa13b6	-0.005190338
16	0x3cf594c6	0.029978167
17	0x3e0288e3	0.1274753
18	0x3e0956c2	0.13412002
19	0x3e7cffad	0.24706908
20	0x3b1d5dc9	0.00240122
21	0x3db374e6	0.08762531
22	0x3e2fd043	0.1716929
23	0x3e4988e5	0.19681127
24	0xbd130e81	-0.035902504
25	0x3cc0f2ec	0.023553334
26	0x3d70bbd9	0.058772895
27	0x3d511e79	0.05105445
28	0x3db3a2e4	0.08771303
29	0x3db2e516	0.08735101
30	0x3c8679b3	0.016415453
31	0x3de9be9a	0.114133075
32	0xbd745b4b	-0.059657376
33	0x3b7c117e	0.0038462575
34	0x3cb68da5	0.022284338
35	0xbd83a0c5	-0.06427149
36	0x3b53da6c	0.0032326235
37	0x3dfee852	0.12446655
38	0x3d3910de	0.0451821
39	0xbd82d0b4	-0.06387463
40	0x3dbd73fb	0.09250637
41	0x3e041224	0.12897545
42	0x3ddcfdff	0.107906334
43	0x3d10e803	0.035377514
44	0x3d2549e0	0.040353656
45	0x3e07d244	0.13263804
46	0xbd17fa4e	-0.037103944
47	0xbda8d3b8	-0.08243507
48	0x3da77c52	0.08178009
49	0x3d5fa34e	0.0545991
50	0x3e00c69c	0.12575763
51	0x3e537ef2	0.20653895
52	0xbd596aa1	-0.053080205
53	0x3dd62466	0.10456161
54	0xbca702a2	-0.020386998
55	0x3ba90721	0.0051583205
56	0x3e1a7bfa	0.15086356
57	0xbc7912bf	-0.015202223
58	0x3e08aac6	0.13346395
59	0x3dcf5654	0.10123888
60	0x3e6711a6	0.22565326
61	0xbc54c829	-0.012987175
62	0x3bafb17c	0.005361734
63	0x3e4d2fec	0.20037812
64	0x3bf91b0a	0.0076021003
65	0xbce1d1de	-0.027565893
66	0xbcaa2777	-0.020770771
67	0xbbcd1bc2	-0.0062594125
68	0x3dc02ff5	0.09384147
69	0x3bc40427	0.0059819403
70	0x3d15bb2f	0.036555465
71	0xbaba4cad	-0.0014213525
72	0x3d15a9d1	0.036538903
73	0x3d958e7f	0.073025696
74	0x3e998a12	0.29988152
75	0x3df2739a	0.118384555
76	0x3e37275b	0.17886107
77	0xbd31f719	-0.04344854
78	0xbd9d6637	-0.076855116
79	0x3dfe6329	0.12421257
80	0xbc4c9579	-0.012486809
81	0x3cf2ed71	0.029654237
82	0x3d4cc615	0.049993593
83	0x3e00e78f	0.12588333
84	0x3be5f180	0.0070173144
85	0xbcf61e07	-0.030043615
86	0x3d5ee066	0.05441322
87	0x3cf1074a	0.029422421
88	0x3d889ad8	0.06670159
89	0xba846bf7	-0.0010102977
90	0x3da7ce7f	0.08193683
91	0x3e4ab849	0.19796862
92	0xbd913e0f	-0.07091915
93	0xbd13a9bc	-0.036050543
94	0x3e3844bc	0.1799497
95	0xbc53747e	-0.012906192
96	0xbdb5fdea	-0.08886321
97	0xbd3a01b3	-0.045411777
98	0x3ea16333	0.31520995
99	0x3b1da844	0.0024056593
100	0x3d406597	0.046971884
101	0x3d168fd9	0.036758278
102	0x3bf8b592	0.0075900042
103	0xbd6a91a5	-0.057267804
104	0x3e27080f	0.16311668
105	0x3d2c101a	0.042007543
106	0x3e9419c3	0.28925905
107	0x3d6ad363	0.0573305
108	0x3e5b39ca	0.21408764
109	0xbd95e2e4	-0.073186666
110	0x3e00542f	0.12532113
111	0x3ca53f0b	0.020171663
112	0x3e0619d4	0.1309579
113	0x3d58e76b	0.052955072
114	0x3ddbcc76	0.10732357
115	0xbd1261ea	-0.03573791
116	0xbd94719d	-0.072482325
117	0x3c27d3d9	0.0102433795
118	0x3dc900f2	0.098146334
119	0x3e1a9c05	0.15098579
120	0x3d6a5265	0.057207484
121	0x3db74aaa	0.08949788
122	0x3da76a62	0.08174588
123	0x3e62ca82	0.22147563
124	0xbd8f01a2	-0.06982733
125	0x3d3c24d7	0.04593357
126	0x3d187aaa	0.037226357
127	0xbbbfcd03	-0.0058532967
128	0x3bd9a5ff	0.0066421027
129	0xbd8fd02f	-0.0702213
130	0x3bed16cd	0.007235384
131	0xbbb821c8	-0.0056192614
132	0xbd1c665c	-0.038183555
133	0xbc3786b0	-0.011201546
134	0x3d73c0a2	0.05950988
135	0x3ce277f1	0.027645083
136	0x3d32628f	0.043551024
137	0x3be80584	0.0070807356
138	0xbd8c61f7	-0.06854623
139	0xbcc40b3e	-0.023931142
140	0xbccfb6f5	-0.025355795
141	0x3da43204	0.08017352
142	0x3d8e3861	0.06944347
143	0x3cfee3c8	0.031114474
144	0x3d54746e	0.05186885
145	0xbc80bae2	-0.015714113
146	0x3d35e029	0.04440323
147	0x3d9153a3	0.070960306
148	0xbd914e54	-0.07095018
149	0x3de0643c	0.10956618
150	0x3db030ed	0.08603082
151	0xbd3d271c	-0.046179876
152	0x3d3a228a	0.045443095
153	0xbd97b881	-0.07408238
154	0x3cebfeff	0.028808115
155	0x3d61559c	0.055013284
156	0xbd82a98b	-0.06379994
157	0x3b276084	0.0025539706
158	0xbd07b7c5	-0.03313424
159	0xbd2ce21f	-0.042207833
160	0xbcf3badd	-0.02975219
161	0x3d890c58	0.066918075
162	0xbd5b7624	-0.053579465
163	0x3bd6e098	0.0065575354
164	0x3c3e03c8	0.011597581
165	0x3d435d74	0.047696546
166	0x3df4e1dc	0.11957142
167	0xbcdf14dc	-0.027231626
168	0xbd387097	-0.04502925
169	0x3be73df9	0.0070569483
170	0xbcfd02cf	-0.030885128
171	0xbca2799f	-0.019833384
172	0x3d738b7b	0.05945919
173	0xbd159fb1	-0.036529247
174	0xbdb3034b	-0.087408625
175	0xbc78c845	-0.015184467
176	0x3d9b31e1	0.07577873
177	0x3d8fc213	0.070194386
178	0xbd8810ee	-0.06643854
179	0xbbf9341d	-0.0076050893
180	0xbd9567a7	-0.07295161
181	0x3d336b2a	0.04380337
182	0xbcb563b4	-0.022142269
183	0xbd3f785b	-0.04674564
184	0x3de22a25	0.11043195
185	0x3c91817a	0.017761935
186	0x3d52467a	0.051336743
187	0x3af14181	0.0018406363
188	0x3dcf7fa5	0.10131768
189	0x3cfa6369	0.03056498
190	0xbc7a2a87	-0.015268928
191	0x3d8c3dda	0.06847735
192	0xbd059290	-0.032610476
193	0xbd92b6dc	-0.07163784
194	0x3c981db3	0.01856885
195	0x3d9984e8	0.07496053
196	0xbbde1323	-0.0067771836
197	0xbcb5893a	-0.022160161
198	0x3d8c56fa	0.06852527
199	0x3b2ef8d1	0.00266986
200	0x3d4c41fc	0.049867615
201	0xbd22386c	-0.03960459
202	0x3d6d6bdc	0.05796419
203	0x3cb5a877	0.022175057
204	0xbcc6297d	-0.024189705
205	0xbdba9aeb	-0.091115795
206	0x3d5589a1	0.052133206
207	0xbdd0dcef	-0.1019839
208	0x3d74d208	0.059770614
209	0x3d036f4d	0.032088567
210	0xbd90e887	-0.07075601
211	0xbdc0fcfe	-0.094232544
212	0xbcc42dc1	-0.023947598
213	0x3d002282	0.03128291
214	0x3d66df68	0.0563654
215	0x3d284adf	0.041087028
216	0xbdaa73a2	-0.083228365
217	0xbda83f09	-0.08215148
218	0xbcb0cce7	-0.02158208
219	0xba1413fc	-0.000564873
220	0x3d1fdc55	0.039028484
221	0xbd4381f1	-0.047731344
222	0x3d4478d2	0.047966786
223	0xbd7e727d	-0.062120903
224	0x3ca575f2	0.020197842
225	0xbc198774	-0.009370673
226	0x3e1a7ced	0.15086718
227	0x3c646f99	0.013942623
228	0x3c09b8f6	0.0084059145
229	0x3cd0f05d	0.02550524
230	0x3db3ad99	0.087733455
231	0xbd6e1add	-0.058131088
232	0xbd3dd88b	-0.04634909
233	0x3ddf6615	0.109081425
234	0x3d765ec1	0.060148958
235	0x3dfd15be	0.123576626
236	0xbd051c3f	-0.03249764
237	0xbd5e67ba	-0.05429814
238	0x3d2d894b	0.04236726
239	0xbca56181	-0.020188095
240	0x3da797f2	0.08183278
241	0x3d36520b	0.044511836
242	0x3cf37258	0.02971761
243	0x3d12c382	0.035830982
244	0x3c9d85f7	0.019228918
245	0xbca0abaa	-0.019613106
246	0x3d4864be	0.0489242
247	0xbd465306	-0.04841902
248	0x3d12af80	0.0358119
249	0xbd16947d	-0.036762703
250	0xbc0aae91	-0.008464471
251	0x3b2630af	0.0025358608
252	0xbd00ca60	-0.031443
253	0xbd136a70	-0.03599018
254	0xbd55e46f	-0.052219804
255	0xbd917820	-0.0710299

cell.bias_hh f4 [512]
0	0x3d86af4d	0.06576405
1	0x3e0aedfa	0.13567343
2	0xbd5ad409	-0.05342487
3	0x3e13ef28	0.144467
4	0x3db21f6a	0.08697398
5	0x3e31b949	0.17355837
6	0x3c8bce06	0.017066013
7	0xbd6584df	-0.05603492
8	0x3e20eab7	0.15714537
9	0x3c904733	0.017612075
10	0x3c9aee17	0.018912358
11	0xbdc3bdf2	-0.095577136
12	0xbc8538fb	-0.016262522
13	0xbaa2c230	-0.0012417492
14	0x3cec2a92	0.028828893
15	0xbc22c8cf	-0.009935572
16	0xbd809222	-0.062778726
17	0x3e18df5c	0.14928955
18	0x3db8a054	0.09014955
19	0x3e21b236	0.15790638
20	0xbdabdf98	-0.083922565
21	0x3e366894	0.17813331
22	0x3e29539e	0.16535804
23	0x3dfff669	0.12498171
24	0xbd841613	-0.06449523
25	0xbd9d5ecf	-0.07684099
26	0x3d925ed7	0.071469955
27	0x3b48dfa7	0.0030650885
28	0x3d0822e3	0.033236396
29	0x3d92889c	0.071549624
30	0x3d54c86d	0.051948953
31	0x3e4fed27	0.2030531
32	0x3d35ed8c	0.044415995
33	0xbd8b6d82	-0.06807996
34	0x3db71f1e	0.08941482
35	0xbd98ae5b	-0.07455131
36	0xbca13a32	-0.01968107
37	0x3e4f1727	0.20223676
38	0x3d87b423	0.06626155
39	0x3cd8d4f1	0.026468726
40	0x3d6fda3b	0.05855773
41	0xbbab2133	-0.0052224635
42	0x3da97816	0.08274858
43	0x3dcad4cd	0.0990387
44	0x3ddff493	0.10935321
45	0x3e0c29b1	0.13687779
46	0x3d7bf6fd	0.061514843
47	0x3ba48714	0.0050209854
48	0x3e2e4ff8	0.17022693
49	0x3e130725	0.14358194
50	0x3b5880ea	0.0033035823
51	0x3e276de3	0.16350512
52	0xbd94ce49	-0.07265908
53	0x3e102350	0.1407597
54	0x3d683b77	0.056697335
55	0x3cc69c2e	0.024244394
56	0x3e5e5a4a	0.2171413
57	0xbd3f3009	-0.04667667
58	0x3d2727c6	0.040809415
59	0x3de6fdf7	0.11278909
60	0x3e3fff05	0.18749626
61	0x3d2b6c17	0.04185113
62	0x3bf10841	0.0073557203
63	0x3e42dc0f	0.19029258
64	0xbcf8692c	-0.030323587
65	0x3d90ca7b	0.0706987
66	0xbd62eb1e	-0.055400006
67	0x3de91eb4	0.11382809
68	0xbd56af17	-0.052413072
69	0x3cbe294e	0.023213055
70	0x3c2ed6f9	0.010671371
71	0xbc587b70	-0.013213024
72	0x3de06dcf	0.10958444
73	0xbd87485a	-0.06605597
74	0x3e9fdd67	0.31223604
75	0x3e6364ad	0.22206374
76	0x3e0f7647	0.14009963
77	0xbd8964dd	-0.06708691
78	0xbd8a8ce2	-0.067651525
79	0x3d9462da	0.07245417
80	0x3ddcf0c1	0.10788108
81	0xbcfccbca	-0.030858893
82	0x3d6ff016	0.058578573
83	0xbc06771e	-0.008207111
84	0x3d683903	0.056694996
85	0x3cffdba7	0.031232668
86	0xbd9809b2	-0.07423724
87	0x3cf7364d	0.03017726
88	0x3e00c336	0.12574467
89	0x3bed5999	0.007243347
90	0x3cba2448	0.022722378
91	0x3dfa2c1a	0.12215443
92	0xbd8b619b	-0.06805726
93	0xbb5f6174	-0.0034085186
94	0x3df8f050	0.12155211
95	0xbc941546	-0.01807655
96	0x3caf22d6	0.021378916
97	0x3d161940	0.036645174
98	0x3e627106	0.22113428
99	0x3e07e6f8	0.13271701
100	0xbd4a0899	-0.049324606
101	0x3d8cedb5	0.068812765
102	0x3e11b502	0.14229205
103	0xbbd6d072	-0.0065556103
104	0x3e313787	0.17306338
105	0x3dc1a269	0.094548054
106	0x3e355a9e	0.17710349
107	0x3dbc35c9	0.09189946
108	0x3e40895b	0.18802397
109	0xbcc92959	-0.024555849
110	0x3db35d13	0.08757987
111	0x3d7ea467	0.062168505
112	0x3ddd5cb9	0.10808701
113	0x3d977fc1	0.07397414
114	0x3dee5dab	0.116389595
115	0xbd688510	-0.056767523
116	0xbb320861	-0.0027165639
117	0x3d5851cc	0.052812383
118	0x3e42ecf2	0.190357
119	0x3e17f3d1	0.14839102
120	0x3c4db6c9	0.012555786
121	0x3d68530d	0.05671983
122	0x3d8624cf	0.065499894
123	0x3e14c20b	0.14527147
124	0xbb94d9cd	-0.0045425654
125	0x3d31c9b7	0.04340526
126	0x3db088e8	0.08619863
127	0xbd6907a8	-0.056892067
128	0xbda0f871	-0.078598864
129	0xbbdd139b	-0.006746722
130	0x3d7d4b2c	0.061839268
131	0xbcf87298	-0.03032808
132	0x3d1254d2	0.035725422
133	0x3c43ecfd	0.011958358
134	0xbc95bb0e	-0.018277671
135	0xbc8f5c38	-0.017500028
136	0x3d805e00	0.06267929
137	0xbd0656ea	-0.03279773
138	0x3d13c836	0.036079608
139	0xbd5261c6	-0.051362775
140	0xbd7de994	-0.061990336
141	0xbb176d9b	-0.0023106101
142	0x3d874d72	0.066065684
143	0xbd60fadd	-0.054926742
144	0xbd02a54a	-0.031895913
145	0xbd5e8f39	-0.054335807
146	0xbd6e66c9	-0.058203492
147	0x3d33d1ea	0.04390136
148	0x3d3a5bb6	0.04549762
149	0x3d8d592d	0.069017746
150	0x3ba276c9	0.004958008
151	0xbbe7184d	-0.0070524574
152	0xbbfc4e42	-0.0076997587
153	0xbd906afd	-0.070516564
154	0x3cea8ef0	0.028632611
155	0xbd8341f7	-0.06409066
156	0x3d1ab872	0.037773557
157	0x3be66fca	0.0070323693
158	0xbd400258	-0.046877235
159	0x3d0001a3	0.03125156
160	0x3d831387	0.06400209
161	0xbcc92aff	-0.024556635
162	0xbd99d294	-0.07510868
163	0xbadc047a	-0.0016786002
164	0xbcdab8dd	-0.026699478
165	0x3d9b4187	0.07580858
166	0x3a6b6f22	0.00089810987
167	0x3d7741cc	0.060365483
168	0x3aea5775	0.0017878847
169	0x3d153a88	0.036432773
170	0x3dcae190	0.09906304
171	0xbd8733ea	-0.06601699
172	0x3db065d2	0.08613171
173	0x3cf4be7f	0.029875992
174	0x3d76dcce	0.06026917
175	0x3c62ac8b	0.013835083
176	0xbd08b314	-0.033373907
177	0xbd5fe7ee	-0.054664545
178	0xbd5d0964	-0.053964034
179	0x3de0d598	0.1097824
180	0x3ce1205d	0.027481252
181	0x3d181925	0.037133355
182	0xbd87a1ba	-0.06622644
183	0xbd3c7f19	-0.046019647
184	0x3d72bff0	0.059265077
185	0x3d756e62	0.059919722
186	0x3c7fadd4	0.015605409
187	0xbcf2aaba	-0.029622424
188	0xbc4bb1cc	-0.012432527
189	0x3c263cf8	0.010146372
190	0xbc6c73f7	-0.014431945
191	0x3c3d2dff	0.011546611
192	0xbd56a30a	-0.05240158
193	0x3d8164ff	0.063180916
194	0x3d251c24	0.04031004
195	0x3c98ebe8	0.018667176
196	0x3d354791	0.044257704
197	0x3cb65dd3	0.022261536
198	0xbd8f8436	-0.07007639
199	0xbd7631dd	-0.060106147
200	0xbd356ef8	-0.04429528
201	0x3d153db0	0.036435783
202	0x3db4a3ee	0.088203296
203	0x3c0b6719	0.008508467
204	0xbdc2c67f	-0.095105164
205	0xbd39a1b3	-0.045320224
206	0x3c533822	0.012891801
207	0x3d1d00e3	0.038330924
208	0x3da67faa	0.08129819
209	0xbd1ef677	-0.038809266
210	0xbc4f2d1a	-0.01264503
211	0xbdb5f51f	-0.08884644
212	0x3d51e0d3	0.0512398
213	0x3d221eda	0.039580204
214	0x3dbae7ce	0.091262445
215	0x3d8d9531	0.06913222
216	0x3d0658ec	0.032799646
217	0x3d4524c0	0.04813075
218	0xbd1254d4	-0.03572543
219	0x3d2f489c	0.042793855
220	0x3cee5c78	0.029096827
221	0xbd8218d4	-0.06352392
222	0x3ce77428	0.02825363
223	0xbd8b68f8	-0.068071306
224	0xbd463cc1	-0.048397783
225	0xbd113a1f	-0.03545582
226	0x3e0c5b22	0.1370664
227	0xbccbd382	-0.024881128
228	0x3bb9b425	0.005667227
229	0x3d699da8	0.05703512
230	0x3d94a4be	0.072579846
231	0xba4d8357	-0.00078397006
232	0x3d9891ec	0.074497074
233	0x3d099495	0.033588964
234	0x3d01b46f	0.031666216
235	0x3d68e910	0.05686289
236	0x3c24bbc8	0.010054536
237	0xbd801bb7	-0.06255286
238	0x3d19aefb	0.03752039
239	0xbd2f5d0f	-0.042813357
240	0xbc943430	-0.018091291
241	0xbd62fb61	-0.055415515
242	0x3cf1db14	0.02952341
243	0xbae71d40	-0.0017632619
244	0xbc62eb95	-0.013850112
245	0xbda7ebf2	-0.081993
246	0x3da33397	0.07968824
247	0x3cbd40fa	0.023102272
248	0xbcca6d59	-0.024710344
249	0xbcc4e338	-0.024034128
250	0x3cf38cce	0.029730227
251	0xbca29877	-0.019848092
252	0x3b91e02e	0.004451773
253	0x3c3a5c44	0.011374537
254	0x3dc85424	0.097816736
255	0xbd4cf610	-0.05003935

input_embedding_layer.weight f4 [64, 2]
0	0x3ebee6fd	0.37285605
1	0xbd791518	-0.060811132
2	0x3f24ff47	0.6445202
3	0xbed6a8aa	-0.41925555
4	0xbd35c4e2	-0.044377215
5	0x3f0fc6f7	0.5616297
6	0xbf1f3e53	-0.62204474
7	0x3deed978	0.116625726
8	0x3ebcdf70	0.3688922
9	0x3f0032c7	0.5007748
10	0xbf03790a	-0.51356566
11	0xbf03bbaa	-0.5145823
12	0x3eb68cbf	0.35654256
13	0xbf300ffb	-0.68774384
14	0x3c92247a	0.017839659
15	0x3ed7d3e1	0.42153838
16	0x3ed554b2	0.4166618
17	0x3f3b73e6	0.7322372
18	0xbf1c84ad	-0.6113995
19	0xbe940754	-0.2891184
20	0xbdf77d29	-0.12084419
21	0xbee45419	-0.4459541
22	0xbe8717ac	-0.26385248
23	0x3f1611e7	0.58621067
24	0xbf2758f3	-0.653701
25	0x3f0cd467	0.550116
26	0xbf2b662a	-0.66952765
27	0xbee3042f	-0.4433913
28	0x3e52a37c	0.20570177
29	0x3f1a2efa	0.6022793
30	0x3e934219	0.28761366
31	0x3f04c3a2	0.5186101
32	0x3cd0f2cd	0.025506401
33	0xbe971529	-0.2950833
34	0x00016b50	1.30332e-40
35	0x00013d6e	1.13872e-40
36	0xbbe66796	-0.0070313914
37	0xbf2dd3dd	-0.679014
38	0xbeab77bf	-0.33489797
39	0x3e8b736c	0.27236497
40	0x3ef4397d	0.4770011
41	0x3e05cd8a	0.13066688
42	0x3f043abb	0.51652116
43	0xbd90d564	-0.07071951
44	0x3effc8d7	0.49957916
45	0x3ef935ac	0.4867376
46	0xbebd27c3	-0.36944398
47	0x3e21fab3	0.1581829
48	0x3ef0999b	0.46992192
49	0xbeb187f0	-0.34674025
50	0xbf11a549	-0.5689283
51	0xbd332cfc	-0.043744072
52	0x3e8b99c4	0.2726575
53	0x3dc1c1ad	0.09460769
54	0x3f3e3001	0.74292
55	0x3eebdf51	0.46068814
56	0xbe71881a	-0.23587075
57	0xbf47ad76	-0.77999055
58	0xbd55fee6	-0.052245043
59	0xbf4543e3	-0.7705671
60	0x3eb4e13b	0.35328087
61	0xbeabfc37	-0.33590862
62	0xbc0628da	-0.008188451
63	0x3f4908cf	0.78529066
64	0xbe4d2743	-0.20034508
65	0xbf4a528f	-0.79032224
66	0xbdb49740	-0.08817911
67	0xbf2048b4	-0.62610936
68	0xbf0f2504	-0.55915856
69	0xbc594b7d	-0.013262627
70	0x3f42347e	0.75861347
71	0x3eba1cc4	0.3635007
72	0xbe8481c2	-0.25880247
73	0xbf2bbec7	-0.6708798
74	0xbf07bf38	-0.5302615
75	0xbf2a5ed4	-0.66550946
76	0xbe87f1b9	-0.26551607
77	0xbf3c33d8	-0.7351661
78	0xbe869b20	-0.26290226
79	0x3e21d35b	0.15803282
80	0x3e892c6a	0.26791698
81	0xbeaac4a0	-0.33353138
82	0x3f054723	0.5206167
83	0x3d1ec688	0.038763553
84	0xbee67c2d	-0.45016614
85	0x3ebd4e88	0.36973977
86	0xbeeca377	-0.46218464
87	0x3f4a4fb8	0.7902789
88	0xbf3f1058	-0.74634314
89	0xbeeeb45c	-0.46621978
90	0xbb5182bf	-0.00319688
91	0xbed05e62	-0.40697008
92	0xbf1532cb	-0.5828063
93	0x3f3161fb	0.6929013
94	0x3c0a19b8	0.008428983
95	0xbf1f8d74	-0.62325215
96	0xbefed17a	-0.49769193
97	0xbeb3f826	-0.3515026
98	0x3edf175b	0.43572506
99	0xbe4ac4fe	-0.19801709
100	0xbe9b1188	-0.30286813
101	0xbcc79281	-0.02436185
102	0xbe9e73a0	-0.3094759
103	0xbf0234af	-0.5086164
104	0xbe1621b1	-0.1466129
105	0x3f2ee508	0.68318224
106	0x3e3c5271	0.18390824
107	0xbef94566	-0.4868576
108	0x3e425f04	0.18981558
109	0xbefda762	-0.49541765
110	0x3c99be11	0.018767389
111	0xbf12eae5	-0.5738967
112	0xbf106a40	-0.56412125
113	0x3e4c0cd9	0.19926776
114	0x3db77618	0.089580715
115	0xbccaf70f	-0.02477601
116	0xbf0b58b6	-0.5443224
117	0x3e273c45	0.16331585
118	0x3ec4e0f4	0.38452876
119	0xbd224f3b	-0.03962634
120	0xbde30120	-0.11084199
121	0xbf02d61b	-0.5110795
122	0xbdb764b8	-0.089547575
123	0x3f5356f1	0.8255454
124	0x3e59325d	0.21210618
125	0x3e2f75b9	0.17134751
126	0x3f33df89	0.7026296
127	0x3e7297e9	0.23690762

input_embedding_layer.bias f4 [64]
0	0x3d2626b7	0.040564265
1	0x3e05eea8	0.13079321
2	0x3e198e4e	0.14995691
3	0xb74604d0	-1.180284e-05
4	0x3e8bc1ff	0.27296445
5	0xbe5e31ec	-0.21698731
6	0x3ab276b7	0.0013615702
7	0x3e3ac7d3	0.1824029
8	0xbc9e8320	-0.019349635
9	0x3cd613c9	0.026132481
10	0x3f0f35e2	0.55941594
11	0x3ee2cddd	0.44297686
12	0x38ca23db	9.638789e-05
13	0xbab5c43c	-0.0013867687
14	0x3f287537	0.65803856
15	0x37978bfd	1.806579e-05
16	0x3ea79458	0.32730365
17	0xb9f33d77	-0.00046394367
18	0x3d662380	0.0561862
19	0x3cc4b6f1	0.024013015
20	0x3bad6d4d	0.0052925707
21	0x3bd5317f	0.0065061445
22	0xbb2044fd	-0.0024455183
23	0xbee7c465	-0.45267025
24	0xb99af98d	-0.000295591
25	0xbef96826	-0.4871227
26	0x3f310f48	0.6916394
27	0x3f2bf1a6	0.671656
28	0xbcca8efe	-0.024726387
29	0x3c49b836	0.012311986
30	0xbebd44e9	-0.36966637
31	0xbb9c42dc	-0.0047687124
32	0x3e3a1469	0.18171848
33	0x3da32917	0.07966822
34	0xbd8fef61	-0.0702808
35	0x3f038cb9	0.513866
36	0x3ea74092	0.3266645
37	0x3c4e009e	0.012573389
38	0xbe73a4b9	-0.23793305
39	0x3f35cd1a	0.71016085
40	0x3edb5c96	0.42844075
41	0x3ef55bdb	0.47921643
42	0x3ef01791	0.4689298
43	0xbef051f8	-0.46937537
44	0x3ef7346c	0.48282182
45	0x3c6a9a31	0.014318989
46	0xbe785563	-0.24251322
47	0x3e056b05	0.13029106
48	0x3be06f76	0.0068492247
49	0xbea4fe17	-0.32225105
50	0x3c4616aa	0.0120903645
51	0xbedf45db	-0.43607983
52	0xbedbe28c	-0.4294628
53	0x3b17ffc5	0.0023193222
54	0xbe303b76	-0.17210183
55	0x3c79c631	0.015245006
56	0x3f14585f	0.57947344
57	0x3f075b9d	0.52874166
58	0x3f02559d	0.50911885
59	0x3afe3b14	0.0019396269
60	0xbee0fba8	-0.43941998
61	0xbe489c0f	-0.19590782
62	0x3d6bc27e	0.05755853
63	0x3f00e5ca	0.5035063

output_layer.weight f4 [5, 128]
0	0xbbf0e8ac	-0.0073519554
1	0xbd1fe1cc	-0.039033696
2	0x3d1ce306	0.038302444
3	0x3c5bd760	0.013418049
4	0xbe07d319	-0.13264121
5	0x3d640c08	0.055675536
6	0x3c52b8cc	0.012861442
7	0xbd5c078c	-0.053718135
8	0xbd9d026b	-0.07666477
9	0xbdbf64a2	-0.09345366
10	0xbe89f286	-0.26942843
11	0x3e4d5770	0.20052886
12	0xbda73d28	-0.081659615
13	0xbd35e76e	-0.04441016
14	0x3cd14a50	0.02554813
15	0x3e7e7069	0.24847569
16	0xbe33917d	-0.17535968
17	0xbe5aed54	-0.21379596
18	0xbc566529	-0.013085642
19	0xbd9fd74b	-0.07804736
20	0x3e546b69	0.20744099
21	0xbda8f476	-0.08249752
22	0x3c4a7f59	0.012359464
23	0xbd35261a	-0.04422579
24	0xbe4f90ad	-0.20270033
25	0xbda932d3	-0.08261647
26	0xbe3ab756	-0.18234
27	0xbda134f2	-0.07871427
28	0x3bb0c4ca	0.005394553
29	0xbde78d18	-0.11306208
30	0xbe848767	-0.25884554
31	0x3c2cf4b0	0.010556385
32	0xbcc097c8	-0.023509875
33	0x3e3e4b89	0.18583502
34	0xbdbd2b14	-0.09236732
35	0xbdd40d04	-0.10354045
36	0xbe1d7c17	-0.15379368
37	0x3c9211a6	0.017830681
38	0xbdcd55a0	-0.10026097
39	0xbd0443c2	-0.03229118
40	0x3df96e47	0.12179237
41	0xbdee2497	-0.11628073
42	0xbdcb925d	-0.09940026
43	0x3e46e7d3	0.19424371
44	0xbb5d8af0	-0.0033804737
45	0x3d911160	0.07083392
46	0x3db40809	0.08790595
47	0x3e07ffa2	0.1328111
48	0xbc568604	-0.013093475
49	0xbbccb141	-0.0062467162
50	0x3cf64ac3	0.030064946
51	0xbdb43683	-0.0879946
52	0xbdb8a6f5	-0.090162195
53	0xbd06f41c	-0.032947645
54	0x3d5ce0a5	0.053925175
55	0xbd8dfa7a	-0.0693254
56	0xbcabe514	-0.020983256
57	0x3e4f1ae0	0.20225096
58	0x3dbf5a89	0.0934344
59	0x3c93db0d	0.018048787
60	0x3bd33ed8	0.0064467005
61	0xbd8504a4	-0.06495026
62	0xbe2541a4	-0.16138321
63	0xbda1455b	-0.07874557
64	0x3deec60f	0.116588704
65	0xbd35b289	-0.044359718
66	0xbc82033a	-0.01587068
67	0x3c587f3c	0.013213929
68	0x3dc7fd9f	0.09765171
69	0xbe1f093d	-0.15530868
70	0xbdc116d6	-0.09428184
71	0x3cd98385	0.026551971
72	0x3d5204fe	0.051274292
73	0x3d6ea840	0.058265924
74	0x3cbc3ee9	0.022979217
75	0x3c74d68c	0.01494373
76	0x3d3bd632	0.04585857
77	0x3cb805b9	0.022463666
78	0x3e6dd938	0.23227394
79	0xbdf069d5	-0.11738936
80	0xbd781bcd	-0.060573388
81	0xbdd6d719	-0.10490245
82	0x3d1929c3	0.037393343
83	0x3d294df2	0.0413341
84	0x3e59c056	0.21264777
85	0xbe1890fc	-0.14899057
86	0x3e488e96	0.19585642
87	0xbe10bc34	-0.14134294
88	0xbca1f160	-0.019768417
89	0xbdaa6e4d	-0.083218195
90	0x3cc07f44	0.023498185
91	0x3c04f0af	0.008114024
92	0x3c56f752	0.013120489
93	0x3b249111	0.002511088
94	0x3aab4c3a	0.0013068982
95	0x3dac2c20	0.08406854
96	0xbb04fc5f	-0.0020292026
97	0x3d435448	0.0476878
98	0xbd3452b1	-0.044024173
99	0xbda662fd	-0.08124349
100	0x3d89d768	0.067305386
101	0x3c010c3a	0.00787645
102	0x3dd74809	0.105117865
103	0xbe3954df	-0.18098782
104	0x3d4f339c	0.050586328
105	0xbdd5a178	-0.10431188
106	0x3c1307a4	0.00897399
107	0x3cab6bcd	0.020925427
108	0x3e00bc97	0.12571941
109	0xbe0febb8	-0.14054763
110	0x3d2574a9	0.04039446
111	0x3e2b274c	0.1671421
112	0xbdef0dc6	-0.11672549
113	0x3e2e219f	0.17005013
114	0x3d6ecc3e	0.05830025
115	0x3e2ecbf5	0.17069991
116	0x3c6b579d	0.01436415
117	0x3dbc2813	0.09187331
118	0xbdf92477	-0.12165158
119	0x3dddfe9a	0.10839577
120	0xbdfdb391	-0.12387765
121	0x3dc8fed9	0.09814233
122	0xbd247b2c	-0.04015653
123	0x3ae96150	0.0017805491
124	0x3e37a44f	0.17933773
125	0x3c105a87	0.008810646
126	0x3dc6cd05	0.09707073
127	0x3dcfdf85	0.10150055
128	0x3deac1ab	0.114627205
129	0xbd31262a	-0.043249287
130	0x3d971fd9	0.07379121
131	0x3aad4596	0.0013219591
132	0x3dcddf99	0.100524135
133	0xbc44a765	-0.012002801
134	0x3e119c22	0.14219716
135	0xbe610acb	-0.21976773
136	0x3b709057	0.0036707127
137	0xbca797d8	-0.020458147
138	0xbd086048	-0.033294946
139	0xbdeff3d8	-0.117164314
140	0x3ddd0ed6	0.10793845
141	0xbdd6a067	-0.10479813
142	0x3da61cff	0.08110999
143	0xbde289f9	-0.110614724
144	0x3e159616	0.14608034
145	0x3dfa7bdc	0.122306556
146	0x3ce5dfce	0.02806082
147	0xbc86dfc3	-0.01646412
148	0xbda8a59f	-0.08234715
149	0xbd87ca1a	-0.06630345
150	0x3d399b7d	0.0453143
151	0x3aed8f28	0.0018124329
152	0x3dbda23b	0.09259459
153	0x3dd0ed4b	0.1020151
154	0xbd1ce475	-0.03830381
155	0xbe027612	-0.12740353
156	0xbe0fbacd	-0.14036103
157	0x3d666089	0.056244407
158	0x3de705bf	0.11280393
159	0x3c609d01	0.013709308
160	0xbe0a6248	-0.13514054
161	0xbe12fe48	-0.14354813
162	0x3de78718	0.11305064
163	0xbce5e37c	-0.028062575
164	0x3d844757	0.064589195
165	0x3cdd0a0f	0.026982335
166	0xbd139cd7	-0.036038246
167	0x3e0cab9f	0.13737343
168	0x3e17d921	0.14828922
169	0xbb06724d	-0.0020514906
170	0xbd975136	-0.07388537
171	0xbda8a00b	-0.08233651
172	0xbe040268	-0.12891543
173	0xbbeb90a5	-0.007188874
174	0xba6e83a2	-0.00090985943
175	0x3cc0939f	0.023507891
176	0xbd6073e6	-0.05479803
177	0x3d38e2c5	0.04513814
178	0x3d95a513	0.07306876
179	0x3ceebc61	0.02914256
180	0x3e690720	0.22756624
181	0x3d80d619	0.06290836
182	0xbcc39eae	-0.023879375
183	0xbde43425	-0.11142758
184	0xbc457185	-0.012050991
185	0xbe1aceed	-0.15117998
186	0xbd21ce9d	-0.039503682
187	0xbc9f087d	-0.019413227
188	0xbdec9cd7	-0.11553352
189	0xbe0f6689	-0.14003958
190	0xbba9527d	-0.005167304
191	0xbd02be93	-0.031920027
192	0x3d70a8c7	0.05875471
193	0xbdaf0ac7	-0.085469775
194	0x3e4bb6af	0.19893907
195	0x3d5e65c7	0.05429628
196	0xbdddcbe8	-0.10829908
197	0x3d2709a3	0.040780675
198	0xbda5a695	-0.080884136
199	0x3da34d1e	0.07973693
200	0x3dd250fb	0.10269352
201	0x3dcea930	0.10090864
202	0xbd08c119	-0.033387277
203	0xbdb92a23	-0.0904124
204	0x3c344661	0.011003108
205	0xbde3fef4	-0.11132613
206	0xbd04a8e2	-0.03238762
207	0xbd6d7630	-0.05797404
208	0x3cad7b81	0.021177055
209	0x3d650cf7	0.055920567
210	0x3de3b099	0.11117668
211	0xbda7ae61	-0.08187557
212	0xbd2de694	-0.042456225
213	0xbd84a267	-0.06476288
214	0xbb6b4727	-0.0035900564
215	0x3d6db440	0.058033228
216	0xbda92d16	-0.082605526
217	0x3e1efeb6	0.15526852
218	0x3d98e265	0.07465056
219	0xbd544d7e	-0.051831715
220	0xbdf482b4	-0.11938992
221	0x3d041027	0.032241967
222	0xbda1fe9b	-0.0790989
223	0xbdec85f4	-0.11548987
224	0xbe243cd7	-0.16038834
225	0x3e290bac	0.16508359
226	0x3c19ebb3	0.009394574
227	0x3b47be80	0.0030478537
228	0x3da9a3ad	0.08283172
229	0x3dd1fff5	0.10253898
230	0x3db309ed	0.087421276
231	0x3d39ea23	0.045389306
232	0xbc1099bb	-0.008825715
233	0xbd3fc407	-0.046817806
234	0x3cd6eaa8	0.02623494
235	0x3d4df431	0.050281707
236	0xbc5b45ab	-0.013383309
237	0x3e056683	0.13027386
238	0x3c8ff234	0.017571546
239	0xbcf203de	-0.02954286
240	0x3dc15150	0.09439337
241	0xbe0ca13e	-0.13733384
242	0xbd3b9a04	-0.045801178
243	0x3d8fa7e1	0.07014442
244	0xbdde8a39	-0.10866208
245	0xbd8a87e5	-0.06764201
246	0xbcf6fa8c	-0.030148767
247	0xbbc65c93	-0.006053516
248	0x3de040e7	0.10949879
249	0x3d4bb3ff	0.049732205
250	0x3c405b6a	0.011740545
251	0xbcba0d86	-0.022711527
252	0x3db11ad5	0.08647696
253	0x3c7ec75c	0.015550461
254	0x3defc75e	0.11707948
255	0x3e091fe1	0.13391067

output_layer.bias f4 [5]
0	0xbd09064d	-0.033453275
1	0x3c81a95d	0.015827829
2	0xbda7c7a1	-0.08192373
3	0xbd94bb24	-0.07262257
4	0x3d929248	0.07156807

sum f4 [512, 64]
0	0x3e9c96db	0.30583844
1	0x3f7beede	0.9841136
2	0x3ebde970	0.3709216
3	0x3fa053e0	1.2525597
4	0x3f16b13b	0.5886418
5	0x3f03e150	0.51515675
6	0x3e912d20	0.2835474
7	0x3e826c3a	0.25473195
8	0x3f248854	0.6427052
9	0x3fb39cab	1.4032186
10	0x3f4bc21d	0.7959307
11	0x3f9960f7	1.1982716
12	0x400ad6cd	2.1693604
13	0x3f5a5852	0.85291016
14	0x3fb21020	1.3911171
15	0x3ea55135	0.3228852
16	0x3e744fc9	0.2385856
17	0x316a3c58	3.4085783e-09
18	0x3d743bc4	0.05962731
19	0x3ef774dc	0.48331344
20	0x3ecf7dbd	0.40525618
21	0x3eec10d6	0.46106595
22	0x3f10e3b7	0.56597465
23	0x3e4c32c4	0.1994124
24	0x3ef4c1ff	0.47804257
25	0x3f079eaa	0.5297648
26	0x3fa84944	1.3147359
27	0x40403845	3.0034344
28	0x3e096082	0.13415721
29	0x3d389d75	0.045072038
30	0x3e12b80c	0.14328021
31	0x3f58b61d	0.8465288
32	0x3e8b726e	0.2723574
33	0x3daa1972	0.083056346
34	0x3f4ffb84	0.8124316
35	0x3ffca329	1.9737293
36	0x3f12c226	0.57327497
37	0x3f13e983	0.57778186
38	0x3dc49cea	0.096002415
39	0x3fc00acf	1.5003299
40	0x3f243f04	0.64158654
41	0x3f99a57c	1.2003627
42	0x3fc6c5ed	1.5529152
43	0x3f9591f2	1.1685164
44	0x4042d9d1	3.0445445
45	0x3c782184	0.0151447095
46	0x3fc2342c	1.5172172
47	0x3dc7d7a8	0.0975793
48	0x3ef9528d	0.48695794
49	0x3e7e5fab	0.24841182
50	0x3e6d7777	0.23190103
51	0x3dd3a860	0.10334849
52	0x3ec1696a	0.37775737
53	0x3daf2343	0.085516475
54	0x3d6d5e70	0.05795139
55	0x3d0759fa	0.033044793
56	0x3fed1513	1.8522056
57	0x3efdda30	0.49580526
58	0x3ff44f6e	1.908674
59	0x3e9219e9	0.28535393
60	0x3b2314fa	0.002488433
61	0x3f3a4ae6	0.72770536
62	0x3dc65262	0.09683682
63	0x3ffc3a62	1.9705317
64	0x3c4dca8f	0.012560501
65	0x3d8931b8	0.06698936
66	0x3ed91e93	0.4240614
67	0x3e4e9c85	0.20176895
68	0x3e92c81e	0.28668302
69	0x3c8d8564	0.01727552
70	0x3d2d5fdb	0.042327743
71	0x3e717602	0.23580173
72	0x3e9b4e67	0.30333254
73	0x3d928358	0.07153958
74	0x3def40b2	0.116822615
75	0x3f442d9b	0.7663209
76	0x3f63acef	0.8893575
77	0x3d3bd464	0.04585685
78	0x3f2c92ba	0.67411387
79	0x3e26fa88	0.16306508
80	0x3d3945e7	0.04523268
81	0x2e247f4d	3.740235e-11
82	0x3d200faf	0.039077457
83	0x3e4cd31f	0.20002411
84	0x3c09129a	0.008366251
85	0x3c719706	0.014745479
86	0x3dc152c0	0.094396114
87	0x3d135ddb	0.03597818
88	0x3cdeae7e	0.027182814
89	0x3ce68353	0.028138792
90	0x3e435e3a	0.19078913
91	0x3eb8b8d8	0.36078525
92	0x3cf7b50c	0.030237697
93	0x3d29c132	0.04144401
94	0x3c0c5a24	0.008566413
95	0x3f35cc3e	0.71014774
96	0x3d53fb7b	0.051753502
97	0x3d17c078	0.037048787
98	0x3d9a4afb	0.07533833
99	0x3e553ff3	0.20825176
100	0x3db25089	0.08706767
101	0x3d172c3e	0.036907427
102	0x3c8485fc	0.01617717
103	0x3ee00130	0.43750906
104	0x3db0b59e	0.08628391
105	0x3dd3329a	0.10312386
106	0x3f24f635	0.6443818
107	0x3f147c1c	0.58001876
108	0x3e391eda	0.18078175
109	0x3c415808	0.011800773
110	0x3f4f2bb7	0.8092608
111	0x3d1b9784	0.037986293
112	0x3d03d3a1	0.032184247
113	0x3bdbf441	0.006712467
114	0x3ce932e0	0.028466642
115	0x3b7fd982	0.0039039557
116	0x3ea36b0c	0.31917608
117	0x3cb0189c	0.02149611
118	0x3c72831e	0.014801769
119	0x3cc85c21	0.024457993
120	0x3f1a58fa	0.6029202
121	0x3dbeffe3	0.0932615
122	0x3ef9e991	0.4881101
123	0x3c038432	0.008027123
124	0x3b9337b5	0.004492725
125	0x3f1f3bad	0.62200433
126	0x3ca93b48	0.02065815
127	0x3e110000	0.14160156
128	0x3e2e5914	0.17026168
129	0x3f967ad9	1.175624
130	0x3e54e9b5	0.20792277
131	0x3fad9ba6	1.3563125
132	0x3df5876b	0.119887196
133	0x3f341611	0.7034617
134	0x3fce4240	1.6113968
135	0x3dd373e6	0.1032484
136	0x3ddb8446	0.107185885
137	0x3f8f2325	1.11826
138	0x3f7bfeae	0.98435485
139	0x3f7b0f52	0.9807025
140	0x3fdf6951	1.7454015
141	0x3fbd0620	1.4767494
142	0x3e956c40	0.2918415
143	0x3d78c038	0.06073019
144	0x3ea92281	0.33034137
145	0x2f336444	1.6315577e-10
146	0x3f5ec80f	0.87024015
147	0x3f0814f7	0.5315699
148	0x3d8c3a1d	0.06847022
149	0x3e8f2607	0.279587
150	0x3d114d01	0.035473827
151	0x3e857edd	0.26073352
152	0x3f40e669	0.7535158
153	0x3f2e0edd	0.6799143
154	0x3e70288f	0.23452972
155	0x3eb1bdb2	0.3471504
156	0x3f8d593f	1.1042861
157	0x3f9d57ae	1.2292383
158	0x3ea83bd0	0.32858133
159	0x3e8cdf9b	0.27514347
160	0x3fb15860	1.3855095
161	0x3f489e0f	0.7836618
162	0x3f89dbd9	1.0770217
163	0x3e3221ea	0.1739575
164	0x3fa70cbb	1.305076
165	0x3faa07de	1.3283651
166	0x3f27ebc6	0.65594137
167	0x3f4b2802	0.7935792
168	0x3f3dc961	0.74135405
169	0x3eb3de47	0.35130522
170	0x3f983f53	1.1894325
171	0x3f4806fa	0.78135645
172	0x4001fa24	2.0308924
173	0x3ea95b06	0.33077258
174	0x3fa12183	1.2588352
175	0x3f411789	0.75426537
176	0x3f56bc94	0.838815
177	0x3e6fa591	0.23403002
178	0x3eb08293	0.3447462
179	0x3e49576c	0.19662255
180	0x3ea8063e	0.32817262
181	0x3f310e9a	0.69162905
182	0x3f173996	0.59072244
183	0x3f2faa3c	0.6861913
184	0x401a43cf	2.4103887
185	0x3e2965f5	0.165428
186	0x3ff21a54	1.8914285
187	0x3e0a891a	0.13528863
188	0x3e3a6ee2	0.18206361
189	0x3ecc9cc5	0.39963356
190	0x3bf8b86a	0.0075903432
191	0x3e9b8caa	0.30380756
192	0x3a498c41	0.0007688441
193	0x3b76aab8	0.0037638377
194	0x3c7bd1cc	0.015369844
195	0x3cd5fd2c	0.026121698
196	0x3c53cad1	0.012926773
197	0x3c4f359a	0.012647057
198	0x3b6792ff	0.003533542
199	0x3c0eab7a	0.008707875
200	0x3bf3fc75	0.0074458667
201	0x3cee1e03	0.029067045
202	0x3c8695d3	0.016428864
203	0x3d21e4fd	0.03952502
204	0x3d33e8da	0.043923236
205	0x3d0a6f7f	0.033797737
206	0x3d0ed23a	0.034868456
207	0x3b829462	0.0039849738
208	0x3b7d0aba	0.003861113
209	0x3243ae20	1.1390085e-08
210	0x3b47c547	0.0030482577
211	0x3c59bee8	0.0132901445
212	0x3a2bc8b1	0.00065530377
213	0x3a875082	0.0010323676
214	0x3b487084	0.0030584643
215	0x3ba923e1	0.005161748
216	0x3acf7b97	0.0015829679
217	0x3c58e112	0.013237255
218	0x3c812fcd	0.015769864
219	0x3ccb0160	0.02478093
220	0x3bb09c11	0.0053896983
221	0x3b3e5910	0.0029044785
222	0x39dc0422	0.0004196475
223	0x3c45f8c5	0.012083237
224	0x3c4a6b6c	0.012354713
225	0x3b9472ba	0.004530278
226	0x3c9cb31b	0.019128373
227	0x3c2c6f06	0.010524517
228	0x3c90589b	0.017620375
229	0x3cf876dc	0.030330114
230	0x3bb0602c	0.0053825583
231	0x3d504e9c	0.050856218
232	0x3bd19ddc	0.006396992
233	0x3bf66a2c	0.007519981
234	0x3d6ca883	0.057777893
235	0x3cbe0415	0.023195306
236	0x3d990bb5	0.07472936
237	0x3a49a45f	0.00076920347
238	0x3d0cda29	0.03438774
239	0x3b6fb199	0.0036574362
240	0x3c828d94	0.01593665
241	0x39c4d005	0.0003753902
242	0x3bc035e6	0.0058658
243	0x3b5f5f19	0.0034083782
244	0x3bebf241	0.00720051
245	0x3ab0e6a9	0.0013496476
246	0x3a5e7f81	0.00084876275
247	0x3af2cfaa	0.0018525023
248	0x3d879d19	0.06621761
249	0x3c1ab1cb	0.009441803
250	0x3da047d3	0.078261994
251	0x3a0d6f1b	0.0005395279
252	0x3a17fef2	0.00057981827
253	0x3c402a24	0.011728797
254	0x3a6126b5	0.00085888366
255	0x3c2901c9	0.010315367
