model/VANILLALSTM/LSTM/VANILLALSTM_lstm_model_41.tar (torch, 809783 bytes, 16 tensors)

cell.weight_ih f4 [512, 64]
0	0xbd174654	-0.036932305
1	0x3d2059dd	0.0391482
2	0xbdb23b47	-0.087027125
3	0xbc9c5da0	-0.019087613
4	0x3dc677c9	0.09690816
5	0xbd3c794a	-0.046014108
6	0xbc39b435	-0.011334469
7	0x3c8a6ad1	0.016896637
8	0xbc802184	-0.015640981
9	0xbd2fd57c	-0.042928204
10	0x3ce5b5f3	0.028040862
11	0x3d223737	0.03960344
12	0xbd923630	-0.07139242
13	0x3cab7c5c	0.020933323
14	0xba90a6ec	-0.0011036075
15	0xbbbed893	-0.0058241575
16	0x3c695c94	0.014243264
17	0x00015dd9	1.25502e-40
18	0x3cba94bf	0.022776006
19	0x3bfd52bc	0.00773081
20	0x3c800813	0.01562885
21	0x3d28b336	0.041186534
22	0x3cfeea05	0.031117449
23	0xbcf33da1	-0.029692473
24	0xbc0fcadf	-0.008776396
25	0xbb49170c	-0.0030683903
26	0x3c1dd3a0	0.009632975
27	0xbd8ef3c8	-0.06980091
28	0x3d3bec0d	0.045879412
29	0x3d8a3569	0.067484684
30	0x3d3e0c8e	0.04639869
31	0xba11d2e9	-0.0005562739
32	0xbb063251	-0.0020476768
33	0x3d1720fc	0.03689669
34	0xbd599415	-0.053119738
35	0xbd0d6fdd	-0.03453051
36	0x3d48c630	0.04901713
37	0xbc8fc741	-0.017551066
38	0x3d961270	0.073277354
39	0x3d087d8f	0.033322867
40	0x3c888ae0	0.016667783
41	0xbc6c3434	-0.014416743
42	0xbc81d14d	-0.015846873
43	0x3bbe22eb	0.0058025024
44	0xbd4dd27a	-0.050249554
45	0x3dbb8fc2	0.09158279
46	0x3b4a3858	0.0030856337
47	0xbbbe9d8e	-0.005817122
48	0x3d74e415	0.05978783
49	0x3caf0886	0.021366369
50	0x3965c97f	0.00021914205
51	0x3c8a5b56	0.016889255
52	0x3c50e7de	0.012750594
53	0x3d05334d	0.032519627
54	0x3d1a50e7	0.03767481
55	0x3d519e9b	0.05117665
56	0xb9c88929	-0.00038249165
57	0xbd49e0ce	-0.049286656
58	0x3b04400c	0.0020179776
59	0x3b4635d9	0.0030244498
60	0x3df50d42	0.11965419
61	0x3ca0ffdb	0.019653251
62	0xbcf2d55e	-0.029642757
63	0x3dab85fb	0.08375164
64	0xbce3767d	-0.02776646
65	0xbd662ad4	-0.056193188
66	0xbd700b8e	-0.05860477
67	0xbb72eccd	-0.0037067414
68	0x3c9472be	0.01812112
69	0x3cd637d9	0.026149677
70	0xbcee0035	-0.029052833
71	0x3d8c671c	0.06855604
72	0xbd912bc6	-0.07088427
73	0xbd4a2d12	-0.04935939
74	0x3d54e6ad	0.051977802
75	0x3db89752	0.09013237
76	0xbd1ad64c	-0.037802026
77	0x3da547d2	0.08070339
78	0x3d241933	0.040063094
79	0xbde21338	-0.11038822
80	0x3c2a2bd2	0.010386424
81	0x8000949f	-5.3315e-41
82	0x3cfd04ee	0.03088614
83	0x3ce73f7b	0.028228512
84	0xbd6942a3	-0.056948315
85	0xbd3d880e	-0.04627233
86	0xbcfa4b8a	-0.030553598
87	0x3d3c1e14	0.045927122
88	0xbd3cdd36	-0.0461094
89	0x3d0b70a4	0.03404297
90	0x3dc189a9	0.09450085
91	0xbd03b8ca	-0.03215865
92	0xbbb8a4c1	-0.0056348746
93	0xbcdece34	-0.027197935
94	0xbc36e33c	-0.011162575
95	0xbe0d8266	-0.13819274
96	0xbaf3ba27	-0.0018594906
97	0xbc6f93f1	-0.014622674
98	0x3d2e139a	0.042499162
99	0xbd173cd1	-0.036923233
100	0xbd54bbe4	-0.051937
101	0x3d8666f8	0.065626085
102	0x3cf1d5be	0.029520866
103	0x3daf7328	0.08566886
104	0xbc56f1f8	-0.013119213
105	0xbc8bfa5c	-0.017087154
106	0x3dbc67ba	0.09199472
107	0x3b694254	0.0035592513
108	0xba91eeb3	-0.001113376
109	0xbd070fdb	-0.032974105
110	0x3d25e1b3	0.040498447
111	0xbd63e5f5	-0.055639226
112	0xbcbafdab	-0.022826036
113	0xbcf287c2	-0.02960575
114	0xba7af805	-0.0009573701
115	0xbbb63ac7	-0.005561206
116	0xbc1f5e3f	-0.00972706
117	0xbd31e366	-0.043429755
118	0xbcd7bd04	-0.026335247
119	0xbc3769f4	-0.011194695
120	0x3d0505ac	0.032476112
121	0x3d9adb8d	0.07561407
122	0x3dbf6db5	0.09347097
123	0xbd6e4e7e	-0.058180325
124	0x3c079a1d	0.00827649
125	0xbdcae1e2	-0.09906365
126	0x3c5731f4	0.013134468
127	0x3cbd8b7e	0.023137804
128	0x3c0f3368	0.008740284
129	0xb98a5164	-0.00026382052
130	0xbd0a9d0a	-0.03384117
131	0x3c2a65e9	0.010400274
132	0x3d4de749	0.0502694
133	0x3aff33e8	0.0019470425
134	0x3c18650c	0.009301435
135	0xbcbe7a9c	-0.023251824
136	0xbd5e766e	-0.054312162
137	0xbba5ee3c	-0.0050638
138	0x3e0abf81	0.13549615
139	0x3d40ce76	0.047071896
140	0x3c190783	0.00934017
141	0xbd0855ad	-0.03328483
142	0xbd3d94b8	-0.046284407
143	0xbd017bea	-0.031612314
144	0x3c148fd2	0.009067493
145	0x8000dfdf	-8.031e-41
146	0xbce32ae3	-0.02773041
147	0xbcf85935	-0.030315975
148	0xbd193121	-0.03740037
149	0xbc9bc788	-0.019016042
150	0xbd490f55	-0.049086887
151	0xbc30ebae	-0.010798378
152	0xbc866313	-0.016404664
153	0xbcb54d4a	-0.02213158
154	0x3d118aac	0.03553264
155	0x3c3efe73	0.011657345
156	0xbb695191	-0.0035601596
157	0x3b823289	0.0039733094
158	0xbcc70a75	-0.024296978
159	0xbd626a2f	-0.055277046
160	0x3d7e5931	0.06209678
161	0x3c48b09e	0.01224914
162	0xbce7e86f	-0.028309075
163	0xbdac8090	-0.08422959
164	0x3e06ec3f	0.13176058
165	0x3bcaec31	0.006192707
166	0xbd4c4219	-0.049867723
167	0x3d1b4188	0.037904292
168	0xbc81ac50	-0.015829235
169	0xbd2d8445	-0.04236247
170	0x3cb23e70	0.021758288
171	0xbcdb0ac7	-0.026738537
172	0x3b962af1	0.0045827557
173	0xbc03d715	-0.008046885
174	0xbcddc5dd	-0.027071888
175	0xbc308d72	-0.010775911
176	0xbd078a10	-0.03309065
177	0xbc6911d5	-0.014225443
178	0x3d1e666b	0.038671892
179	0x3cd0a977	0.025471432
180	0x3d94c3a3	0.07263877
181	0xbd445e72	-0.047941633
182	0xbd1465fa	-0.036230065
183	0x3caf103b	0.021370044
184	0xbcf8a390	-0.03035143
185	0xbd13f81e	-0.036125295
186	0x3cf0dd0a	0.029402275
187	0xbcffb4ce	-0.031214144
188	0x3d0d6586	0.03452065
189	0x3cc36633	0.023852443
190	0x3cc65a45	0.024212966
191	0x3c4ed30a	0.012623558
192	0x3d9fdd8b	0.07805928
193	0x3e0dfa01	0.138649
194	0x3d4d20f3	0.05008025
195	0xbd6f1da5	-0.05837788
196	0x3da0d50d	0.07853136
197	0xbc6c36d6	-0.014417371
198	0xbc7a0609	-0.015260228
199	0x3d924788	0.0714255
200	0xbcaf9fb9	-0.021438466
201	0x3c6babc0	0.01438421
202	0x3dedba1a	0.11607762
203	0xbd8ec7b3	-0.06971683
204	0x3d412c06	0.047161125
205	0x3a2ba2a5	0.0006547368
206	0x3b2f4e56	0.0026749573
207	0xbcef0232	-0.029175851
208	0x3d949188	0.072543204
209	0x80017b2e	-1.36024e-40
210	0x3d0ced82	0.034406193
211	0xbce3562d	-0.027751053
212	0x3d26529b	0.040606122
213	0x3d402f30	0.04692
214	0xbcd4fa56	-0.025998276
215	0xbc8dfc73	-0.017332291
216	0x3c5159d2	0.0127777625
217	0x3bee9635	0.0072810897
218	0x3dd90393	0.10596385
219	0x3c8084e9	0.015688377
220	0xbcdb3653	-0.026759302
221	0xbbf06d06	-0.0073372154
222	0x3c1a3684	0.009412412
223	0xbcec597e	-0.028851267
224	0x3d1f6aa2	0.038920052
225	0x3c94f960	0.018185318
226	0xbcad68b3	-0.021168089
227	0x3e12034c	0.1425907
228	0x3d7a5a60	0.061121345
229	0x3c945ebd	0.018111581
230	0xbcac7060	-0.021049678
231	0xbd35a251	-0.04434425
232	0x3e123fab	0.142821
233	0x3e0a2179	0.13489331
234	0xbda0b809	-0.07847602
235	0xbcf3bbb2	-0.029752586
236	0xbd0fdcea	-0.03512279
237	0xbcb36dc1	-0.02190292
238	0xbcb35873	-0.021892762
239	0x3c298b9a	0.010348225
240	0xbd456fdf	-0.04820239
241	0x3c4729e5	0.0121559845
242	0xbd8f168c	-0.06986722
243	0xbc97aa38	-0.018513784
244	0xbcf53504	-0.029932506
245	0xbcb69c61	-0.022291364
246	0xbb41e7d6	-0.0029587648
247	0xbcf70421	-0.030153336
248	0xbd51080d	-0.05103307
249	0x3d7c33c0	0.06157279
250	0x3d80738b	0.06272038
251	0x3d0e11c6	0.03468492
252	0xbcd7b70f	-0.026332406
253	0xbcd27658	-0.025691196
254	0x3d11a479	0.035557244
255	0x3dcdf771	0.10056961

cell.weight_hh f4 [512, 128]
0	0x3cec413e	0.028839704
1	0xbc719611	-0.014745251
2	0x3d44cda0	0.04804766
3	0x3ce84b02	0.028356079
4	0xbc869973	-0.016430592
5	0x3d14549e	0.03621351
6	0xbc051eb4	-0.008124996
7	0xbd096b0c	-0.033549353
8	0xbd86f6a1	-0.065900095
9	0xbda87887	-0.08226114
10	0xbc65efaf	-0.014034196
11	0xbd080c07	-0.033214595
12	0xbd345df6	-0.04403492
13	0x3ce57df1	0.028014155
14	0xbd92b931	-0.07164229
15	0xbb9f707b	-0.0048657036
16	0x3cc1ccb4	0.02365718
17	0x3d01b6f7	0.03166863
18	0x3d4fda6d	0.050745416
19	0xbc444fc6	-0.01198191
20	0x3ca0181c	0.019542746
21	0x3da216b0	0.079144835
22	0x3d174477	0.036930528
23	0xbd166ebd	-0.036726702
24	0xbd47c2f3	-0.048769902
25	0xbb7848e6	-0.0037885248
26	0x3aa7a63c	0.001279063
27	0x3d029658	0.03188166
28	0xbce440be	-0.027862903
29	0xbd0eaf92	-0.034835406
30	0xbc4e5c65	-0.012595271
31	0x3ce863c6	0.028367888
32	0x3c98ea63	0.018666452
33	0x3ceeadaa	0.029135544
34	0xbc31d3dc	-0.010853734
35	0xbccb4769	-0.024814324
36	0xbbe491e8	-0.006975401
37	0x3d311826	0.04323592
38	0xbb90f443	-0.0044236495
39	0x3c00a178	0.007850997
40	0x3d39dcc6	0.04537656
41	0x3d6df654	0.058096245
42	0x3c7b580a	0.015340814
43	0xbc83ee71	-0.016104909
44	0x3c6522d8	0.013985358
45	0xbd5ce6fb	-0.053931218
46	0x3d5b0f96	0.05348166
47	0xbc095fb0	-0.00838463
48	0xbcbba7bd	-0.022907132
49	0x3d59cba4	0.053172722
50	0x3d9d9466	0.076943204
51	0xbd391d75	-0.045194108
52	0x3c93c2e3	0.018037265
53	0xbd142152	-0.03616459
54	0x3ba5e18c	0.0050622877
55	0x3c5b0373	0.013367522
56	0x3c07c8c4	0.008287612
57	0x3d5f7600	0.054555893
58	0xbd6b0697	-0.05737933
59	0x3ca90750	0.02063337
60	0xbc3355bc	-0.010945734
61	0xbdded3c5	-0.108802356
62	0x3c2cc527	0.010545052
63	0x3caae328	0.02086027
64	0xbd2234d1	-0.03960115
65	0xbc411fa0	-0.011787325
66	0x3d605d15	0.05477627
67	0x3c91e315	0.017808476
68	0xbd0c2170	-0.034211576
69	0x3c140627	0.00903467
70	0x3d216079	0.039398644
71	0x3d4b6b7d	0.049663056
72	0x3af01401	0.0018316509
73	0xbbc300e6	-0.005951035
74	0x3ca01437	0.01954089
75	0xbcec4a47	-0.028844012
76	0x3cc12aa7	0.023579909
77	0xbd38cfb5	-0.04511996
78	0xbd50c4db	-0.050968986
79	0x3c8de2bc	0.01732003
80	0xbb397fe9	-0.0028305
81	0xbca144a5	-0.019686053
82	0xbd68e28e	-0.056856684
83	0x3d42d7c3	0.047569048
84	0xbccb7163	-0.02483434
85	0x3d6660a7	0.05624452
86	0xbb520a8b	-0.003204974
87	0x3d849a16	0.06474702
88	0x3c8f497b	0.017491093
89	0x3cc2c6ef	0.0237765
90	0xbd16e3b3	-0.036838245
91	0xbcc1c370	-0.023652762
92	0x3d31e330	0.043429554
93	0x3a527927	0.00080289174
94	0xbcfdaab9	-0.030965196
95	0xbc80c9df	-0.01572126
96	0xbc8ea407	-0.017412199
97	0x3c17c241	0.009262622
98	0xbbf0a5b3	-0.0073439716
99	0x3b58a729	0.003305862
100	0x3c3e843d	0.011628208
101	0xbd79afdb	-0.060958724
102	0x3d810ccb	0.06301268
103	0xbc88c677	-0.016696198
104	0x3d195b17	0.037440386
105	0x3c81ab87	0.01582886
106	0xbd13871f	-0.036017533
107	0x3cd39676	0.025828581
108	0xbd8d19c1	-0.06889678
109	0xbd6d6e67	-0.057966616
110	0x3acff691	0.0015866329
111	0x3c830f70	0.015998572
112	0x3d05f92a	0.032708324
113	0xbc82fd4b	-0.01598992
114	0x3d1c0899	0.038094137
115	0x3cd72b69	0.026265817
116	0x3ab1cd81	0.0013565273
117	0x3c085a80	0.008322358
118	0xbcb752a6	-0.022378277
119	0xbd16df19	-0.036833856
120	0x3d0fdfa4	0.03512539
121	0x3c3d4f3f	0.011554538
122	0x3d5fc66e	0.054632597
123	0xbc5c58b3	-0.013448882
124	0x3cb72222	0.022355143
125	0x3d022c4a	0.03178052
126	0xbd5679e6	-0.052362345
127	0x3d457308	0.048205405
128	0x3d31188b	0.043236297
129	0xbd6edefe	-0.05831813
130	0xbd6bcb0c	-0.057566687
131	0xbc9dace4	-0.01924748
132	0xbd62f22f	-0.055406746
133	0x3c84fff1	0.016235324
134	0x3bcd4044	0.0062637646
135	0xbc6cacd2	-0.0144455
136	0xbcf33fa0	-0.029693425
137	0xb9b125b5	-0.00033788165
138	0x3c4216e6	0.01184628
139	0xbd0840e6	-0.033265017
140	0xbc947327	-0.018121315
141	0x3d21c45b	0.0394939
142	0xbd589064	-0.052872077
143	0xbbd60195	-0.0065309503
144	0x3acefa7f	0.0015791206
145	0xbd0d97c4	-0.034568563
146	0x3d13629d	0.035982717
147	0x3d22b211	0.0397206
148	0xbbf5149a	-0.0074792625
149	0x3da9ddc4	0.082942516
150	0x3d95ba22	0.07310893
151	0xbcfed799	-0.031108664
152	0xbae0e372	-0.0017157628
153	0x3c51c8de	0.012804238
154	0x3d306b80	0.04307127
155	0x3d701cf6	0.05862137
156	0xbd26c740	-0.040717363
157	0xbd4b6602	-0.04965783
158	0x3c35b4e5	0.011090492
159	0xbd2d6ca0	-0.04233992
160	0x3d995c23	0.07488277
161	0xbd1a6ee3	-0.037703406
162	0x3d8324a0	0.0640347
163	0x3c54b595	0.012982746
164	0x3ca34cb3	0.019934034
165	0x3b09b4db	0.002101234
166	0xbd44e601	-0.04807091
167	0xbd18859e	-0.037236802
168	0x3c8089ec	0.015690766
169	0x3c6979e5	0.014250253
170	0xbc6e324d	-0.01453836
171	0xbd52a2c9	-0.051424775
172	0x3cc08bdc	0.02350419
173	0xbd069b10	-0.032862723
174	0x3d208759	0.039191578
175	0x3b2b6fa5	0.0026159075
176	0xba73fe9d	-0.00093076547
177	0xbd6f4732	-0.058417507
178	0x3d00063b	0.03125594
179	0x3dd1c38e	0.10242377
180	0xbc8ba45f	-0.017046152
181	0xbbf14b40	-0.007363707
182	0x3cf3d02c	0.02976235
183	0xbd9b3724	-0.075788766
184	0x3d392249	0.045198712
185	0x3d50b118	0.05095014
186	0xbda02917	-0.07820337
187	0xbc27e807	-0.010248191
188	0x3cad9860	0.021190822
189	0xbd9a279b	-0.075270854
190	0x3b071b2b	0.0020615559
191	0xbc844354	-0.016145386
192	0x3c1c852f	0.009553238
193	0x3c8c43f8	0.017122254
194	0xbb7998bf	-0.0038085429
195	0x3d81d15d	0.06338761
196	0x3ace1ab5	0.0015724512
197	0x3d59322e	0.05302637
198	0x3cf54ae9	0.029942947
199	0xbd676443	-0.0564921
200	0x3c56870a	0.013093719
201	0x3c32da66	0.010916328
202	0xbd2b40d2	-0.041809864
203	0xbc9f4cf3	-0.019445872
204	0xbb5e4503	-0.0033915646
205	0xbd13455b	-0.035954814
206	0xbc864158	-0.01638858
207	0x3c90572c	0.017619692
208	0x3b43b1e8	0.002986068
209	0x3b8c8829	0.0042886925
210	0x3c4facf2	0.012675511
211	0xbd5ffdcf	-0.05468541
212	0x3ca9ed24	0.02074296
213	0x3b2ffe06	0.002685429
214	0xbd557d31	-0.052121345
215	0x3cc24a7e	0.023717161
216	0x3ce6869c	0.028140359
217	0xbc8f9bc8	-0.017530337
218	0x3d453c4e	0.048153214
219	0xbd0e0e25	-0.034681458
220	0x3d3d2b3d	0.046183813
221	0xbd45ad6b	-0.048261087
222	0xbbdd3f52	-0.006751933
223	0x3d151019	0.036392305
224	0x3c49fda0	0.012328535
225	0xbc604d16	-0.013690254
226	0xbc7a0e29	-0.015262165
227	0xbcd815bd	-0.026377553
228	0x3a69e36c	0.0008922133
229	0xbd8fcc4c	-0.070213884
230	0x3bcde8a6	0.0062838374
231	0xbbfeaf50	-0.0077723637
232	0xbc2857e6	-0.010274863
233	0x3ca42388	0.020036474
234	0x3d3a11eb	0.045427244
235	0x3c888c74	0.016668536
236	0x3cf06a7e	0.029347654
237	0xbd10cde7	-0.035352614
238	0xbd206b29	-0.039164696
239	0xbd438445	-0.047733564
240	0xbd0ea0d7	-0.034821358
241	0xbd7f12ae	-0.062273674
242	0x3d6a516d	0.05720656
243	0x3b36cf11	0.0027894417
244	0xbc8e5090	-0.0173724
245	0x3c8d0c32	0.01721773
246	0x3c4b5eae	0.01241271
247	0xbd1776c0	-0.036978483
248	0xbc3fcc4f	-0.011706426
249	0x3c8c567a	0.017131079
250	0x3d198aa1	0.037485722
251	0xbd9feb7d	-0.07808588
252	0xbc756a82	-0.014979007
253	0x3d04b121	0.032395486
254	0xbd112223	-0.035432946
255	0xbc9a387d	-0.018825764

cell.bias_ih f4 [512]
0	0x3dd448f7	0.103654794
1	0x3c22b335	0.009930422
2	0xbd76b285	-0.060228843
3	0x3da3d68b	0.07999905
4	0x3d013feb	0.031555098
5	0x3ddc2249	0.10748727
6	0x3dbe867c	0.093029946
7	0xbd62455a	-0.05524192
8	0x3e53cc87	0.2068349
9	0xbd54d7ed	-0.051963735
10	0x3cfdd587	0.030985607
11	0xbd025f6f	-0.031829294
12	0x3d5210e6	0.051285647
13	0xbd281cce	-0.041043095
14	0xbca795ff	-0.020457266
15	0xbbad60c3	-0.005291076
16	0x3cf578a7	0.029964758
17	0x3e02c72f	0.12771295
18	0x3e0989ee	0.13431522
19	0x3e7d38a9	0.24728645
20	0x3b1dfc36	0.0024106628
21	0x3db44dc5	0.08803896
22	0x3e3038c5	0.17209156
23	0x3e4a0c1e	0.19731185
24	0xbd12f5fb	-0.035879117
25	0x3cc1507b	0.023597946
26	0x3d705b5e	0.058680885
27	0x3d514593	0.05109174
28	0x3db3a195	0.08771054
29	0x3db31455	0.087441124
30	0x3c863aae	0.016385403
31	0x3deab4f8	0.11460298
32	0xbd7463dd	-0.05966555
33	0x3b774cc9	0.0037734977
34	0x3cb6cec7	0.022315396
35	0xbd8390e0	-0.06424117
36	0x3b5455e9	0.003239984
37	0x3e004cda	0.12529317
38	0x3d39adae	0.04533165
39	0xbd82996e	-0.06376921
40	0x3dbd4b86	0.092429206
41	0x3e041ee4	0.12902409
42	0x3ddd48eb	0.108049236
43	0x3d10d307	0.0353575
44	0x3d251fc3	0.040313493
45	0x3e0861bc	0.13318533
46	0xbd174d3d	-0.036938895
47	0xbda8e14d	-0.08246098
48	0x3da7f5dc	0.08201191
49	0x3d607ffa	0.054809548
50	0x3e00f992	0.12595204
51	0x3e53f4d2	0.2069886
52	0xbd59ed29	-0.05320469
53	0x3dd6c737	0.10487216
54	0xbca4ecb9	-0.02013241
55	0x3ba72466	0.0051007746
56	0x3e1b2e62	0.15154412
57	0xbc7a4131	-0.015274332
58	0x3e08f5cf	0.13375019
59	0x3dd02fc1	0.10165358
60	0x3e6748d7	0.2258638
61	0xbc53680c	-0.012903225
62	0x3bb323f6	0.0054669334
63	0x3e4d73d1	0.20063712
64	0x3bf81909	0.007571344
65	0xbce12d5d	-0.027487451
66	0xbcaa4546	-0.020784985
67	0xbbc649a8	-0.006051261
68	0x3dc038a2	0.09385802
69	0x3bc4bbd8	0.006003838
70	0x3d1556cc	0.03645973
71	0xbaa536b2	-0.0012604801
72	0x3d16a55a	0.036778785
73	0x3d95bf2d	0.073118545
74	0x3e99e8c5	0.30060402
75	0x3df320f0	0.11871517
76	0x3e37bb2d	0.17942496
77	0xbd3160e7	-0.043305304
78	0xbd9d852f	-0.076914184
79	0x3dfee9dd	0.1244695
80	0xbc4af062	-0.012386413
81	0x3cf2e8fe	0.029652115
82	0x3d4d5490	0.050129473
83	0x3e00f9c7	0.12595282
84	0x3be7343f	0.0070557888
85	0xbcf5e809	-0.03001787
86	0x3d5e799e	0.054315202
87	0x3cefc24c	0.029267453
88	0x3d8996df	0.067182295
89	0xba8e766b	-0.0010869032
90	0x3da89cf0	0.082330585
91	0x3e4b49ba	0.19852343
92	0xbd913680	-0.07090473
93	0xbd13448c	-0.035954043
94	0x3e38830a	0.18018737
95	0xbc531127	-0.012882507
96	0xbdb5fe5f	-0.08886408
97	0xbd3a032e	-0.04541319
98	0x3ea1aed5	0.315787
99	0x3b2c4d1e	0.0026291083
100	0x3d4002ec	0.046877787
101	0x3d161d96	0.03664931
102	0x3bf5ba60	0.0074990243
103	0xbd69b0ba	-0.057053305
104	0x3e2751fa	0.16339865
105	0x3d2d4c2f	0.042308982
106	0x3e946830	0.2898574
107	0x3d6c7e97	0.057737913
108	0x3e5b5f51	0.21423079
109	0xbd962588	-0.07331377
110	0x3e009847	0.12558089
111	0x3ca4768d	0.02007606
112	0x3e060d60	0.1309104
113	0x3d58f2e1	0.052966002
114	0x3ddc912f	0.10769879
115	0xbd123870	-0.035698354
116	0xbd945b18	-0.07243937
117	0x3c29e0a8	0.010368504
118	0x3dc99867	0.098435216
119	0x3e1ad3ff	0.15119933
120	0x3d6a4bbf	0.057201143
121	0x3db79eca	0.089658335
122	0x3da80ee5	0.08205966
123	0x3e639875	0.22226126
124	0xbd8f2ac3	-0.06990578
125	0x3d3e8409	0.046512637
126	0x3d19d1c7	0.037553575
127	0xbbc2c457	-0.0059438157
128	0x3bdad172	0.0066778
129	0xbd8f843b	-0.07007643
130	0x3bebe8d6	0.007199387
131	0xbbb2040c	-0.0054326113
132	0xbd1c720a	-0.038194694
133	0xbc2440f1	-0.010025249
134	0x3d740175	0.059571702
135	0x3ce2b99c	0.027676396
136	0x3d32eb7e	0.043681614
137	0x3bea0827	0.007142085
138	0xbd8be713	-0.06831183
139	0xbcc25731	-0.023723217
140	0xbccfdaa3	-0.025372809
141	0x3da4259e	0.080149874
142	0x3d8e1b68	0.06938821
143	0x3cfe55f4	0.031046845
144	0x3d54b3ac	0.05192916
145	0xbc801aae	-0.015637722
146	0x3d35cfee	0.04438775
147	0x3d919c3d	0.07109878
148	0xbd90d561	-0.07071949
149	0x3de06859	0.10957403
150	0x3db058e9	0.08610708
151	0xbd3cb44d	-0.046070386
152	0x3d3b6073	0.045746278
153	0xbd97abb5	-0.074057974
154	0x3cebc582	0.028780703
155	0x3d611f1d	0.054961313
156	0xbd82cba0	-0.06386495
157	0x3b2139ed	0.0024601177
158	0xbd078984	-0.03309013
159	0xbd2c6135	-0.04208489
160	0xbcf40165	-0.029785821
161	0x3d892732	0.06696929
162	0xbd5b2674	-0.05350347
163	0x3bd5d52f	0.0065256576
164	0x3c3ec741	0.0116441855
165	0x3d43cb83	0.047801506
166	0x3df4f35c	0.119604796
167	0xbcde49aa	-0.027134735
168	0xbd38dcea	-0.045132555
169	0x3be94d2e	0.0071197962
170	0xbcfcbe1a	-0.030852366
171	0xbca3509f	-0.019935904
172	0x3d733ab7	0.059382167
173	0xbd13a308	-0.03604415
174	0xbdb2ca9d	-0.08730052
175	0xbc78a1d0	-0.015175298
176	0x3d9b9448	0.07596642
177	0x3d8fe679	0.07026381
178	0xbd882626	-0.06647901
179	0xbbf8efba	-0.007596937
180	0xbd95a524	-0.07306889
181	0x3d33651f	0.04379761
182	0xbcb46470	-0.022020549
183	0xbd3f7a02	-0.046747215
184	0x3de22d39	0.11043782
185	0x3c9171af	0.017754404
186	0x3d526a28	0.05137077
187	0x3afbec92	0.0019220284
188	0x3dcfc0af	0.10144173
189	0x3cfb0375	0.030641297
190	0xbc79aa0c	-0.015238296
191	0x3d8c45b6	0.06849234
192	0xbd05704c	-0.032577798
193	0xbd92963f	-0.071575634
194	0x3c9823a7	0.018571688
195	0x3d99e0b3	0.07513561
196	0xbbdf1f3c	-0.0068091433
197	0xbcb6718f	-0.022270946
198	0x3d8c7943	0.06859066
199	0x3b2dfd04	0.0026548514
200	0x3d4c9480	0.049946308
201	0xbd2274ff	-0.039662357
202	0x3d6d6744	0.05795981
203	0x3cb6d05b	0.022316149
204	0xbcc6c64f	-0.024264483
205	0xbdba2fd5	-0.090911545
206	0x3d553638	0.05205366
207	0xbdd124af	-0.10212075
208	0x3d7499af	0.059716877
209	0x3d038d58	0.032117218
210	0xbd9118fb	-0.07084843
211	0xbdc15aea	-0.094411686
212	0xbcc39e34	-0.023879148
213	0x3d001c8c	0.031277224
214	0x3d677387	0.05650666
215	0x3d2796a9	0.040915165
216	0xbdaa61b2	-0.08319415
217	0xbda840b7	-0.082154684
218	0xbcafb55b	-0.021448782
219	0xb9f351f1	-0.00046409623
220	0x3d1ff5c4	0.03905274
221	0xbd434090	-0.047668993
222	0x3d447bed	0.047969747
223	0xbd7e99b7	-0.062158313
224	0x3ca4984f	0.020092158
225	0xbc1a396a	-0.009413103
226	0x3e1aaea5	0.15105684
227	0x3c66ea92	0.014094012
228	0x3c086b3f	0.008326351
229	0x3cd12da7	0.025534464
230	0x3db38a70	0.08766639
231	0xbd6dd057	-0.058060016
232	0xbd3cc4fb	-0.046086293
233	0x3ddf9114	0.10916343
234	0x3d767f18	0.0601798
235	0x3dfd7084	0.12374976
236	0xbd05c17f	-0.032655235
237	0xbd5eaf23	-0.054366242
238	0x3d2dd252	0.042436905
239	0xbca58f75	-0.020210007
240	0x3da795bd	0.08182857
241	0x3d368607	0.044561412
242	0x3cf2d45a	0.029642273
243	0x3d129d84	0.03579475
244	0x3c9d8aca	0.019231219
245	0xbca052ec	-0.01957079
246	0x3d4853ad	0.048907924
247	0xbd45f2ed	-0.048327375
248	0x3d12b7a0	0.03581965
249	0xbd161e96	-0.036650263
250	0xbc08b4b5	-0.008343865
251	0x3b2e6ac3	0.0026613928
252	0xbd00e833	-0.031471442
253	0xbd126b7e	-0.035747044
254	0xbd559cb2	-0.05215139
255	0xbd91853c	-0.071054906

cell.bias_hh f4 [512]
0	0x3d86b249	0.06576974
1	0x3e0b3e48	0.13597977
2	0xbd5a5e1b	-0.053312402
3	0x3e14bc4e	0.14524958
4	0x3db1b7da	0.08677645
5	0x3e32c9d0	0.17459798
6	0x3c8c30f0	0.017113179
7	0xbd65d0ea	-0.05610744
8	0x3e21854b	0.15773503
9	0x3c8f8b1d	0.01752239
10	0x3c9cc7b8	0.019138202
11	0xbdc39718	-0.09550303
12	0xbc842f0f	-0.01613572
13	0xba9d227c	-0.0011988427
14	0x3cec83ae	0.028871384
15	0xbc246e10	-0.010036007
16	0xbd8094b5	-0.062783636
17	0x3e191c18	0.14952123
18	0x3db91187	0.09036546
19	0x3e21ff75	0.15820105
20	0xbdabd6a2	-0.08390547
21	0x3e36cef5	0.17852385
22	0x3e29bcc2	0.16575912
23	0x3e00836c	0.12550133
24	0xbd84082f	-0.064468734
25	0xbd9d39a1	-0.076770075
26	0x3d922e3f	0.07137727
27	0x3b4bae6e	0.003107931
28	0x3d082651	0.033239666
29	0x3d92b909	0.07164199
30	0x3d54a6bc	0.051916823
31	0x3e506389	0.2035047
32	0x3d35d5f5	0.0443935
33	0xbd8b8fce	-0.06814538
34	0x3db72c80	0.089440346
35	0xbd989d49	-0.07451875
36	0xbca122c4	-0.019669898
37	0x3e4fe5b5	0.2030247
38	0x3d88005a	0.06640692
39	0x3cd9a168	0.026566222
40	0x3d6f8d56	0.058484398
41	0xbba8cfb1	-0.005151712
42	0x3da9c68c	0.08289823
43	0x3dcac842	0.099014774
44	0x3ddfdba2	0.109305635
45	0x3e0cb900	0.13742447
46	0x3d7c8959	0.061654422
47	0x3ba35ea0	0.0049856454
48	0x3e2e85d9	0.17043246
49	0x3e133ae3	0.14377932
50	0x3b66d811	0.0035224
51	0x3e27e9db	0.16397803
52	0xbd950dfc	-0.07278058
53	0x3e10724e	0.14106104
54	0x3d69321b	0.05693255
55	0x3cc61e6c	0.024184428
56	0x3e5f02f1	0.21778466
57	0xbd3f79d2	-0.046747036
58	0x3d286db6	0.041120254
59	0x3de7d4a1	0.113198526
60	0x3e403a34	0.18772203
61	0x3d2bbec7	0.041929986
62	0x3bf47897	0.0074606645
63	0x3e43211c	0.19055599
64	0xbcf89fff	-0.03034973
65	0x3d90eb55	0.07076136
66	0xbd62f6e0	-0.05541122
67	0x3de97df3	0.11400976
68	0xbd5687bf	-0.05237555
69	0x3cbe51e0	0.0232324
70	0x3c2d559e	0.010579495
71	0xbc55ce0d	-0.013049615
72	0x3de0e440	0.10981035
73	0xbd87096c	-0.06593594
74	0x3ea03972	0.31293827
75	0x3e63ac39	0.22233666
76	0x3e100bb3	0.14066963
77	0xbd891786	-0.0669394
78	0xbd8aac5b	-0.067711554
79	0x3d94ef43	0.07272198
80	0x3ddd1997	0.107958965
81	0xbcfcbdda	-0.030852247
82	0x3d707cf9	0.058712933
83	0xbc04f556	-0.008115133
84	0x3d685e57	0.056730594
85	0x3d0002f3	0.031252813
86	0xbd983837	-0.07432597
87	0x3cf5f104	0.030022152
88	0x3e013dee	0.1262128
89	0x3bead0ca	0.007166003
90	0x3cbd7814	0.023128547
91	0x3dfb6039	0.122742124
92	0xbd8b5a3c	-0.0680432
93	0xbb59ef30	-0.003325414
94	0x3df98c3b	0.1218495
95	0xbc93e222	-0.018052164
96	0x3caf0250	0.021363407
97	0x3d160d10	0.03663355
98	0x3e6319ad	0.22177763
99	0x3e081b39	0.13291635
100	0xbd4a5de2	-0.04940594
101	0x3d8cafbb	0.068694554
102	0x3e119553	0.14217119
103	0xbbcff7e0	-0.0063466877
104	0x3e31810a	0.17334381
105	0x3dc23841	0.09483386
106	0x3e36136a	0.17780843
107	0x3dbd06fe	0.09229849
108	0x3e40b189	0.18817724
109	0xbcca3d0f	-0.024687318
110	0x3db3eb17	0.08785074
111	0x3d7e3bf8	0.06206891
112	0x3ddd46d0	0.10804522
113	0x3d978416	0.0739824
114	0x3def218c	0.116763204
115	0xbd685932	-0.05672569
116	0xbb2faab2	-0.0026804623
117	0x3d58cb41	0.052928213
118	0x3e432c86	0.19059953
119	0x3e182bec	0.14860505
120	0x3c4db145	0.012554471
121	0x3d690115	0.056885798
122	0x3d86ca0c	0.06581506
123	0x3e1598de	0.14609095
124	0xbb97a033	-0.0046272515
125	0x3d3429d6	0.04398521
126	0x3db13066	0.086518094
127	0xbd695fb2	-0.056976028
128	0xbda0e0e8	-0.078553975
129	0xbbd8f6cc	-0.0066212174
130	0x3d7d0c16	0.061779104
131	0xbcf6baf7	-0.030118449
132	0x3d1243f9	0.035709355
133	0x3c572591	0.013131515
134	0xbc952b63	-0.018209165
135	0xbc8f081a	-0.017459918
136	0x3d80a154	0.06280771
137	0xbd06111b	-0.032731157
138	0x3d149d11	0.036282603
139	0xbd5181de	-0.05114924
140	0xbd7df2ba	-0.06199906
141	0xbb188423	-0.002327212
142	0x3d8730ae	0.06601082
143	0xbd613216	-0.054979406
144	0xbd025683	-0.031820785
145	0xbd5e387d	-0.05425309
146	0xbd6e3b13	-0.058161806
147	0x3d3468b8	0.04404518
148	0x3d3b2f21	0.045699243
149	0x3d8d61bb	0.06903406
150	0x3ba60495	0.005066464
151	0xbbe3e649	-0.0069549424
152	0xbbf206e6	-0.0073860763
153	0xbd905f27	-0.07049399
154	0x3cea5580	0.028605223
155	0xbd834915	-0.06410424
156	0x3d1a5dbe	0.037687056
157	0x3be35243	0.0069372966
158	0xbd3fd20f	-0.046831187
159	0x3d006e71	0.031355325
160	0x3d82f74b	0.06394824
161	0xbcc890b8	-0.02448307
162	0xbd99a9e9	-0.07503111
163	0xbadfa2f1	-0.001706211
164	0xbcda36d7	-0.026637478
165	0x3d9b71f2	0.07590093
166	0x3a77abcc	0.0009447902
167	0x3d779c7a	0.060451962
168	0x3adbef60	0.0016779713
169	0x3d1578c4	0.036492124
170	0x3dcaeb93	0.099082135
171	0xbd8766eb	-0.06611427
172	0x3db03c0b	0.08605202
173	0x3cf8a50d	0.03035214
174	0x3d7722c4	0.06033589
175	0x3c62b8fd	0.01383805
176	0xbd07dbef	-0.03316873
177	0xbd5f8a65	-0.054575343
178	0xbd5d393e	-0.05400967
179	0x3de0cec2	0.10976936
180	0x3cdfc85d	0.02731722
181	0x3d1814cb	0.037129205
182	0xbd875b5c	-0.06609222
183	0xbd3c80ed	-0.04602139
184	0x3d72d90d	0.059289027
185	0x3d7560ba	0.0599067
186	0x3c802774	0.015643813
187	0xbcf1e087	-0.029526008
188	0xbc498c81	-0.012301565
189	0x3c27896a	0.010225633
190	0xbc6bf474	-0.014401544
191	0x3c3da781	0.011575581
192	0xbd567cf6	-0.052365266
193	0x3d817cd7	0.063226394
194	0x3d251af5	0.04030891
195	0x3c9a70ca	0.01885261
196	0x3d351b34	0.044215396
197	0x3cb56f94	0.022147931
198	0xbd8f4f04	-0.06997493
199	0xbd76228a	-0.060091533
200	0xbd350f84	-0.04420425
201	0x3d14ebb1	0.036357585
202	0x3db48ce3	0.088159345
203	0x3c0dbf31	0.008651541
204	0xbdc2dfe4	-0.0951536
205	0xbd38dd81	-0.045133118
206	0x3c520bc7	0.012820191
207	0x3d1c4bab	0.0381581
208	0x3da65ff0	0.081237674
209	0xbd1ece20	-0.038770795
210	0xbc5113c2	-0.012761058
211	0xbdb65407	-0.08902746
212	0x3d522390	0.051303446
213	0x3d221777	0.03957316
214	0x3dbb2ffd	0.091400124
215	0x3d8d39c5	0.06895784
216	0x3d065ec1	0.032805208
217	0x3d450f1e	0.04811012
218	0xbd11c6c6	-0.035589956
219	0x3d2faa0a	0.04288677
220	0x3cee91b0	0.029122204
221	0xbd81f0a6	-0.06344728
222	0x3ce7999f	0.028271494
223	0xbd8b7c72	-0.068108454
224	0xbd469635	-0.048483092
225	0xbd115fe5	-0.035491843
226	0x3e0c8d9b	0.13725893
227	0xbcca8992	-0.024723802
228	0x3bb71cb1	0.005588137
229	0x3d69b706	0.05705931
230	0x3d948234	0.07251397
231	0xba3d83c2	-0.0007229411
232	0x3d9913a6	0.07474451
233	0x3d09f124	0.033677235
234	0x3d01e814	0.031715468
235	0x3d69a575	0.057042558
236	0x3c221886	0.009893542
237	0xbd803e7e	-0.062619194
238	0x3d19f900	0.03759098
239	0xbd2f7289	-0.04283384
240	0xbc942c82	-0.01808763
241	0xbd62b5a0	-0.055348992
242	0x3cf13d35	0.029448131
243	0xbaeb5532	-0.0017954467
244	0xbc62c4b6	-0.013840845
245	0xbda7c9c8	-0.081927836
246	0x3da327db	0.07966586
247	0x3cbdec3e	0.023183938
248	0xbcca4713	-0.024692094
249	0xbcc3fd3e	-0.023924466
250	0x3cf48086	0.029846441
251	0xbca17315	-0.019708196
252	0x3b90be8f	0.0044172476
253	0x3c3e169a	0.011602068
254	0x3dc87234	0.097874075
255	0xbd4d1486	-0.0500684

input_embedding_layer.weight f4 [64, 2]
0	0x3ebf278f	0.37334868
1	0xbd7895fd	-0.060689915
2	0x3f25205f	0.6450252
3	0xbed6b641	-0.41935924
4	0xbd353f89	-0.044250045
5	0x3f0ff81d	0.56237966
6	0xbf1f4493	-0.6221401
7	0x3deeff52	0.11669792
8	0x3ebcf95d	0.36909
9	0x3f003b71	0.500907
10	0xbf038f55	-0.5139058
11	0xbf03b2e5	-0.51444846
12	0x3eb6a574	0.35673106
13	0xbf300ec7	-0.6877255
14	0x3c907139	0.017632114
15	0x3ed816ee	0.42204994
16	0x3ed54a96	0.41658467
17	0x3f3b82d6	0.73246515
18	0xbf1c9635	-0.611667
19	0xbe93f998	-0.28901362
20	0xbdf74f55	-0.12075678
21	0xbee480d6	-0.44629544
22	0xbe871d7c	-0.26389682
23	0x3f1627ff	0.5865478
24	0xbf275bba	-0.6537434
25	0x3f0ce976	0.55043733
26	0xbf2b7278	-0.6697154
27	0xbee2f765	-0.44329372
28	0x3e52a8ab	0.20572154
29	0x3f1a4159	0.6025596
30	0x3e93387a	0.28754026
31	0x3f04da2d	0.5189541
32	0x3cd064cc	0.025438689
33	0xbe97588f	-0.29559752
34	0x00016b50	1.30332e-40
35	0x00013d6e	1.13872e-40
36	0xbbe36269	-0.0069392216
37	0xbf2de911	-0.67933756
38	0xbeab9170	-0.33509398
39	0x3e8ba2c7	0.27272627
40	0x3ef4471e	0.47710508
41	0x3e063479	0.13105954
42	0x3f04489e	0.51673305
43	0xbd908099	-0.07055778
44	0x3effe7e6	0.49981612
45	0x3ef93976	0.48676652
46	0xbebd27f6	-0.3694455
47	0x3e220bb5	0.15824778
48	0x3ef0c3df	0.47024438
49	0xbeb17d43	-0.3466588
50	0xbf11afc8	-0.56908846
51	0xbd333f8b	-0.04376177
52	0x3e8bb525	0.2728664
53	0x3dc1acd1	0.0945679
54	0x3f3e497b	0.7433087
55	0x3eebcd65	0.4605514
56	0xbe7183d4	-0.23585445
57	0xbf47b993	-0.7801754
58	0xbd544edb	-0.051833015
59	0xbf45582d	-0.7708767
60	0x3eb4f25d	0.35341159
61	0xbeac0135	-0.3359467
62	0xbc07f1eb	-0.008297424
63	0x3f49234c	0.78569484
64	0xbe4d3e63	-0.2004333
65	0xbf4a68bc	-0.7906606
66	0xbdb41cfc	-0.08794591
67	0xbf2066bc	-0.6265676
68	0xbf0f36c8	-0.55942965
69	0xbc5ca49a	-0.013466978
70	0x3f42400d	0.75878984
71	0x3eba2bc1	0.36361507
72	0xbe84a32f	-0.2590575
73	0xbf2bd0c1	-0.6711541
74	0xbf07cc9b	-0.5304658
75	0xbf2a545e	-0.66534984
76	0xbe87eeb3	-0.265493
77	0xbf3c3d99	-0.7353149
78	0xbe8686b2	-0.2627464
79	0x3e21b079	0.15789975
80	0x3e894afd	0.26815024
81	0xbeaafa30	-0.33394003
82	0x3f055a83	0.52091235
83	0x3d1edab9	0.03878281
84	0xbee68fcb	-0.4503158
85	0x3ebd63c9	0.36990193
86	0xbeeca59b	-0.46220097
87	0x3f4a66a6	0.7906288
88	0xbf3f2be8	-0.7467637
89	0xbeeea9e1	-0.46613982
90	0xbb505e57	-0.0031794512
91	0xbed07fea	-0.4072259
92	0xbf1536f0	-0.5828695
93	0x3f3171c9	0.6931425
94	0x3c09f4d7	0.008420191
95	0xbf1fb76e	-0.62389266
96	0xbefef0d1	-0.49793103
97	0xbeb3f5d0	-0.35148478
98	0x3edf19c8	0.43574357
99	0xbe4a987b	-0.19784729
100	0xbe9b4640	-0.30327034
101	0xbcc81d05	-0.0244279
102	0xbe9e71cc	-0.30946195
103	0xbf0239c4	-0.50869393
104	0xbe15fa7c	-0.14646333
105	0x3f2ef669	0.6834474
106	0x3e3c75aa	0.1840426
107	0xbef95001	-0.4869385
108	0x3e4262dc	0.18983024
109	0xbefdbdb1	-0.49558786
110	0x3c988743	0.018619185
111	0xbf12f5bf	-0.5740623
112	0xbf107556	-0.5642904
113	0x3e4bf780	0.19918633
114	0x3db7959b	0.08964082
115	0xbccb6843	-0.02482999
116	0xbf0b6817	-0.54455703
117	0x3e270a3f	0.16312502
118	0x3ec4fe30	0.3847518
119	0xbd218531	-0.03943366
120	0xbde311f8	-0.11087412
121	0xbf02dd83	-0.5111925
122	0xbdb6d0a9	-0.089265175
123	0x3f537ac9	0.8260923
124	0x3e59c603	0.21266942
125	0x3e2f6b36	0.17130741
126	0x3f33ed1c	0.70283675
127	0x3e72c9fe	0.23709866

input_embedding_layer.bias f4 [64]
0	0x3d23fd23	0.04003633
1	0x3e05219d	0.13001104
2	0x3e18ce93	0.14922552
3	0x3519877b	5.719409e-07
4	0x3e8b98f3	0.27265128
5	0xbe5db83b	-0.2165231
6	0x3a93ff1a	0.0011291236
7	0x3e3a6e8a	0.1820623
8	0xbc9a9cc0	-0.018873572
9	0x3cd2c77f	0.025729893
10	0x3f0f421d	0.55960256
11	0x3ee2cec2	0.4429837
12	0x32b55351	2.1109061e-08
13	0xba95d626	-0.0011431619
14	0x3f28784d	0.65808564
15	0x3438b38e	1.7201657e-07
16	0x3ea79f4a	0.32738715
17	0xb9e7d20b	-0.00044216248
18	0x3d6521fe	0.05594062
19	0x3cc11334	0.023568727
20	0x3ba5882a	0.0050516324
21	0x3bce8454	0.006302396
22	0xbb1b4c25	-0.0023696509
23	0xbee7c2f3	-0.45265922
24	0xb94e2d5c	-0.00019662589
25	0xbef945bb	-0.48686013
26	0x3f311e7b	0.69187135
27	0x3f2bf0e2	0.67164433
28	0xbcc83ab4	-0.024442054
29	0x3c47b39e	0.01218882
30	0xbebd2d2f	-0.36948535
31	0xbb97c6b4	-0.0046318416
32	0x3e39aa5f	0.18131398
33	0x3da2383d	0.07920883
34	0xbd8e1b31	-0.0693878
35	0x3f037c73	0.5136177
36	0x3ea72704	0.32646954
37	0x3c47202f	0.012153669
38	0xbe735c2d	-0.23765631
39	0x3f35e238	0.7104831
40	0x3edb63cb	0.42849573
41	0x3ef56813	0.47930965
42	0x3ef00fb9	0.46886995
43	0xbef01b28	-0.4689572
44	0x3ef7241c	0.48269737
45	0x3c6a3b04	0.014296297
46	0xbe77c917	-0.24197803
47	0x3e050ecf	0.1299393
48	0x3bdcb4c4	0.006735416
49	0xbea50092	-0.32226998
50	0x3c44dde3	0.012015793
51	0xbedf4b6e	-0.43612236
52	0xbedbc718	-0.42925334
53	0x3b0e8d2b	0.0021751623
54	0xbe2ffb9a	-0.17185822
55	0x3c7783d9	0.0151071185
56	0x3f1450af	0.57935613
57	0x3f077564	0.529135
58	0x3f0258be	0.5091666
59	0x3aecf824	0.0018079323
60	0xbee0e80b	-0.43927035
61	0xbe47e199	-0.19519652
62	0x3d686ac3	0.05674244
63	0x3f00db08	0.50334215

output_layer.weight f4 [5, 128]
0	0xbbefaefc	-0.007314561
1	0xbd1fcfef	-0.03901666
2	0x3d1d2c50	0.038372338
3	0x3c5bf9b4	0.013426233
4	0xbe07dcb2	-0.13267782
5	0x3d644e45	0.055738706
6	0x3c521e5f	0.012824624
7	0xbd5c537f	-0.053790566
8	0xbd9d01d3	-0.076663636
9	0xbdbf83b2	-0.09351291
10	0xbe8a3356	-0.2699229
11	0x3e4d800d	0.20068379
12	0xbda76738	-0.08173984
13	0xbd35fcfa	-0.04443071
14	0x3cd14fda	0.025550772
15	0x3e7e9aba	0.24863711
16	0xbe33afb7	-0.17547499
17	0xbe5b25b2	-0.21401098
18	0xbc5668fb	-0.013086553
19	0xbda00caf	-0.07814919
20	0x3e549a66	0.20762023
21	0xbda8ec80	-0.08248234
22	0x3c4b498d	0.012407673
23	0xbd35372d	-0.044242073
24	0xbe4fc9f1	-0.20291878
25	0xbda970eb	-0.082734905
26	0xbe3abb53	-0.18235521
27	0xbda16a57	-0.07881611
28	0x3bb07deb	0.0053861043
29	0xbde7e2cb	-0.11322554
30	0xbe849bc5	-0.25900093
31	0x3c2ce73a	0.010553176
32	0xbcc090ba	-0.023506511
33	0x3e3e766b	0.1859986
34	0xbdbd4d15	-0.09243218
35	0xbdd47faf	-0.10375916
36	0xbe1daac6	-0.15397176
37	0x3c920c2d	0.017828071
38	0xbdcd728e	-0.10031615
39	0xbd041c54	-0.03225358
40	0x3df96e65	0.12179259
41	0xbdee47cd	-0.11634789
42	0xbdcb8333	-0.09937134
43	0x3e47069e	0.19436118
44	0xbb5ed381	-0.0034000578
45	0x3d912a9b	0.070882045
46	0x3db42f64	0.087981015
47	0x3e081eca	0.13292995
48	0xbc56dd53	-0.013114291
49	0xbbcbe4ef	-0.0062223594
50	0x3cf726f9	0.03016995
51	0xbdb4489c	-0.08802912
52	0xbdb8dfba	-0.090270475
53	0xbd0734a1	-0.033009175
54	0x3d5d7d74	0.05407472
55	0xbd8e0da6	-0.06936197
56	0xbcabd4fb	-0.02097558
57	0x3e4f44a6	0.20241031
58	0x3dbf9d0b	0.093561254
59	0x3c941032	0.018074129
60	0x3bd46226	0.006481427
61	0xbd84e665	-0.06489257
62	0xbe257d72	-0.16161135
63	0xbda15c5a	-0.07878943
64	0x3deef73a	0.116682485
65	0xbd35e779	-0.044410203
66	0xbc820329	-0.015870648
67	0x3c581bbb	0.013190205
68	0x3dc82497	0.09772604
69	0xbe1f09e1	-0.15531112
70	0xbdc110d6	-0.09427039
71	0x3cda879a	0.026675988
72	0x3d51f8a0	0.051262498
73	0x3d6ee343	0.058322202
74	0x3cbc5b0f	0.022992639
75	0x3c751776	0.014959207
76	0x3d3c04db	0.045903068
77	0x3cb7f80b	0.022457143
78	0x3e6e1f1b	0.23254053
79	0xbdf0633f	-0.1173768
80	0xbd78210b	-0.060578387
81	0xbdd6f776	-0.10496418
82	0x3d1995af	0.037496265
83	0x3d29ab06	0.041422866
84	0x3e59da39	0.21274652
85	0xbe18b323	-0.14912085
86	0x3e489464	0.19587857
87	0xbe10bcd6	-0.14134535
88	0xbca195de	-0.019724783
89	0xbdaa79e2	-0.083240286
90	0x3cc0cdc6	0.02353562
91	0x3c044870	0.008073911
92	0x3c56fb6b	0.013121466
93	0x3b1f4153	0.002430041
94	0x3aab38f3	0.0013063237
95	0x3dac4847	0.08412223
96	0xbb051c13	-0.0020310923
97	0x3d434309	0.04767135
98	0xbd347f5d	-0.044066776
99	0xbda66b38	-0.08125919
100	0x3d89b4ca	0.06723936
101	0x3c006cbc	0.007838424
102	0x3dd72955	0.1050593
103	0xbe39a77f	-0.18130301
104	0x3d4f9ff5	0.050689656
105	0xbdd5a5bb	-0.10432001
106	0x3c1318eb	0.008978109
107	0x3caba9cd	0.02095499
108	0x3e00bc64	0.12571865
109	0xbe101063	-0.14068751
110	0x3d258e56	0.040418945
111	0x3e2b2e0c	0.16716784
112	0xbdef2279	-0.11676497
113	0x3e2e390a	0.17013946
114	0x3d6f66d1	0.058447663
115	0x3e2edc2b	0.17076175
116	0x3c6c14aa	0.014409224
117	0x3dbc4c56	0.091942474
118	0xbdf92acb	-0.12166365
119	0x3dde269b	0.10847207
120	0xbdfdeb0f	-0.123983495
121	0x3dc91e38	0.09820217
122	0xbd24a709	-0.04019836
123	0x3ae95a9f	0.0017803496
124	0x3e37bc5e	0.1794295
125	0x3c110aa9	0.008852639
126	0x3dc6c12f	0.097048156
127	0x3dcffe67	0.10155945
128	0x3deaf761	0.11472965
129	0xbd3161e0	-0.04330623
130	0x3d97869a	0.0739872
131	0x3aa94b00	0.0012916028
132	0x3dcdd8b5	0.10051099
133	0xbc473e06	-0.012160784
134	0x3e11bfde	0.14233348
135	0xbe614072	-0.2199724
136	0x3b6084c4	0.0034258822
137	0xbca7fd44	-0.020506509
138	0xbd084d6d	-0.033276964
139	0xbdeffc21	-0.11718012
140	0x3ddd1e3a	0.10796781
141	0xbdd6a840	-0.1048131
142	0x3da6214e	0.08111821
143	0xbde2a9f5	-0.11067573
144	0x3e159c1a	0.1461033
145	0x3dfa9e93	0.12237277
146	0x3ce6524e	0.028115418
147	0xbc86feb1	-0.016478868
148	0xbda8a4e1	-0.08234573
149	0xbd87baa6	-0.06627397
150	0x3d3a0971	0.04541916
151	0x3ae72894	0.0017635995
152	0x3dbdc2cc	0.0926567
153	0x3dd14908	0.10219008
154	0xbd1cf8b7	-0.03832313
155	0xbe02b1d2	-0.12763146
156	0xbe0fd897	-0.14047466
157	0x3d66b489	0.056324515
158	0x3de708fe	0.11281012
159	0x3c5fe20b	0.013664733
160	0xbe0a9203	-0.13532262
161	0xbe13259f	-0.1436982
162	0x3de7a1bc	0.11310145
163	0xbce6a706	-0.028155815
164	0x3d8466e5	0.06464938
165	0x3cdc9a0b	0.026928922
166	0xbd13f669	-0.036123667
167	0x3e0cd72c	0.13753957
168	0x3e17e710	0.14834237
169	0xbb01ed1f	-0.0019825173
170	0xbd976031	-0.07391394
171	0xbda8b1b7	-0.082370214
172	0xbe0406a0	-0.12893152
173	0xbbe4e394	-0.0069851372
174	0xba843e96	-0.0010089453
175	0x3cc0c595	0.023531714
176	0xbd60d718	-0.05489263
177	0x3d3900c1	0.045166735
178	0x3d9612a9	0.07327778
179	0x3ceeffed	0.02917477
180	0x3e693dab	0.2277743
181	0x3d80c19b	0.06286927
182	0xbcc3fc99	-0.023924159
183	0xbde4683b	-0.11152693
184	0xbc44ef83	-0.012019995
185	0xbe1ade54	-0.15123874
186	0xbd21e377	-0.039523568
187	0xbc9f4489	-0.01944186
188	0xbdeca985	-0.11555771
189	0xbe0f9cad	-0.14024611
190	0xbba94c16	-0.005166541
191	0xbd02ec38	-0.031963557
192	0x3d709824	0.058738843
193	0xbdaf0957	-0.08546703
194	0x3e4bf57a	0.1991786
195	0x3d5edd7e	0.05441045
196	0xbdddf3d8	-0.10837525
197	0x3d2701c2	0.04077316
198	0xbda5d236	-0.08096735
199	0x3da393a3	0.07987144
200	0x3dd2608b	0.1027232
201	0x3dcef5a4	0.10105446
202	0xbd089fc8	-0.033355504
203	0xbdb93eea	-0.09045203
204	0x3c34fab0	0.011046097
205	0xbde46dc7	-0.11153751
206	0xbd04c861	-0.03241766
207	0xbd6db52a	-0.0580341
208	0x3cad906d	0.021187032
209	0x3d651f2e	0.05593794
210	0x3de412fd	0.11136434
211	0xbda7bd33	-0.08190384
212	0xbd2dd284	-0.04243709
213	0xbd84d947	-0.06486755
214	0xbb6c8272	-0.0036088494
215	0x3d6db55c	0.058034286
216	0xbda920a3	-0.08258178
217	0x3e1f1a3e	0.15537354
218	0x3d992a98	0.07478827
219	0xbd5460fa	-0.051850297
220	0xbdf4ddb5	-0.1195635
221	0x3d047ccd	0.03234558
222	0xbda217ce	-0.07914697
223	0xbdec7bef	-0.11547076
224	0xbe249467	-0.16072236
225	0x3e2926e3	0.1651874
226	0x3c19e17e	0.00939214
227	0x3b43fed8	0.0029906537
228	0x3da9d6e8	0.08292943
229	0x3dd208cb	0.102555834
230	0x3db2fc5b	0.08739539
231	0x3d39df51	0.045378987
232	0xbc11da2b	-0.008902113
233	0xbd3fb411	-0.046802584
234	0x3cd7355b	0.026270559
235	0x3d4e2963	0.05033244
236	0xbc5b37ed	-0.013380033
237	0x3e056e6b	0.13030402
238	0x3c8fc83d	0.017551536
239	0xbcf1a951	-0.029499682
240	0x3dc14bda	0.09438296
241	0xbe0ca202	-0.13733676
242	0xbd3bff11	-0.045897547
243	0x3d8faa7a	0.07014938
244	0xbddee4c7	-0.108834796
245	0xbd8acbea	-0.06777175
246	0xbcf6c777	-0.03012441
247	0xbbc4cfdf	-0.0060062255
248	0x3de03961	0.10948444
249	0x3d4c2d47	0.049847867
250	0x3c3ee623	0.011651549
251	0xbcba51d1	-0.022744091
252	0x3db14d21	0.08657289
253	0x3c7e581c	0.015523937
254	0x3defd8a3	0.11711242
255	0x3e093416	0.13398775

output_layer.bias f4 [5]
0	0xbd09084a	-0.03345517
1	0x3c815fd1	0.01579276
2	0xbda8398b	-0.082141005
3	0xbd95b327	-0.07309561
4	0x3d92b07e	0.071625695

sum f4 [512, 64]
0	0x3f2c7816	0.67370737
1	0x3ffa7cd0	1.956934
2	0x3f481490	0.78156376
3	0x40403fa5	3.0038846
4	0x3f972eb8	1.1811132
5	0x3f9f9b18	1.2469206
6	0x3f1f7d0d	0.6230019
7	0x3f102145	0.56300765
8	0x3fa7b971	1.3103467
9	0x40556df8	3.334837
10	0x3fc61cd9	1.5477554
11	0x40292ce0	2.643364
12	0x4096d22f	4.713157
13	0x400911df	2.1417158
14	0x4034beba	2.824141
15	0x3f23e38e	0.64019096
16	0x3eee5504	0.46549237
17	0x316a3c58	3.4085783e-09
18	0x3df5f2bf	0.12009191
19	0x3f903a47	1.1267785
20	0x3f5c7e6c	0.86130404
21	0x3f820d95	1.0160395
22	0x3f917472	1.1363661
23	0x3eefcaac	0.46834314
24	0x3f6f1a8e	0.93399894
25	0x3fa68605	1.300965
26	0x4027e73b	2.6234882
27	0x40ca8991	6.329293
28	0x3ea6c205	0.325699
29	0x3dc7241d	0.09723685
30	0x3e9a7d3c	0.3017367
31	0x3feb8629	1.8400317
32	0x3f19eb18	0.6012435
33	0x3e2ebcdb	0.1706423
34	0x3ff9006f	1.9453257
35	0x408292be	4.080413
36	0x3f979a0f	1.184389
37	0x3fb2e736	1.397681
38	0x3e72a459	0.23695506
39	0x40466732	3.1000485
40	0x3fa79c0d	1.3094498
41	0x401dbd7d	2.4646904
42	0x405b479f	3.4262464
43	0x402d02eb	2.703303
44	0x40e0812f	7.0157695
45	0x3d063d68	0.032773405
46	0x40617016	3.5224662
47	0x3e42e7da	0.19033757
48	0x3f98cad6	1.1936901
49	0x3f05656c	0.5210788
50	0x3f10c7d8	0.5655494
51	0x3e81df15	0.2536551
52	0x3f67a946	0.90492666
53	0x3e3f9bfe	0.1871185
54	0x3e05acfd	0.13054271
55	0x3d8d3461	0.06894756
56	0x40812094	4.035227
57	0x3f7d9aa9	0.9906412
58	0x4089383b	4.288114
59	0x3f19bf63	0.6005766
60	0x3bccc70f	0.0062493156
61	0x3fd34ad5	1.6507212
62	0x3e642a97	0.22281872
63	0x40853810	4.1630936
64	0x3cc659c3	0.024212724
65	0x3e0425fe	0.12905118
66	0x3f5b4b19	0.85661465
67	0x3ecc9436	0.39956826
68	0x3f0eb59f	0.5574588
69	0x3d12a1c9	0.03579882
70	0x3da790aa	0.08181889
71	0x3ef41327	0.47670862
72	0x3f1f755e	0.62288463
73	0x3e115f89	0.141966
74	0x3e667885	0.22506912
75	0x3fc41558	1.5319014
76	0x3fd2f112	1.6479819
77	0x3dd0cc51	0.1019522
78	0x3fb4079b	1.4064821
79	0x3ea7baf0	0.3275981
80	0x3db53178	0.08847326
81	0x2e247f4d	3.740235e-11
82	0x3d96e7da	0.07368441
83	0x3ec6dd1d	0.3884057
84	0x3c8c12fb	0.017098894
85	0x3cefa0fc	0.029251568
86	0x3e4cc530	0.19997096
87	0x3d848ce9	0.06472189
88	0x3d6079e0	0.05480373
89	0x3d66c48d	0.05633979
90	0x3ec4c4a8	0.38431287
91	0x3f3a9b39	0.728931
92	0x3d6edbce	0.05831509
93	0x3da1e064	0.07904127
94	0x3c8df60c	0.017329238
95	0x3fafd7d0	1.3737736
96	0x3dc578a0	0.09642148
97	0x3d8d21bb	0.06891199
98	0x3e1ced6f	0.15324949
99	0x3ede9496	0.43472737
100	0x3e275e71	0.1634462
101	0x3d962abd	0.073323704
102	0x3cf9ed90	0.030508786
103	0x3f6248b8	0.8839221
104	0x3e2f6e65	0.17131956
105	0x3e572e3a	0.21013728
106	0x3fa00233	1.2500671
107	0x3f990936	1.1955936
108	0x3ec15a7e	0.37764353
109	0x3cba57d6	0.022746962
110	0x3fcb71d7	1.5894116
111	0x3d902279	0.07037825
112	0x3d7ea4ed	0.062169004
113	0x3c59e5c4	0.013299409
114	0x3d5c31a9	0.053758297
115	0x3bdbcc59	0.0067077097
116	0x3f23489e	0.6378268
117	0x3d2cea5c	0.04221569
118	0x3cedd348	0.02903141
119	0x3d3995a7	0.045308735
120	0x3f966bf4	1.1751695
121	0x3e449e33	0.19200973
122	0x3f69bbe0	0.913023
123	0x3c872e40	0.016501546
124	0x3c0fae8f	0.008769645
125	0x3f9ff2fc	1.2496028
126	0x3d257a81	0.040400032
127	0x3e94d0ca	0.29065543
128	0x3ebae8bc	0.36505687
129	0x40277d84	2.6170359
130	0x3eebd8d5	0.46063867
131	0x405537fe	3.3315425
132	0x3e760eff	0.24029158
133	0x3fdd0e2f	1.7269953
134	0x4061e002	3.5292974
135	0x3e4d9fd6	0.20080504
136	0x3e58e706	0.21181878
137	0x402db76f	2.714321
138	0x400e0539	2.2190688
139	0x400d4562	2.2073598
140	0x4084591b	4.135877
141	0x406ce323	3.7013633
142	0x3f1b3611	0.60629374
143	0x3dede0f3	0.11615171
144	0x3f4c5401	0.7981568
145	0x2f336444	1.6315577e-10
146	0x3ff8bfd0	1.9433537
147	0x3fa1b899	1.263446
148	0x3e0b4603	0.13600926
149	0x3f19ac92	0.60028946
150	0x3d8d23d6	0.06891601
151	0x3f1c41e3	0.61038035
152	0x3fd2922e	1.645086
153	0x3fda87ee	1.7072732
154	0x3f076b2c	0.52897906
155	0x3f395e24	0.7240927
156	0x401de35d	2.4670022
157	0x4027a2fd	2.619323
158	0x3f3e44f3	0.7432396
159	0x3f083106	0.53199804
160	0x404c9cbc	3.1970663
161	0x3fe10188	1.7578592
162	0x4028552e	2.630199
163	0x3ec2c90f	0.3804402
164	0x404229c8	3.0338001
165	0x404a6537	3.1624277
166	0x3fc22b1b	1.5169405
167	0x3fecb7d6	1.8493602
168	0x3fd21907	1.6413888
169	0x3f49d4cb	0.7884032
170	0x4033dfcd	2.8105347
171	0x3fe7b704	1.8102727
172	0x40a04444	5.008333
173	0x3f3c3e21	0.735323
174	0x403bb5a8	2.9329624
175	0x3fd70946	1.6799705
176	0x4002731c	2.0382757
177	0x3efcf717	0.49407265
178	0x3f5da4bc	0.8657949
179	0x3ef4e761	0.47832778
180	0x3f1e1f1c	0.6176622
181	0x3fc19a61	1.5125238
182	0x3fa45cab	1.284078
183	0x3fbc638b	1.4717878
184	0x40b25a1b	5.573499
185	0x3ebcb9f7	0.3686063
186	0x4094274c	4.629797
187	0x3e982195	0.2971312
188	0x3ed7bcbc	0.4213618
189	0x3f473e86	0.7782978
190	0x3c7dc8b1	0.015489743
191	0x3f28cf73	0.6594154
192	0x3ab7ab22	0.0014012794
193	0x3bd67679	0.0065448848
194	0x3d060692	0.03272111
195	0x3d4dfe32	0.050291248
196	0x3cdace4e	0.026709702
197	0x3cd68d12	0.026190314
198	0x3bc868d7	0.0061160135
199	0x3c9ff351	0.019525202
200	0x3c9496fd	0.018138403
201	0x3d62bdb7	0.055356707
202	0x3d09c583	0.033635627
203	0x3da33bc6	0.07970385
204	0x3dabcd33	0.08388748
205	0x3d8c2117	0.06842249
206	0x3d99ac53	0.07503571
207	0x3c169fca	0.00919337
208	0x3c03803b	0.008026178
209	0x3243ae20	1.1390085e-08
210	0x3b9887b2	0.004654848
211	0x3cdb1ad6	0.026746195
212	0x3aa4329e	0.0012527292
213	0x3af98de0	0.0019039474
214	0x3bd563e1	0.0065121506
215	0x3c1d4610	0.009599224
216	0x3b447b5a	0.002998075
217	0x3cd761f8	0.026291832
218	0x3d06437f	0.032779213
219	0x3d4f330a	0.050585784
220	0x3c246464	0.010033701
221	0x3ba19863	0.004931496
222	0x3a4362ce	0.0007453383
223	0x3cd89a3c	0.026440732
224	0x3caec767	0.021335317
225	0x3bead3a0	0.007166341
226	0x3d2017e8	0.0390853
227	0x3cb5c8a5	0.022190401
228	0x3d08ea10	0.033426344
229	0x3d59b817	0.053154077
230	0x3c0e4e27	0.008685625
231	0x3dd52e4b	0.1040922
232	0x3c52489f	0.012834697
233	0x3c7f4970	0.015581474
234	0x3df885ae	0.121348724
235	0x3d4766f1	0.048682157
236	0x3e1512d9	0.14557971
237	0x3ab17e49	0.0013541664
238	0x3d943499	0.07236595
239	0x3bc73bee	0.006080142
240	0x3cf2d66b	0.029643258
241	0x3a3134c9	0.000675988
242	0x3c51bafd	0.012800929
243	0x3bb9492a	0.005654474
244	0x3c881c04	0.016614921
245	0x3b183173	0.0023222833
246	0x3ac9514a	0.0015359309
247	0x3b3ddefb	0.0028972018
248	0x3dfcd9e0	0.12346244
249	0x3c9f072a	0.019412596
250	0x3e2066c8	0.15664208
251	0x3a86cf70	0.001028521
252	0x3a5fb69d	0.00085339864
253	0x3cdde671	0.027087422
254	0x3adebb26	0.001699303
255	0x3cad8c52	0.021185074
