model/VANILLALSTM/LSTM/VANILLALSTM_lstm_model_27.tar (torch, 809783 bytes, 16 tensors)

cell.weight_ih f4 [512, 64]
0	0xbd17540e	-0.036945395
1	0x3d205195	0.039140303
2	0xbdb22f9a	-0.087004855
3	0xbc9c4315	-0.019074956
4	0x3dc67119	0.096895404
5	0xbd3c6c58	-0.046001762
6	0xbc3994b4	-0.0113269575
7	0x3c8a7d1a	0.016905356
8	0xbc804089	-0.015655773
9	0xbd2fc95f	-0.04291665
10	0x3ce5db5d	0.028058702
11	0x3d224f6a	0.039626516
12	0xbd922edc	-0.07137844
13	0x3cab9e26	0.020949434
14	0xba928ae2	-0.0011180306
15	0xbbbf0e56	-0.0058305664
16	0x3c6977ee	0.014249785
17	0x00015dd9	1.25502e-40
18	0x3cbacebc	0.022803657
19	0x3bfdeda9	0.0077492786
20	0x3c7fa766	0.015603876
21	0x3d289f14	0.041167334
22	0x3cfeb4ae	0.031092014
23	0xbcf32305	-0.029679785
24	0xbc100fc9	-0.008792826
25	0xbb486038	-0.003057493
26	0x3c1dc328	0.009629048
27	0xbd8ef870	-0.069809794
28	0x3d3c1290	0.04591614
29	0x3d8a4e05	0.06753162
30	0x3d3df951	0.046380345
31	0xba0ec33a	-0.0005445961
32	0xbb0495a4	-0.0020230794
33	0x3d173dbd	0.036924113
34	0xbd5989a7	-0.05310979
35	0xbd0d8938	-0.03455469
36	0x3d48e419	0.049045656
37	0xbc8f9f43	-0.017531997
38	0x3d961dee	0.073299274
39	0x3d089630	0.033346355
40	0x3c887a87	0.016659988
41	0xbc6c77f1	-0.014432893
42	0xbc81a7af	-0.015827028
43	0x3bbebe26	0.0058210073
44	0xbd4dbb78	-0.050227612
45	0x3dbb9c6a	0.09160693
46	0x3b4c1a27	0.0031143518
47	0xbbbd7a87	-0.0057824287
48	0x3d7500e4	0.059815302
49	0x3caee842	0.021350984
50	0x397a504c	0.00023871771
51	0x3c8a7af7	0.016904337
52	0x3c51745d	0.012784091
53	0x3d053be5	0.032527823
54	0x3d1a48e4	0.03766717
55	0x3d51c8d2	0.051216908
56	0xb9bc30a6	-0.000358944
57	0xbd49db4e	-0.04928141
58	0x3b05de63	0.0020426742
59	0x3b44b1ae	0.0030013132
60	0x3df507e4	0.11964396
61	0x3ca11d19	0.019667195
62	0xbcf30c49	-0.029668944
63	0x3dab8385	0.08374695
64	0xbce370e6	-0.027763795
65	0xbd6637b6	-0.056205474
66	0xbd7004b6	-0.058598243
67	0xbb724fd4	-0.003697385
68	0x3c94564e	0.01810756
69	0x3cd630ef	0.02614638
70	0xbcee0160	-0.02905339
71	0x3d8c6805	0.06855778
72	0xbd912491	-0.070870526
73	0xbd4a2adf	-0.04935729
74	0x3d54e522	0.05197633
75	0x3db898a3	0.09013488
76	0xbd1acdde	-0.037793986
77	0x3da54f90	0.08071816
78	0x3d240eb7	0.040053096
79	0xbde20b7b	-0.11037346
80	0x3c2a1c04	0.010382656
81	0x8000949f	-5.3315e-41
82	0x3cfd1d16	0.030897658
83	0x3ce755a1	0.028239073
84	0xbd69575b	-0.056968074
85	0xbd3d93ba	-0.04628346
86	0xbcfa5fd1	-0.030563267
87	0x3d3c26c8	0.045935422
88	0xbd3ce5dc	-0.04611765
89	0x3d0b7ae6	0.034052752
90	0x3dc17fc1	0.09448195
91	0xbd03d775	-0.032187898
92	0xbbb83013	-0.0056209653
93	0xbcdebeae	-0.027190533
94	0xbc36ee93	-0.011165279
95	0xbe0d7d32	-0.1381729
96	0xbaf2bfa2	-0.0018520246
97	0xbc6f77b8	-0.0146159455
98	0x3d2e1538	0.042500705
99	0xbd175cfd	-0.036953915
100	0xbd54b8f0	-0.051934183
101	0x3d866cb9	0.06563706
102	0x3cf1d566	0.029520702
103	0x3daf72ae	0.08566795
104	0xbc5708bd	-0.013124642
105	0xbc8c2ae1	-0.01711029
106	0x3dbc698d	0.0919982
107	0x3b69f2c9	0.003569769
108	0xba901203	-0.0010991696
109	0xbd0709c7	-0.03296831
110	0x3d25f4b8	0.040516585
111	0xbd63dffe	-0.055633537
112	0xbcbafa09	-0.022824304
113	0xbcf2a5c4	-0.029620059
114	0xba7a4bfe	-0.0009548067
115	0xbbb698a6	-0.0055723963
116	0xbc1f04be	-0.0097057205
117	0xbd31e55e	-0.043431632
118	0xbcd7c9e1	-0.02634138
119	0xbc3742c9	-0.011185356
120	0x3d0501ef	0.032472547
121	0x3d9ad4c3	0.07560112
122	0x3dbf6f9d	0.093474604
123	0xbd6e6156	-0.058198296
124	0x3c07540b	0.0082597835
125	0xbdcada63	-0.09904935
126	0x3c56dc3a	0.01311403
127	0x3cbd35f0	0.023097008
128	0x3c0f6972	0.008753167
129	0xb97ff393	-0.00024409434
130	0xbd0a9703	-0.033835422
131	0x3c2a63e5	0.010399793
132	0x3d4deb0e	0.050272994
133	0x3b010517	0.0019686872
134	0x3c189a3d	0.009314117
135	0xbcbe50a6	-0.023231816
136	0xbd5e67f1	-0.054298345
137	0xbba60c11	-0.0050673564
138	0x3e0abfba	0.135497
139	0x3d40da77	0.047083344
140	0x3c190f25	0.00934199
141	0xbd085585	-0.033284683
142	0xbd3d8934	-0.046273425
143	0xbd0177db	-0.031608444
144	0x3c1486ce	0.009065343
145	0x8000dfdf	-8.031e-41
146	0xbce316d3	-0.027720844
147	0xbcf86506	-0.03032161
148	0xbd1921a1	-0.037385587
149	0xbc9ba5b1	-0.018999906
150	0xbd490e3a	-0.049085833
151	0xbc30ceb6	-0.010791471
152	0xbc8642de	-0.016389307
153	0xbcb5412a	-0.0221258
154	0x3d118f79	0.035537217
155	0x3c3f379a	0.011670971
156	0xbb680e6c	-0.0035408987
157	0x3b827e9f	0.0039823796
158	0xbcc6d8fd	-0.02427339
159	0xbd6269d3	-0.055276703
160	0x3d7e5f5b	0.062102657
161	0x3c48ece0	0.012263507
162	0xbce7d0b6	-0.028297763
163	0xbdac724f	-0.0842024
164	0x3e06eaa2	0.13175443
165	0x3bcb1193	0.0061971634
166	0xbd4c266c	-0.04984133
167	0x3d1b3e38	0.037901133
168	0xbc819b00	-0.01582098
169	0xbd2d7e32	-0.042356677
170	0x3cb2308e	0.021751668
171	0xbcdaff06	-0.026732933
172	0x3b95ff26	0.004577535
173	0xbc03939b	-0.008030797
174	0xbcddb7b1	-0.02706513
175	0xbc304b18	-0.010760091
176	0xbd07807a	-0.03308151
177	0xbc68b3b1	-0.014202998
178	0x3d1e6ba8	0.038676888
179	0x3cd0c657	0.0254852
180	0x3d94ca34	0.0726513
181	0xbd4452f4	-0.047930673
182	0xbd144d4f	-0.03620654
183	0x3caf2577	0.02138017
184	0xbcf8b29c	-0.030358605
185	0xbd13fac9	-0.03612784
186	0x3cf0cf48	0.029395714
187	0xbcff9136	-0.031197172
188	0x3d0d7a00	0.034540176
189	0x3cc37d66	0.023863506
190	0x3cc68643	0.024233943
191	0x3c4f074c	0.012636017
192	0x3d9fdc18	0.078056514
193	0x3e0df2c1	0.13862135
194	0x3d4d179d	0.050071348
195	0xbd6f2ee7	-0.05839434
196	0x3da0cbc4	0.07851365
197	0xbc6c7f10	-0.014434591
198	0xbc7a5acb	-0.015280436
199	0x3d9240b6	0.07141249
200	0xbcafcbcb	-0.02145948
201	0x3c6b9a28	0.014380015
202	0x3deda2b5	0.116032995
203	0xbd8ed23d	-0.069736935
204	0x3d41271d	0.047156442
205	0x3a291c3d	0.0006451046
206	0x3b2d38ca	0.0026431554
207	0xbcef2e03	-0.029196745
208	0x3d946e80	0.07247639
209	0x80017b2e	-1.36024e-40
210	0x3d0ce8b8	0.034401625
211	0xbce3684f	-0.0277597
212	0x3d2649cd	0.040597726
213	0x3d4020c3	0.046906244
214	0xbcd51810	-0.02601245
215	0xbc8e189a	-0.017345715
216	0x3c50fc94	0.012755532
217	0x3bee57b3	0.007273638
218	0x3dd8f56b	0.10593685
219	0x3c8048c0	0.01565969
220	0xbcdb500f	-0.026771573
221	0xbbf08958	-0.0073405914
222	0x3c1a026a	0.00939999
223	0xbcec875b	-0.028873136
224	0x3d1f5a8f	0.038904723
225	0x3c94e0ad	0.01817354
226	0xbcad8eb5	-0.021186212
227	0x3e11fc8b	0.14256494
228	0x3d7a3c9d	0.06109296
229	0x3c94539c	0.018106274
230	0xbcac7e97	-0.021056456
231	0xbd35cc33	-0.044384193
232	0x3e12313e	0.14276597
233	0x3e0a160f	0.13484977
234	0xbda0c22f	-0.078495376
235	0xbcf3d328	-0.029763773
236	0xbd0ff722	-0.035147794
237	0xbcb3822b	-0.021912655
238	0xbcb38533	-0.0219141
239	0x3c28f4fe	0.010312317
240	0xbd4590ae	-0.04823368
241	0x3c46cf3d	0.01213437
242	0xbd8f1e79	-0.06988234
243	0xbc97b3fd	-0.018518442
244	0xbcf55ffe	-0.029953
245	0xbcb6b4f1	-0.022303076
246	0xbb427d37	-0.0029676685
247	0xbcf716d6	-0.030162256
248	0xbd511658	-0.0510467
249	0x3d7bfc9d	0.061520208
250	0x3d806d24	0.06270817
251	0x3d0dff50	0.034667313
252	0xbcd7b50e	-0.02633145
253	0xbcd2a0f5	-0.025711516
254	0x3d119e33	0.03555126
255	0x3dcde769	0.100539036

cell.weight_hh f4 [512, 128]
0	0x3cec35a8	0.028834179
1	0xbc719042	-0.014743866
2	0x3d44d0ac	0.048050568
3	0x3ce856c8	0.028361693
4	0xbc8674fc	-0.016413204
5	0x3d142d4f	0.036176022
6	0xbc04f143	-0.008114162
7	0xbd095efe	-0.033537857
8	0xbd86fb8a	-0.06590946
9	0xbda86d01	-0.08223916
10	0xbc657d99	-0.014006996
11	0xbd082af6	-0.033244096
12	0xbd344de9	-0.044019613
13	0x3ce57d3f	0.028013824
14	0xbd92b086	-0.071625754
15	0xbba08e2d	-0.004899761
16	0x3cc20e0e	0.023688342
17	0x3d01d067	0.03169289
18	0x3d4fe376	0.050754033
19	0xbc441067	-0.011966801
20	0x3c9fd50c	0.019510768
21	0x3da2150c	0.079141706
22	0x3d173379	0.036914323
23	0xbd166c95	-0.036724646
24	0xbd47a5df	-0.04874217
25	0xbb76e77a	-0.0037674592
26	0x3aa7e02a	0.0012807895
27	0x3d029cc4	0.031887785
28	0xbce43c6a	-0.027860839
29	0xbd0e8ab2	-0.03480024
30	0xbc4ddc49	-0.012564727
31	0x3ce865c9	0.028368847
32	0x3c98dfe6	0.01866145
33	0x3cee9a67	0.02912636
34	0xbc31d551	-0.010854081
35	0xbccb3895	-0.024807254
36	0xbbe41756	-0.0069607897
37	0x3d311a17	0.04323777
38	0xbb906e5b	-0.0044076866
39	0x3c00d92d	0.007864279
40	0x3d39c6cf	0.045355614
41	0x3d6decc6	0.058087133
42	0x3c7b644e	0.015343739
43	0xbc842a1f	-0.016133366
44	0x3c64f6c3	0.013974848
45	0xbd5cd246	-0.05391147
46	0x3d5ae92d	0.05344503
47	0xbc09cee6	-0.008411145
48	0xbcbb9442	-0.022897843
49	0x3d59cfea	0.053176798
50	0x3d9d9014	0.07693496
51	0xbd39274e	-0.0452035
52	0x3c94019b	0.018067172
53	0xbd14138f	-0.036151465
54	0x3ba5c670	0.005059056
55	0x3c5b6b8c	0.01339234
56	0x3c07e176	0.0082935
57	0x3d5f59f2	0.054529138
58	0xbd6af20b	-0.057359736
59	0x3ca90dbb	0.02063643
60	0xbc333ebd	-0.010940251
61	0xbddec015	-0.108764805
62	0x3c2d28d7	0.010568819
63	0x3cab0b7d	0.020879501
64	0xbd22635e	-0.039645545
65	0xbc411e3b	-0.011786993
66	0x3d6058b3	0.05477209
67	0x3c91ebf1	0.017812701
68	0xbd0c3008	-0.034225494
69	0x3c144159	0.009048783
70	0x3d2167d3	0.039405655
71	0x3d4b69c0	0.049661398
72	0x3aeea1ef	0.0018206219
73	0xbbc2f474	-0.0059495512
74	0x3ca0089d	0.019535357
75	0xbcec2bc1	-0.028829457
76	0x3cc10265	0.023560712
77	0xbd38d05f	-0.045120593
78	0xbd50e3c2	-0.050998457
79	0x3c8df1e4	0.017327257
80	0xbb387cdb	-0.0028150592
81	0xbca11f9c	-0.019668393
82	0xbd68fa56	-0.056879364
83	0x3d42d062	0.04756201
84	0xbccbae3d	-0.024863357
85	0x3d664d4a	0.056226052
86	0xbb530062	-0.0032196273
87	0x3d84a144	0.064760715
88	0x3c8f39e5	0.017483661
89	0x3cc2e1fd	0.0237894
90	0xbd16f7da	-0.036857463
91	0xbcc1ed50	-0.02367273
92	0x3d31e7bb	0.043433886
93	0x3a5a68a2	0.00083316315
94	0xbcfd99de	-0.030957159
95	0xbc80df0c	-0.015731357
96	0xbc8ea825	-0.017414162
97	0x3c17ac70	0.009257421
98	0xbbf0b6f3	-0.007346028
99	0x3b590329	0.0033113456
100	0x3c3e9f19	0.0116346115
101	0xbd79b16b	-0.060960215
102	0x3d810855	0.06300417
103	0xbc88acfb	-0.016684046
104	0x3d1938c9	0.03740767
105	0x3c819fb5	0.015823225
106	0xbd138fb0	-0.036025703
107	0x3cd3a302	0.025834564
108	0xbd8d252a	-0.06891854
109	0xbd6d5145	-0.057938833
110	0x3ad072a1	0.0015903303
111	0x3c82ef28	0.01598318
112	0x3d0607fb	0.032722455
113	0xbc8337c3	-0.0160178
114	0x3d1bee5e	0.03806912
115	0x3cd6df54	0.026229538
116	0x3ab1d854	0.0013568499
117	0x3c0805dc	0.008302178
118	0xbcb74f9c	-0.022376828
119	0xbd16ee72	-0.036848493
120	0x3d0ff801	0.035148624
121	0x3c3ce32c	0.011528771
122	0x3d5fc050	0.054626763
123	0xbc5c30b3	-0.013439345
124	0x3cb6e908	0.022327915
125	0x3d023357	0.031787243
126	0xbd568bd0	-0.05237943
127	0x3d4570ad	0.04820316
128	0x3d312c25	0.04325499
129	0xbd6efced	-0.058346678
130	0xbd6bce7b	-0.057569962
131	0xbc9dc4d3	-0.019258892
132	0xbd62e0ec	-0.055390283
133	0x3c84da70	0.01621744
134	0x3bcdcab9	0.00628027
135	0xbc6cd8fc	-0.01445603
136	0xbcf36487	-0.029711021
137	0xb9b2e6dd	-0.00034122812
138	0x3c41f28f	0.011837616
139	0xbd084e5b	-0.03327785
140	0xbc946abd	-0.018117303
141	0x3d21cafd	0.039500225
142	0xbd58929c	-0.052874193
143	0xbbd683a6	-0.0065464554
144	0x3ad03b86	0.001588688
145	0xbd0d8e97	-0.034559812
146	0x3d137b8a	0.036006488
147	0x3d22a9a1	0.039712552
148	0xbbf55e1f	-0.0074880267
149	0x3da9e2a0	0.082951784
150	0x3d95bb46	0.0731111
151	0xbcfef4be	-0.031122562
152	0xbae25255	-0.0017266968
153	0x3c514ba3	0.012774381
154	0x3d307361	0.043078784
155	0x3d702d68	0.058637053
156	0xbd26db49	-0.04073647
157	0xbd4b615c	-0.049653396
158	0x3c35e15c	0.011101093
159	0xbd2d8144	-0.042359605
160	0x3d99577a	0.07487388
161	0xbd1a6c7c	-0.037701115
162	0x3d832ca0	0.06404996
163	0x3c54f92d	0.012998861
164	0x3ca35a7c	0.019940607
165	0x3b08e2df	0.0020887179
166	0xbd44eb3a	-0.048075892
167	0xbd1896f2	-0.037253328
168	0x3c809a5d	0.015698606
169	0x3c698a45	0.014254157
170	0xbc6e0f6d	-0.014530045
171	0xbd52acde	-0.05143439
172	0x3cc093cd	0.023507977
173	0xbd068aa1	-0.03284705
174	0x3d207bc8	0.039180547
175	0x3b2a966a	0.0026029595
176	0xba778372	-0.0009441889
177	0xbd6f5ec0	-0.05843997
178	0x3d001408	0.031269103
179	0x3dd1c9bd	0.10243557
180	0xbc8b9fa1	-0.01704389
181	0xbbf15c66	-0.007365751
182	0x3cf3b185	0.029747734
183	0xbd9b39f5	-0.07579414
184	0x3d3930c4	0.045212522
185	0x3d50abd5	0.05094512
186	0xbda02b87	-0.07820802
187	0xbc2802f7	-0.010254613
188	0x3cad6654	0.021166958
189	0xbd9a1d3a	-0.07525106
190	0x3b070185	0.002060027
191	0xbc8449ea	-0.016148526
192	0x3c1c1b69	0.009528019
193	0x3c8c4b53	0.017125761
194	0xbb79d646	-0.0038122102
195	0x3d81ddfc	0.06341168
196	0x3acccf62	0.001562577
197	0x3d5930fb	0.053025227
198	0x3cf54932	0.029942129
199	0xbd676821	-0.05649579
200	0x3c56cb3a	0.013109976
201	0x3c32f362	0.010922285
202	0xbd2b38d5	-0.041802246
203	0xbc9f5b17	-0.019452615
204	0xbb5f0da8	-0.003403524
205	0xbd135794	-0.035972193
206	0xbc8653d0	-0.016397387
207	0x3c904a13	0.017613446
208	0x3b434c3c	0.0029800078
209	0x3b8c7ede	0.0042875847
210	0x3c4f73d2	0.012661891
211	0xbd5fffb7	-0.054687228
212	0x3ca9e47c	0.020738833
213	0x3b2f42ae	0.0026742625
214	0xbd5573f9	-0.052112553
215	0x3cc23c31	0.023710342
216	0x3ce69055	0.028144995
217	0xbc8f9d5d	-0.017531091
218	0x3d452e80	0.04814005
219	0xbd0e29a8	-0.034707695
220	0x3d3d3637	0.04619428
221	0xbd45acaa	-0.04826037
222	0xbbdd9ad6	-0.0067628426
223	0x3d150065	0.03637733
224	0x3c49e359	0.01232227
225	0xbc6031db	-0.0136837615
226	0xbc7a4228	-0.015274562
227	0xbcd834af	-0.026392309
228	0x3a6c4183	0.00090124476
229	0xbd8fcefd	-0.07021902
230	0x3bcdcc6b	0.006280472
231	0xbbfdaff5	-0.007741923
232	0xbc28c23d	-0.010300216
233	0x3ca438e7	0.020046664
234	0x3d3a2039	0.045440886
235	0x3c88706a	0.016655166
236	0x3cf035c8	0.02932252
237	0xbd10c9f3	-0.035348844
238	0xbd2071af	-0.039170917
239	0xbd4393e1	-0.04774845
240	0xbd0e8893	-0.034798216
241	0xbd7f25de	-0.062291972
242	0x3d6a4827	0.057197716
243	0x3b35a7d4	0.0027718442
244	0xbc8e58fa	-0.017376412
245	0x3c8d3bfe	0.01724052
246	0x3c4b91cd	0.012424898
247	0xbd1773ba	-0.0369756
248	0xbc3fb9b9	-0.011701995
249	0x3c8c4d9f	0.017126856
250	0x3d1973ab	0.037463825
251	0xbd9ff345	-0.07810072
252	0xbc759fc5	-0.014991705
253	0x3d04ae08	0.03239253
254	0xbd111c23	-0.035427224
255	0xbc9a2c2d	-0.018819893

cell.bias_ih f4 [512]
0	0x3dd44d05	0.10366253
1	0x3c2236a4	0.009900723
2	0xbd76b24a	-0.060228623
3	0x3da3ac3b	0.07991835
4	0x3d014f51	0.031569783
5	0x3ddbe816	0.10737626
6	0x3dbe8697	0.09303015
7	0xbd62298e	-0.05521541
8	0x3e53badd	0.20676751
9	0xbd54cbc4	-0.05195214
10	0x3cfd97be	0.030956145
11	0xbd02653d	-0.03183483
12	0x3d5206ad	0.051275898
13	0xbd28129a	-0.041033365
14	0xbca7a5c5	-0.020464787
15	0xbbad34db	-0.005285842
16	0x3cf591a3	0.029976672
17	0x3e02c2b0	0.1276958
18	0x3e0987da	0.1343073
19	0x3e7d3476	0.24727044
20	0x3b1d5e3b	0.0024012465
21	0x3db4319d	0.087985255
22	0x3e3029b1	0.17203404
23	0x3e49fa6b	0.19724433
24	0xbd131623	-0.035909783
25	0x3cc134aa	0.023584682
26	0x3d7068fa	0.058693863
27	0x3d514a6c	0.051096365
28	0x3db3a6cd	0.08772049
29	0x3db30bec	0.08742508
30	0x3c8652b1	0.016396852
31	0x3dea9333	0.11453857
32	0xbd745873	-0.059654664
33	0x3b77a95f	0.0037790162
34	0x3cb6c701	0.02231169
35	0xbd8392e7	-0.06424504
36	0x3b549204	0.0032435665
37	0x3e003342	0.12519553
38	0x3d398e97	0.045302
39	0xbd82a25e	-0.06378625
40	0x3dbd52a6	0.092442796
41	0x3e041e8d	0.12902279
42	0x3ddd41c4	0.108035594
43	0x3d10d54a	0.03535966
44	0x3d251f8c	0.04031329
45	0x3e08551b	0.13313715
46	0xbd1757ea	-0.036949076
47	0xbda8d813	-0.08244338
48	0x3da7e9aa	0.08198865
49	0x3d606f8e	0.054793887
50	0x3e00ec5b	0.12590162
51	0x3e53e84c	0.20694083
52	0xbd59d3c5	-0.053180475
53	0x3dd6b52e	0.10483776
54	0xbca5424b	-0.020173213
55	0x3ba78ae2	0.0051129917
56	0x3e1b1951	0.15146376
57	0xbc7a0631	-0.015260265
58	0x3e08ee74	0.13372213
59	0x3dd0152a	0.10160287
60	0x3e6740fc	0.22583383
61	0xbc53f5e9	-0.0129370475
62	0x3bb29999	0.005450439
63	0x3e4d6af2	0.20060328
64	0x3bf85334	0.007578278
65	0xbce1192b	-0.027477821
66	0xbcaa0d3a	-0.02075826
67	0xbbc72379	-0.0060772267
68	0x3dc03d43	0.09386685
69	0x3bc418f4	0.00598442
70	0x3d157540	0.03648877
71	0xbaa47af8	-0.0012548855
72	0x3d168670	0.036749303
73	0x3d95c247	0.07312446
74	0x3e99dee6	0.3005287
75	0x3df30bb4	0.118674666
76	0x3e37aa54	0.17936069
77	0xbd3158e6	-0.04329767
78	0xbd9d8288	-0.076909125
79	0x3dfee080	0.12445164
80	0xbc4b2b43	-0.012400451
81	0x3cf2e1c1	0.029648663
82	0x3d4d57d7	0.0501326
83	0x3e00f76e	0.12594387
84	0x3be6f101	0.007047773
85	0xbcf5e0ce	-0.030014422
86	0x3d5e7a1b	0.054315668
87	0x3cefcc5d	0.029272253
88	0x3d897cfe	0.067132935
89	0xba8bd917	-0.0010669556
90	0x3da88944	0.08229306
91	0x3e4b360e	0.19844839
92	0xbd913856	-0.07090823
93	0xbd134a48	-0.035959512
94	0x3e387aaa	0.18015543
95	0xbc5349b6	-0.012895992
96	0xbdb5f873	-0.088852786
97	0xbd39ef4f	-0.045394238
98	0x3ea1a76b	0.31573042
99	0x3b2ab443	0.0026047386
100	0x3d400dee	0.046888284
101	0x3d162b1d	0.03666221
102	0x3bf60904	0.007508399
103	0xbd69d055	-0.057083447
104	0x3e27489f	0.16336296
105	0x3d2d2dbe	0.04227995
106	0x3e945f05	0.28978744
107	0x3d6c4d1d	0.05769073
108	0x3e5b5cbb	0.21422093
109	0xbd961bb4	-0.07329503
110	0x3e008fec	0.12554902
111	0x3ca49256	0.02008931
112	0x3e060d5e	0.13091037
113	0x3d58ff9c	0.052978143
114	0x3ddc7b6b	0.107657276
115	0xbd123711	-0.035697047
116	0xbd94572f	-0.072431915
117	0x3c29e1d8	0.010368787
118	0x3dc98be1	0.09841133
119	0x3e1acf23	0.15118079
120	0x3d6a4aa2	0.05720008
121	0x3db78f53	0.08962884
122	0x3da7f53c	0.082010716
123	0x3e6383b3	0.22218208
124	0xbd8f2451	-0.06989349
125	0x3d3e34f3	0.046437215
126	0x3d19b1f5	0.03752323
127	0xbbc1bcda	-0.0059124054
128	0x3bdaf1ee	0.0066816723
129	0xbd8f87c0	-0.07008314
130	0x3bec3daf	0.0072095017
131	0xbbb27c2f	-0.0054469327
132	0xbd1c79ae	-0.03820198
133	0xbc25e1c9	-0.010124632
134	0x3d73fe8f	0.059568938
135	0x3ce2d4a1	0.02768928
136	0x3d32cd1a	0.04365263
137	0x3be9e8c4	0.0071383435
138	0xbd8bf639	-0.068340726
139	0xbcc275e5	-0.023737857
140	0xbccfd834	-0.025371648
141	0x3da42a6b	0.08015903
142	0x3d8e199c	0.06938478
143	0x3cfe626e	0.031052794
144	0x3d54b717	0.05193242
145	0xbc800f12	-0.015632186
146	0x3d35d4f9	0.04439256
147	0x3d919683	0.07108786
148	0xbd90e4fe	-0.07074927
149	0x3de0606a	0.109558895
150	0x3db04cf8	0.086084306
151	0xbd3cce09	-0.046094928
152	0x3d3b2a61	0.045694713
153	0xbd97b55a	-0.07407637
154	0x3cebcf6d	0.028785432
155	0x3d612252	0.05496437
156	0xbd82c0f7	-0.063844614
157	0x3b213771	0.0024599696
158	0xbd078652	-0.033087082
159	0xbd2c8034	-0.04211445
160	0xbcf3e66c	-0.02977296
161	0x3d892809	0.06697089
162	0xbd5b2b2a	-0.05350796
163	0x3bd5efa2	0.0065288106
164	0x3c3eee56	0.011653503
165	0x3d43ac39	0.047771666
166	0x3df4ec33	0.11959114
167	0xbcde72dc	-0.027154379
168	0xbd38c74e	-0.045111947
169	0x3be9395e	0.0071174344
170	0xbcfccc76	-0.030859213
171	0xbca3378c	-0.019923948
172	0x3d73318d	0.059373427
173	0xbd13c4de	-0.03607642
174	0xbdb2cd8a	-0.0873061
175	0xbc785d17	-0.015158913
176	0x3d9b8553	0.07593789
177	0x3d8fe130	0.07025373
178	0xbd8831b8	-0.06650108
179	0xbbf92906	-0.0076037673
180	0xbd959d97	-0.073054485
181	0x3d33638d	0.04379611
182	0xbcb4925c	-0.022042446
183	0xbd3f74e6	-0.046742342
184	0x3de22a42	0.11043216
185	0x3c9182d3	0.017762577
186	0x3d526232	0.051363178
187	0x3af96776	0.0019028026
188	0x3dcfb922	0.10142733
189	0x3cfad81b	0.030620625
190	0xbc79d073	-0.015247452
191	0x3d8c4402	0.06848909
192	0xbd05662d	-0.032568146
193	0xbd9292b0	-0.07156885
194	0x3c9857b9	0.018596517
195	0x3d99cfbf	0.075103275
196	0xbbde8c56	-0.0067916317
197	0xbcb68b5b	-0.022283247
198	0x3d8c7e97	0.068600826
199	0x3b2eb3f7	0.002665756
200	0x3d4c8b88	0.049937755
201	0xbd226688	-0.039648563
202	0x3d6d5e41	0.057951216
203	0x3cb6a58e	0.02229574
204	0xbcc6a6c9	-0.024249451
205	0xbdba2af1	-0.09090222
206	0x3d55408f	0.05206352
207	0xbdd114e6	-0.10209064
208	0x3d749cc8	0.05971983
209	0x3d038142	0.03210569
210	0xbd910839	-0.070816465
211	0xbdc15805	-0.094406165
212	0xbcc3b161	-0.023888292
213	0x3d001cb7	0.031277385
214	0x3d67608b	0.056488555
215	0x3d279609	0.04091457
216	0xbdaa634e	-0.08319722
217	0xbda83ace	-0.08214341
218	0xbcafcd0f	-0.021460084
219	0xba03aa08	-0.000502259
220	0x3d1fed4a	0.039044656
221	0xbd433e30	-0.04766673
222	0x3d448001	0.047973637
223	0xbd7ea1d8	-0.062166065
224	0x3ca4ca9b	0.020116141
225	0xbc19e219	-0.009392285
226	0x3e1aadda	0.15105382
227	0x3c66a689	0.014077791
228	0x3c088c7d	0.008334276
229	0x3cd1214d	0.025528574
230	0x3db38ab8	0.08766693
231	0xbd6dda8e	-0.058069758
232	0xbd3ceba2	-0.046123154
233	0x3ddf8a34	0.10915032
234	0x3d76684b	0.060158055
235	0x3dfd6505	0.123727836
236	0xbd05b38b	-0.03264193
237	0xbd5ea2a2	-0.054354317
238	0x3d2dc07d	0.0424199
239	0xbca586a6	-0.020205807
240	0x3da7938a	0.08182438
241	0x3d369113	0.044571947
242	0x3cf2db6f	0.02964565
243	0x3d12a6f6	0.035803758
244	0x3c9da472	0.019243453
245	0xbca04629	-0.019564705
246	0x3d485a4d	0.048914243
247	0xbd45f5b4	-0.048330024
248	0x3d12b385	0.035815734
249	0xbd163626	-0.036672734
250	0xbc0932dd	-0.008373943
251	0x3b2d5627	0.0026449056
252	0xbd00e122	-0.031464703
253	0xbd129826	-0.03578963
254	0xbd55a648	-0.05216053
255	0xbd917adb	-0.07103511

cell.bias_hh f4 [512]
0	0x3d86b62d	0.06577716
1	0x3e0b371c	0.13595241
2	0xbd5a5dc5	-0.05331208
3	0x3e14a80f	0.14517234
4	0x3db1c06f	0.08679282
5	0x3e32ad9a	0.17449036
6	0x3c8c2fbf	0.01711261
7	0xbd65b51f	-0.056080934
8	0x3e21730b	0.15766542
9	0x3c8fa577	0.017534954
10	0x3c9c898f	0.019108562
11	0xbdc39a60	-0.09550929
12	0xbc844567	-0.016146375
13	0xba9bcf88	-0.0011887411
14	0x3cec74fb	0.028864374
15	0xbc245844	-0.01003081
16	0xbd808edd	-0.06277249
17	0x3e1917c2	0.14950469
18	0x3db90c95	0.09035603
19	0x3e21f91c	0.15817684
20	0xbdabdc06	-0.083915755
21	0x3e36c1a1	0.17847301
22	0x3e29ad9d	0.16570134
23	0x3e007139	0.12543191
24	0xbd84185e	-0.0644996
25	0xbd9d4201	-0.07678605
26	0x3d923512	0.071390286
27	0x3b4bf425	0.0031120863
28	0x3d083073	0.03324933
29	0x3d92b085	0.07162575
30	0x3d54b2e7	0.051928427
31	0x3e50532f	0.20344232
32	0x3d35e2cc	0.044405743
33	0xbd8b8d4b	-0.06814059
34	0x3db72afa	0.08943744
35	0xbd989f74	-0.07452288
36	0xbca11c15	-0.01966671
37	0x3e4fcd28	0.20293105
38	0x3d87f110	0.06637776
39	0x3cd97f2a	0.026549894
40	0x3d6f9b1d	0.058497537
41	0xbba8ee03	-0.0051553263
42	0x3da9bf10	0.082883954
43	0x3dcac9a0	0.09901738
44	0x3ddfdbdc	0.10930607
45	0x3e0cac63	0.13737635
46	0x3d7c8175	0.061646897
47	0x3ba3fad5	0.0050042667
48	0x3e2e805f	0.17041157
49	0x3e13370c	0.14376467
50	0x3b635ebb	0.0034693915
51	0x3e27dca0	0.16392756
52	0xbd95019a	-0.07275696
53	0x3e10699a	0.14102784
54	0x3d690964	0.05689372
55	0x3cc6389e	0.024196919
56	0x3e5eeee1	0.21770813
57	0xbd3f6b2c	-0.046733066
58	0x3d284d5a	0.041089393
59	0x3de7ba5a	0.113148406
60	0x3e4031f2	0.18769053
61	0x3d2b9bd2	0.04189665
62	0x3bf3ee69	0.007444192
63	0x3e43181e	0.19052169
64	0xbcf89263	-0.03034324
65	0x3d90f150	0.07077277
66	0xbd62db22	-0.055384763
67	0x3de971ae	0.11398636
68	0xbd56807c	-0.052368626
69	0x3cbe29ad	0.023213232
70	0x3c2dcdd3	0.010608154
71	0xbc55b7a6	-0.0130442735
72	0x3de0d57c	0.10978219
73	0xbd8707b5	-0.06593267
74	0x3ea02fda	0.31286508
75	0x3e63a35c	0.22230285
76	0x3e0ffab2	0.14060476
77	0xbd8913af	-0.066932075
78	0xbd8aa9ae	-0.06770645
79	0x3d94e558	0.07270306
80	0x3ddd136d	0.10794721
81	0xbcfcc6ef	-0.030856578
82	0x3d708069	0.05871621
83	0xbc052378	-0.008126132
84	0x3d68563c	0.056722865
85	0x3d000718	0.031256765
86	0xbd983879	-0.07432646
87	0x3cf5fb1e	0.030026969
88	0x3e01314e	0.12616464
89	0x3beb78c0	0.0071860254
90	0x3cbd268b	0.023089668
91	0x3dfb3737	0.12266391
92	0xbd8b5c0f	-0.06804668
93	0xbb5a3461	-0.003329538
94	0x3df97820	0.12181115
95	0xbc93fe8a	-0.01806571
96	0x3caf1dfb	0.0213766
97	0x3d162205	0.036653537
98	0x3e63085b	0.22171156
99	0x3e081586	0.1328946
100	0xbd4a543a	-0.04939673
101	0x3d8cb6ef	0.06870829
102	0x3e119879	0.1421832
103	0xbbd0ef95	-0.0063762167
104	0x3e3177b5	0.17330821
105	0x3dc229cb	0.094806276
106	0x3e35fd73	0.17772464
107	0x3dbceea4	0.092252046
108	0x3e40ae9c	0.18816608
109	0xbcca1523	-0.024668282
110	0x3db3d96d	0.08781705
111	0x3d7e4a67	0.062082674
112	0x3ddd465f	0.10804438
113	0x3d978ac8	0.07399517
114	0x3def0be6	0.11672191
115	0xbd68581d	-0.056724656
116	0xbb2f2580	-0.0026725233
117	0x3d58cc7f	0.052929398
118	0x3e432788	0.19058049
119	0x3e18270d	0.14858647
120	0x3c4daadb	0.012552942
121	0x3d68e1c2	0.056855924
122	0x3d86b04f	0.06576597
123	0x3e158344	0.14600855
124	0xbb9734c1	-0.004614443
125	0x3d33daa5	0.043909688
126	0x3db1210b	0.086488806
127	0xbd693f5b	-0.056945186
128	0xbda0df5f	-0.07855105
129	0xbbd91d44	-0.006625803
130	0x3d7d1940	0.06179166
131	0xbcf6de08	-0.03013517
132	0x3d123ccc	0.03570251
133	0x3c558607	0.013032443
134	0xbc95326b	-0.018212518
135	0xbc8eeedd	-0.017447883
136	0x3d80923d	0.06277893
137	0xbd0615ab	-0.032735508
138	0x3d148235	0.036256988
139	0xbd5191ca	-0.051164426
140	0xbd7df26d	-0.061998773
141	0xbb17f8e3	-0.002318912
142	0x3d872edd	0.06600735
143	0xbd612d76	-0.054974996
144	0xbd0254b7	-0.03181907
145	0xbd5e3364	-0.05424823
146	0xbd6e3c0d	-0.058162738
147	0x3d345cbc	0.04403375
148	0x3d3b130c	0.04567246
149	0x3d8d5959	0.06901807
150	0x3ba527d8	0.00504015
151	0xbbe4aa1e	-0.0069782874
152	0xbbf3bfc0	-0.00743863
153	0xbd9068a9	-0.07051212
154	0x3cea5f6b	0.028609952
155	0xbd834987	-0.064105086
156	0x3d1a7536	0.037709437
157	0x3be3520a	0.00693727
158	0xbd3fcf1a	-0.046828367
159	0x3d005174	0.03132768
160	0x3d82ff18	0.063963115
161	0xbcc89257	-0.024483843
162	0xbd99ac52	-0.075035706
163	0xbadf46dc	-0.0017034668
164	0xbcda2678	-0.026629671
165	0x3d9b6307	0.07587247
166	0x3a73c140	0.0009298511
167	0x3d778900	0.060433388
168	0x3adeb5fc	0.0016991491
169	0x3d1576a8	0.036490113
170	0x3dcae8e4	0.099077016
171	0xbd8760f5	-0.0661029
172	0x3db037a6	0.08604364
173	0x3cf86330	0.030320734
174	0x3d772199	0.060334776
175	0x3c630064	0.013855074
176	0xbd07fbda	-0.03319917
177	0xbd5f9708	-0.054587394
178	0xbd5d4fc4	-0.05403115
179	0x3de0cc58	0.109764755
180	0x3cdff054	0.027336277
181	0x3d18130e	0.037127547
182	0xbd876793	-0.06611552
183	0xbd3c7bcb	-0.046016496
184	0x3d72d158	0.059281677
185	0x3d7569ec	0.059915468
186	0x3c801699	0.015635775
187	0xbcf20c08	-0.029546753
188	0xbc49cba6	-0.01231662
189	0x3c27318b	0.010204683
190	0xbc6c1ac6	-0.01441068
191	0x3c3d93d9	0.011570894
192	0xbd56733f	-0.052356
193	0x3d81815f	0.06323504
194	0x3d253571	0.04033417
195	0x3c9a2ac2	0.018819217
196	0x3d352e9c	0.044233903
197	0x3cb55667	0.022135926
198	0xbd8f4bb5	-0.06996862
199	0xbd761a00	-0.06008339
200	0xbd3519d4	-0.044214085
201	0x3d14fc61	0.0363735
202	0x3db48a7b	0.088154756
203	0x3c0d68b5	0.008630921
204	0xbdc2d95c	-0.09514114
205	0xbd38d1f4	-0.045122102
206	0x3c523190	0.012829199
207	0x3d1c6f46	0.038192056
208	0x3da661e9	0.08124144
209	0xbd1edb31	-0.038783256
210	0xbc50843c	-0.01272684
211	0xbdb65109	-0.08902175
212	0x3d521a51	0.05129463
213	0x3d2217c2	0.03957344
214	0x3dbb26b7	0.09138244
215	0x3d8d397b	0.06895729
216	0x3d065ea3	0.032805096
217	0x3d451cc8	0.04812315
218	0xbd11d2c6	-0.0356014
219	0x3d2f82cc	0.042849347
220	0x3cee80c8	0.029114142
221	0xbd81f032	-0.06344642
222	0x3ce79eaa	0.0282739
223	0xbd8b8077	-0.06811612
224	0xbd467f25	-0.0484611
225	0xbd114ab7	-0.035471644
226	0x3e0c8cc2	0.1372557
227	0xbccaacda	-0.024740625
228	0x3bb75ebe	0.005596011
229	0x3d69b170	0.057053983
230	0x3d94826d	0.07251439
231	0xba3fd38f	-0.00073175965
232	0x3d990108	0.074709
233	0x3d09e295	0.03366335
234	0x3d01cf45	0.03169181
235	0x3d698e0a	0.057020225
236	0x3c2251dc	0.009907212
237	0xbd803874	-0.062607676
238	0x3d19e710	0.037573874
239	0xbd2f6e3b	-0.042829733
240	0xbc9436d2	-0.018092547
241	0xbd62ac62	-0.05534018
242	0x3cf14445	0.029451499
243	0xbaea316c	-0.0017867512
244	0xbc629430	-0.013829276
245	0xbda7c7c7	-0.081924014
246	0x3da32b75	0.07967273
247	0x3cbde8cf	0.0231823
248	0xbcca5164	-0.024697013
249	0xbcc42b99	-0.02394657
250	0x3cf44254	0.029816784
251	0xbca198c2	-0.01972616
252	0x3b90fbe5	0.0044245594
253	0x3c3d6ae9	0.011561134
254	0x3dc86df2	0.097865954
255	0xbd4cff57	-0.0500482

input_embedding_layer.weight f4 [64, 2]
0	0x3ebf2126	0.37329978
1	0xbd78a0a7	-0.060700085
2	0x3f251ddb	0.6449868
3	0xbed6b523	-0.4193507
4	0xbd35518c	-0.044267222
5	0x3f0ff3e9	0.5623155
6	0xbf1f43f1	-0.62213045
7	0x3def0113	0.11670127
8	0x3ebcf59f	0.36906144
9	0x3f003b0b	0.5009009
10	0xbf038d22	-0.51387227
11	0xbf03b4b8	-0.5144763
12	0x3eb6a4a2	0.3567248
13	0xbf300f35	-0.68773204
14	0x3c908ff3	0.017646765
15	0x3ed8120c	0.4220127
16	0x3ed54b94	0.41659224
17	0x3f3b8258	0.73245764
18	0xbf1c9456	-0.6116384
19	0xbe93fac9	-0.2890227
20	0xbdf757eb	-0.12077316
21	0xbee47d7d	-0.4462699
22	0xbe871d0f	-0.26389357
23	0x3f162660	0.58652306
24	0xbf275ba9	-0.6537424
25	0x3f0ce7e4	0.55041337
26	0xbf2b7043	-0.6696817
27	0xbee2fa0c	-0.44331396
28	0x3e52a92e	0.2057235
29	0x3f1a402b	0.6025416
30	0x3e9338ce	0.28754276
31	0x3f04d920	0.51893806
32	0x3cd06200	0.025437355
33	0xbe975197	-0.29554436
34	0x00016b50	1.30332e-40
35	0x00013d6e	1.13872e-40
36	0xbbe38460	-0.0069432706
37	0xbf2de84b	-0.67932576
38	0xbeab8edb	-0.33507428
39	0x3e8b9fc3	0.27270326
40	0x3ef445b2	0.47709423
41	0x3e062d3d	0.13103195
42	0x3f044796	0.5167173
43	0xbd90886f	-0.07057273
44	0x3effe47c	0.49979007
45	0x3ef93aba	0.48677617
46	0xbebd28af	-0.36945102
47	0x3e220d8b	0.15825479
48	0x3ef0c193	0.47022685
49	0xbeb17f6c	-0.34667528
50	0xbf11af39	-0.56907994
51	0xbd333b2c	-0.043757603
52	0x3e8bb4b5	0.27286306
53	0x3dc1a751	0.09455741
54	0x3f3e46c0	0.74326706
55	0x3eebcfbc	0.46056926
56	0xbe7184b2	-0.23585775
57	0xbf47b932	-0.7801696
58	0xbd547aaf	-0.051874813
59	0xbf4557e0	-0.7708721
60	0x3eb4f1fa	0.35340863
61	0xbeac0155	-0.33594766
62	0xbc07f34a	-0.008297751
63	0x3f492110	0.78566074
64	0xbe4d3bcf	-0.20042346
65	0xbf4a6800	-0.7906494
66	0xbdb42bec	-0.0879744
67	0xbf2064c7	-0.62653774
68	0xbf0f3556	-0.5594076
69	0xbc5c5242	-0.013447346
70	0x3f423e9c	0.75876784
71	0x3eba2a53	0.36360416
72	0xbe84a23c	-0.25905025
73	0xbf2bcfc6	-0.6711391
74	0xbf07ca1a	-0.5304276
75	0xbf2a5658	-0.66538
76	0xbe87ef8a	-0.2654994
77	0xbf3c3d1c	-0.73530746
78	0xbe8688ba	-0.2627619
79	0x3e21b495	0.15791543
80	0x3e8949a1	0.26813987
81	0xbeaaf475	-0.3338963
82	0x3f055919	0.5208908
83	0x3d1ed2d2	0.038775273
84	0xbee68cb9	-0.45029238
85	0x3ebd627c	0.369892
86	0xbeeca561	-0.46219924
87	0x3f4a64ab	0.7905986
88	0xbf3f286c	-0.74671054
89	0xbeeead1b	-0.46616444
90	0xbb51062d	-0.003189455
91	0xbed07d9f	-0.4072084
92	0xbf153709	-0.582871
93	0x3f3170b1	0.6931258
94	0x3c09dcd8	0.00841447
95	0xbf1fb4d1	-0.6238528
96	0xbefeec2c	-0.4978956
97	0xbeb3f865	-0.35150447
98	0x3edf1930	0.43573904
99	0xbe4a9c47	-0.19786178
100	0xbe9b42d7	-0.30324432
101	0xbcc80657	-0.024417086
102	0xbe9e713c	-0.30945766
103	0xbf023a4a	-0.5087019
104	0xbe15fd01	-0.14647295
105	0x3f2ef574	0.6834328
106	0x3e3c7516	0.1840404
107	0xbef94ebb	-0.4869288
108	0x3e42652c	0.18983907
109	0xbefdbb97	-0.49557182
110	0x3c9897cd	0.018627072
111	0xbf12f569	-0.57405716
112	0xbf1074c6	-0.5642818
113	0x3e4bf944	0.19919306
114	0x3db792b3	0.089635275
115	0xbccb716d	-0.024834359
116	0xbf0b6660	-0.54453087
117	0x3e27114d	0.16315193
118	0x3ec4fc34	0.38473666
119	0xbd219c82	-0.039455898
120	0xbde315b1	-0.11088122
121	0xbf02dd91	-0.51119334
122	0xbdb6da0d	-0.08928309
123	0x3f53786c	0.82605624
124	0x3e59b946	0.21262082
125	0x3e2f6c60	0.17131186
126	0x3f33ec04	0.70282006
127	0x3e72c2c1	0.23707105

input_embedding_layer.bias f4 [64]
0	0x3d2436a6	0.04009118
1	0x3e053618	0.13008916
2	0x3e18e0ae	0.14929458
3	0x37899ad9	1.640378e-05
4	0x3e8b9de8	0.2726891
5	0xbe5dc020	-0.21655321
6	0x3a9904b9	0.0011674381
7	0x3e3a778b	0.18209665
8	0xbc9adc26	-0.018903803
9	0x3cd30cb7	0.025762899
10	0x3f0f40e2	0.5595838
11	0x3ee2cd9d	0.44297495
12	0x3817eecc	3.6223602e-05
13	0xba98455a	-0.0011617348
14	0x3f28780c	0.65808177
15	0x3817aba5	3.6161062e-05
16	0x3ea79cfb	0.32736954
17	0xb9e9196d	-0.00044460167
18	0x3d6536f4	0.05596061
19	0x3cc19c06	0.023633968
20	0x3ba6b2a2	0.0050872127
21	0x3bcf77c4	0.006331416
22	0xbb1b0c88	-0.0023658592
23	0xbee7c160	-0.4526472
24	0xb93eb135	-0.00018185827
25	0xbef947e8	-0.48687673
26	0x3f311cb0	0.691844
27	0x3f2bf06c	0.6716373
28	0xbcc85487	-0.024454368
29	0x3c47fb21	0.01220587
30	0xbebd2e14	-0.36949217
31	0xbb97f3f6	-0.0046372367
32	0x3e39b44c	0.18135184
33	0x3da252cc	0.079259485
34	0xbd8e4891	-0.06947435
35	0x3f037df4	0.51364064
36	0x3ea72847	0.32647917
37	0x3c47bcb3	0.0121909855
38	0xbe7360c4	-0.23767382
39	0x3f35dfe0	0.7104473
40	0x3edb6263	0.428485
41	0x3ef566d7	0.47930023
42	0x3ef00ec9	0.4688628
43	0xbef0208f	-0.4689984
44	0x3ef72382	0.48269278
45	0x3c6a3147	0.014293975
46	0xbe77d6bd	-0.2420301
47	0x3e05156d	0.12996455
48	0x3bdd7366	0.0067581413
49	0xbea500cb	-0.32227167
50	0x3c452d2c	0.012034696
51	0xbedf49ad	-0.43610898
52	0xbedbc987	-0.4292719
53	0x3b0ff05e	0.0021963338
54	0xbe2ffecd	-0.17187043
55	0x3c77aca7	0.015116847
56	0x3f145112	0.57936203
57	0x3f0772c7	0.5290951
58	0x3f025759	0.5091453
59	0x3aef26e1	0.001824584
60	0xbee0e778	-0.43926597
61	0xbe47f23f	-0.19526003
62	0x3d68b641	0.056814436
63	0x3f00dc04	0.5033572

output_layer.weight f4 [5, 128]
0	0xbbefc09e	-0.007316663
1	0xbd1fd144	-0.03901793
2	0x3d1d2d19	0.038373087
3	0x3c5c13e6	0.0134324785
4	0xbe07dc26	-0.13267574
5	0x3d64355b	0.055714946
6	0x3c522c4d	0.012827945
7	0xbd5c4ed2	-0.053786106
8	0xbd9d05e6	-0.07667141
9	0xbdbf7ea9	-0.093503304
10	0xbe8a2c77	-0.2698705
11	0x3e4d7a68	0.20066226
12	0xbda7630f	-0.08173191
13	0xbd3602a6	-0.04443612
14	0x3cd15df8	0.025557503
15	0x3e7e94d9	0.24861468
16	0xbe33ab2b	-0.17545764
17	0xbe5b1fb0	-0.21398807
18	0xbc567d17	-0.013091347
19	0xbda00621	-0.07813669
20	0x3e54935d	0.2075934
21	0xbda8ef91	-0.08248819
22	0x3c4b21df	0.012398212
23	0xbd35330f	-0.044238146
24	0xbe4fc0b9	-0.20288362
25	0xbda965a4	-0.082713395
26	0xbe3abb78	-0.18235576
27	0xbda1684a	-0.0788122
28	0x3bb08091	0.00538642
29	0xbde7d389	-0.11319644
30	0xbe8498e6	-0.25897902
31	0x3c2cee29	0.010554829
32	0xbcc09c54	-0.023512043
33	0x3e3e70d7	0.18597732
34	0xbdbd4b39	-0.09242863
35	0xbdd47570	-0.10373962
36	0xbe1da57c	-0.15395159
37	0x3c921341	0.017831447
38	0xbdcd6d43	-0.10030606
39	0xbd04184e	-0.03224974
40	0x3df9709f	0.12179684
41	0xbdee44c6	-0.11634211
42	0xbdcb85bf	-0.099376194
43	0x3e470153	0.19434099
44	0xbb5f2a92	-0.0034052473
45	0x3d912c5e	0.070885405
46	0x3db42e66	0.08797912
47	0x3e081dda	0.13292637
48	0xbc56c238	-0.013107829
49	0xbbcbe959	-0.0062228856
50	0x3cf704f5	0.03015373
51	0xbdb448b2	-0.08802928
52	0xbdb8d7da	-0.090255454
53	0xbd072bac	-0.033000633
54	0x3d5d706a	0.054062285
55	0xbd8e0e1b	-0.06936284
56	0xbcabd87e	-0.020977255
57	0x3e4f3f20	0.20238924
58	0x3dbf9801	0.09355164
59	0x3c9418f4	0.018078305
60	0x3bd430e1	0.0064755534
61	0xbd84e3ad	-0.06488738
62	0xbe2575b4	-0.16158181
63	0xbda15831	-0.07878149
64	0x3deef41a	0.116676524
65	0xbd35ecbd	-0.044415224
66	0xbc81fc83	-0.015867477
67	0x3c5816eb	0.013189058
68	0x3dc81f98	0.09771651
69	0xbe1f092b	-0.15530841
70	0xbdc11437	-0.09427684
71	0x3cda8106	0.026672851
72	0x3d51fa08	0.05126384
73	0x3d6ede2a	0.05831734
74	0x3cbc517f	0.02298808
75	0x3c7518b7	0.014959506
76	0x3d3bf9fc	0.0458927
77	0x3cb7ef73	0.022453045
78	0x3e6e1759	0.23251094
79	0xbdf06771	-0.1173848
80	0xbd781db3	-0.0605752
81	0xbdd6f05c	-0.10495064
82	0x3d198e09	0.03748897
83	0x3d29a152	0.041413613
84	0x3e59d5dd	0.21272989
85	0xbe18b02e	-0.14910957
86	0x3e489245	0.19587047
87	0xbe10bbb4	-0.14134103
88	0xbca1a7fc	-0.019733422
89	0xbdaa743d	-0.08322952
90	0x3cc0cbc0	0.023534656
91	0x3c046477	0.008080593
92	0x3c56d8cb	0.013113211
93	0x3b1ff50d	0.0024407536
94	0x3aab499c	0.0013068202
95	0x3dac42ad	0.08411155
96	0xbb0554af	-0.0020344665
97	0x3d43496c	0.047677442
98	0xbd347911	-0.04406077
99	0xbda66a04	-0.081256896
100	0x3d89bb42	0.0672517
101	0x3c009b4a	0.007849524
102	0x3dd7306b	0.10507282
103	0xbe399e29	-0.1812674
104	0x3d4f9365	0.050677676
105	0xbdd5a768	-0.10432321
106	0x3c130c03	0.008975032
107	0x3caba9d0	0.020954996
108	0x3e00bcf4	0.1257208
109	0xbe100b7a	-0.14066878
110	0x3d258d8c	0.040418193
111	0x3e2b2e15	0.16716798
112	0xbdef209f	-0.11676144
113	0x3e2e376c	0.1701333
114	0x3d6f4ea5	0.05842461
115	0x3e2edc55	0.17076237
116	0x3c6be77a	0.01439845
117	0x3dbc4508	0.09192854
118	0xbdf92d4c	-0.12166843
119	0x3dde1fba	0.10845895
120	0xbdfde43d	-0.123970486
121	0x3dc9185a	0.09819098
122	0xbd24a21b	-0.04019366
123	0x3ae9a56d	0.001782579
124	0x3e37baaf	0.17942308
125	0x3c110e8a	0.008853564
126	0x3dc6c40e	0.09705363
127	0x3dcffe07	0.10155874
128	0x3deaf612	0.114727154
129	0xbd316554	-0.043309525
130	0x3d97871e	0.073988184
131	0x3aaa0bd6	0.0012973498
132	0x3dcdda2a	0.10051377
133	0xbc469647	-0.01212079
134	0x3e11c07c	0.14233583
135	0xbe613e61	-0.21996452
136	0x3b62c218	0.0034600552
137	0xbca7fe49	-0.020506995
138	0xbd0849a1	-0.033273343
139	0xbdeff697	-0.11716955
140	0x3ddd20fd	0.10797308
141	0xbdd6aa42	-0.10481693
142	0x3da621a6	0.08111887
143	0xbde2a674	-0.11066905
144	0x3e159c36	0.14610371
145	0x3dfa9f7f	0.12237453
146	0x3ce65287	0.028115524
147	0xbc870168	-0.016480163
148	0xbda8a7f1	-0.08235157
149	0xbd87bece	-0.0662819
150	0x3d39f5e7	0.045400526
151	0x3ae8b38d	0.0017753706
152	0x3dbdbd20	0.09264588
153	0x3dd1422d	0.102177
154	0xbd1cfb83	-0.038325798
155	0xbe02b107	-0.12762843
156	0xbe0fda28	-0.14048064
157	0x3d66b2f5	0.05632301
158	0x3de70d47	0.11281829
159	0x3c601429	0.013676682
160	0xbe0a8fcb	-0.13531415
161	0xbe1321c0	-0.14368343
162	0x3de7a0b6	0.1130995
163	0xbce6b366	-0.028161716
164	0x3d846301	0.06464196
165	0x3cdcb6ce	0.026942637
166	0xbd13ee1d	-0.036115754
167	0x3e0cd0a3	0.13751464
168	0x3e17e95c	0.14835113
169	0xbb02390b	-0.0019870426
170	0xbd9761a1	-0.07391668
171	0xbda8b337	-0.082373075
172	0xbe0405e1	-0.12892868
173	0xbbe634c9	-0.0070253354
174	0xba82531c	-0.0009942981
175	0x3cc0cdf2	0.023535702
176	0xbd60cafe	-0.05488109
177	0x3d390c60	0.045177817
178	0x3d95ffcf	0.07324182
179	0x3ceefb9b	0.02917271
180	0x3e693a39	0.22776116
181	0x3d80c780	0.062880516
182	0xbcc3de22	-0.023909632
183	0xbde46d57	-0.111536674
184	0xbc44eefc	-0.012019869
185	0xbe1adf0b	-0.15124147
186	0xbd21e298	-0.039522737
187	0xbc9f46e3	-0.019442981
188	0xbdecac55	-0.11556307
189	0xbe0f93ef	-0.14021276
190	0xbba8c843	-0.005150826
191	0xbd02e717	-0.031958666
192	0x3d70a42a	0.05875031
193	0xbdaf0d4a	-0.085474566
194	0x3e4bf2a1	0.19916774
195	0x3d5eccd4	0.054394558
196	0xbdddf4aa	-0.108376816
197	0x3d270b05	0.040781993
198	0xbda5d5ff	-0.08097457
199	0x3da3930c	0.07987031
200	0x3dd262ca	0.10272749
201	0x3dcef282	0.101048484
202	0xbd08a963	-0.033364665
203	0xbdb93d58	-0.090449035
204	0x3c34e7cd	0.011041594
205	0xbde46af3	-0.111532114
206	0xbd04c1ca	-0.032411374
207	0xbd6dbcc2	-0.05804134
208	0x3cad8054	0.021179356
209	0x3d652943	0.055947553
210	0x3de411de	0.111362204
211	0xbda7b771	-0.081892855
212	0xbd2dda0a	-0.042444266
213	0xbd84da5e	-0.06486963
214	0xbb6cc0ae	-0.0036125588
215	0x3d6dbc0d	0.058040667
216	0xbda926d6	-0.082593605
217	0x3e1f1c78	0.15538204
218	0x3d992b47	0.074789576
219	0xbd545a51	-0.051843945
220	0xbdf4d546	-0.11954741
221	0x3d047749	0.03234032
222	0xbda2175d	-0.079146124
223	0xbdec7b97	-0.115470104
224	0xbe248ec2	-0.16070083
225	0x3e292573	0.16518192
226	0x3c19d94b	0.009390186
227	0x3b447a76	0.002998022
228	0x3da9dbee	0.082939014
229	0x3dd20f58	0.10256833
230	0x3db3048e	0.08741103
231	0x3d39e6dc	0.04538618
232	0xbc119741	-0.008886159
233	0xbd3fbb1d	-0.046809305
234	0x3cd7253a	0.026262868
235	0x3d4e2b58	0.050334305
236	0xbc5b306d	-0.013378245
237	0x3e056d44	0.13029963
238	0x3c8fd998	0.017559811
239	0xbcf1b311	-0.02950433
240	0x3dc14c49	0.09438378
241	0xbe0ca317	-0.13734089
242	0xbd3bf4b9	-0.045887683
243	0x3d8fae1b	0.0701563
244	0xbddee631	-0.10883749
245	0xbd8aca89	-0.06776912
246	0xbcf6d0a2	-0.03012878
247	0xbbc4ece9	-0.006009687
248	0x3de03ae4	0.109487325
249	0x3d4c249d	0.049839605
250	0x3c3f2f05	0.011668925
251	0xbcba427d	-0.022736782
252	0x3db149eb	0.08656677
253	0x3c7e7ecd	0.015533161
254	0x3defd93f	0.11711358
255	0x3e0936c1	0.13399793

output_layer.bias f4 [5]
0	0xbd090480	-0.033451557
1	0x3c8169da	0.015797544
2	0xbda827f0	-0.082107425
3	0xbd959994	-0.07304683
4	0x3d92b482	0.071633354

sum f4 [512, 64]
0	0x3ed551f6	0.41664094
1	0x3fa522f3	1.2901291
2	0x3f028796	0.5098814
3	0x3fe6c32b	1.802831
4	0x3f4734c0	0.77814865
5	0x3f3e165b	0.7425286
6	0x3ec5336a	0.38515788
7	0x3eb72ecd	0.35777894
8	0x3f571420	0.84015083
9	0x3ffc82ee	1.9727457
10	0x3f818e15	1.0121485
11	0x3fd32ba9	1.6497699
12	0x403e37a5	2.9721463
13	0x3fa1a33c	1.262794
14	0x3febcce9	1.8421909
15	0x3ed7b27d	0.42128363
16	0x3e9db7ba	0.30804235
17	0x316a3c58	3.4085783e-09
18	0x3da380e6	0.0798357
19	0x3f3093be	0.68975437
20	0x3f0c50c6	0.5481075
21	0x3f1d964d	0.61557466
22	0x3f448ef1	0.7678061
23	0x3e8daec0	0.27672386
24	0x3f1be32f	0.6089353
25	0x3f409ca2	0.75239
26	0x3fd94455	1.6973978
27	0x407caede	3.948173
28	0x3e42b5dc	0.19014686
29	0x3d76470c	0.06012635
30	0x3e4673f8	0.19380176
31	0x3f941761	1.1569635
32	0x3ebac85f	0.36480996
33	0x3ddea633	0.10871544
34	0x3f92e70e	1.1476762
35	0x40266ea1	2.6005023
36	0x3f42802b	0.7597682
37	0x3f547299	0.8298736
38	0x3e0d1aae	0.13779709
39	0x3fffeb9f	1.9993781
40	0x3f584b62	0.84490025
41	0x3fc77fcb	1.5585874
42	0x40084904	2.1294565
43	0x3fd6aac5	1.6770865
44	0x408501c6	4.1564665
45	0x3ca555be	0.020182487
46	0x4007dbd7	2.122793
47	0x3dfe9df8	0.12432474
48	0x3f2fb78d	0.6863945
49	0x3ea9857b	0.3310965
50	0x3ea8932e	0.3292479
51	0x3e1570bb	0.14593785
52	0x3f0bd445	0.5462077
53	0x3debc33c	0.115118474
54	0x3d9e961e	0.07743476
55	0x3d32fc6e	0.043697767
56	0x4022805b	2.5390842
57	0x3f249c91	0.643014
58	0x402850d6	2.6299338
59	0x3ec405fb	0.38285813
60	0x3b672cd5	0.0035274525
61	0x3f82eafa	1.0227959
62	0x3e08f593	0.13374929
63	0x402441a6	2.5665069
64	0x3c84625a	0.016160179
65	0x3dafb9d5	0.085803665
66	0x3f160688	0.58603716
67	0x3e8deb1f	0.27718446
68	0x3ebad6c6	0.36491984
69	0x3cbf2ee2	0.023337785
70	0x3d604f1e	0.054762952
71	0x3ea3540e	0.31900066
72	0x3ecb40bf	0.39697835
73	0x3dc810ce	0.0976883
74	0x3e18c238	0.14917839
75	0x3f838fb4	1.027823
76	0x3f8ff26b	1.1245855
77	0x3d8aa396	0.06769483
78	0x3f64eeae	0.89426696
79	0x3e5cf0c1	0.21576215
80	0x3d6fa051	0.0585025
81	0x2e247f4d	3.740235e-11
82	0x3d4e3706	0.050345443
83	0x3e8509f2	0.2598415
84	0x3c328070	0.01089488
85	0x3c9cb4df	0.019129215
86	0x3e031b01	0.1280327
87	0x3d3d902c	0.04628007
88	0x3d11ea4e	0.03562384
89	0x3d21e0ab	0.0395209
90	0x3e810183	0.25196466
91	0x3ef055c5	0.46940437
92	0x3d1e403a	0.03863547
93	0x3d5633a5	0.052295346
94	0x3c35faa8	0.011107124
95	0x3f691e16	0.9106153
96	0x3d850857	0.06495731
97	0x3d3bfbfd	0.04589461
98	0x3dd1951f	0.10233521
99	0x3e8dce30	0.2769637
100	0x3de0fb7c	0.10985467
101	0x3d43b212	0.047777243
102	0x3ca59c0c	0.02021601
103	0x3f158f21	0.5842152
104	0x3de74a2e	0.112934455
105	0x3e0a740a	0.13520828
106	0x3f548f9f	0.8303165
107	0x3f4a14f7	0.7893824
108	0x3e77699f	0.24161385
109	0x3c7664ae	0.015038652
110	0x3f865afd	1.0496517
111	0x3d42ce4b	0.047560018
112	0x3d25cc52	0.04047806
113	0x3c0d7ba9	0.00863544
114	0x3d1c1333	0.038104247
115	0x3b9c6751	0.0047730585
116	0x3edb6d8e	0.4285702
117	0x3ce1da74	0.027569987
118	0x3c9e01f1	0.019288035
119	0x3cfd4ed9	0.030921387
120	0x3f48dba6	0.78460157
121	0x3dfb9b10	0.12285435
122	0x3f1e1edc	0.6176584
123	0x3c2b21e9	0.0104450965
124	0x3bba2ff1	0.0056819846
125	0x3f515457	0.8176932
126	0x3cd7e77b	0.026355496
127	0x3e40a2fc	0.18812174
128	0x3e7288f9	0.23685063
129	0x3fce8517	1.6134366
130	0x3e9072e5	0.28212658
131	0x3ff52839	1.91529
132	0x3e1e4e77	0.1545962
133	0x3f802f7c	1.0014491
134	0x400bd89d	2.185096
135	0x3e06591d	0.13119932
136	0x3e1295ba	0.14314929
137	0x3fcaa64f	1.5832003
138	0x3faa95f7	1.3327016
139	0x3fa8de9c	1.3192935
140	0x401bca82	2.434235
141	0x4007a98a	2.1197228
142	0x3ec49895	0.3839766
143	0x3da2efb5	0.07955877
144	0x3ef28401	0.47366336
145	0x2f336444	1.6315577e-10
146	0x3f9b2c80	1.2122955
147	0x3f3d92ac	0.7405193
148	0x3dba047d	0.09082887
149	0x3ec227d7	0.3792102
150	0x3d3a15bd	0.045430887
151	0x3eb6e04a	0.35717994
152	0x3f85c2e0	1.0450096
153	0x3f771514	0.9651654
154	0x3ea72904	0.3264848
155	0x3eebc9ad	0.46052304
156	0x3fc01359	1.5005904
157	0x3fd36d10	1.6517658
158	0x3ee9272b	0.45537695
159	0x3eb387b8	0.35064483
160	0x3ff7aefe	1.9350278
161	0x3f8a03b8	1.0782385
162	0x3fc3cc73	1.5296768
163	0x3e7592a6	0.23981723
164	0x3fe73110	1.8061848
165	0x3ff0ce62	1.8812983
166	0x3f67f592	0.90609086
167	0x3f8dd1c2	1.1079638
168	0x3f81054a	1.0079739
169	0x3ef6da16	0.4821326
170	0x3fd0e4e6	1.6319854
171	0x3f8a0a56	1.0784404
172	0x403a9952	2.915608
173	0x3ee0341e	0.43789762
174	0x3fdf550d	1.744783
175	0x3f825401	1.0181886
176	0x3f966b7c	1.1751552
177	0x3e9f75df	0.31144616
178	0x3efcd27b	0.49379334
179	0x3e9096d8	0.28240085
180	0x3ed7fdcb	0.42185816
181	0x3f70e28b	0.9409568
182	0x3f4d5a44	0.8021586
183	0x3f6c358f	0.92269224
184	0x40567a77	3.3512247
185	0x3e6863a5	0.22694261
186	0x402c5eac	2.6932783
187	0x3e39a37c	0.1812877
188	0x3e833d2e	0.25632614
189	0x3f0278c3	0.5096552
190	0x3c207b2e	0.009794993
191	0x3ed73899	0.42035368
192	0x3a7dc859	0.0009681038
193	0x3b95fa32	0.0045769447
194	0x3cae7d6c	0.02130004
195	0x3d09593f	0.033532377
196	0x3c8dffa0	0.017333806
197	0x3c87aace	0.016560938
198	0x3b8dbe3f	0.0043256576
199	0x3c4662dd	0.012108532
200	0x3c33d84e	0.010976864
201	0x3d166553	0.036717724
202	0x3cb0b3a8	0.021570042
203	0x3d5135d7	0.051076736
204	0x3d64a0a3	0.055817258
205	0x3d3223a5	0.043491025
206	0x3d41d537	0.04732248
207	0x3bb5fd0a	0.0055538462
208	0x3ba7a542	0.005116136
209	0x3243ae20	1.1390085e-08
210	0x3b6b1513	0.0035870716
211	0x3c8bbd58	0.01705806
212	0x3a5cac77	0.0008418033
213	0x3aab6ecb	0.0013079284
214	0x3b8ca22d	0.004291794
215	0x3bd1d5f3	0.0064036786
216	0x3b03c02d	0.002010356
217	0x3c89278a	0.016742487
218	0x3caa9061	0.020820798
219	0x3d061f26	0.03274455
220	0x3bdb2696	0.0066879494
221	0x3b658407	0.0035021321
222	0x3a07b34b	0.0005176558
223	0x3c87272a	0.016498167
224	0x3c745081	0.014911772
225	0x3bad3e09	0.005286936
226	0x3cca4fe0	0.02469629
227	0x3c64dcb3	0.013968634
228	0x3cbb149b	0.022836974
229	0x3d164c81	0.036694054
230	0x3bcf5156	0.0063268347
231	0x3d87dab1	0.06633509
232	0x3c069ae4	0.00821564
233	0x3c2358b0	0.009969875
234	0x3d9d4d2e	0.076807365
235	0x3cfb2d4d	0.03066125
236	0x3dc433b8	0.09580177
237	0x3a75247c	0.0009351445
238	0x3d3a0f38	0.04542467
239	0x3b8d7a0a	0.0043175267
240	0x3c9fd522	0.01951081
241	0x39f0e220	0.00045944843
242	0x3bff8a2e	0.0077984547
243	0x3b87d07e	0.0041447273
244	0x3c2bdc82	0.010489585
245	0x3ad5932f	0.0016294474
246	0x3a8b28cc	0.0010617017
247	0x3b0d29cd	0.0021539808
248	0x3daad388	0.08341128
249	0x3c4ba2ac	0.012428921
250	0x3dceaf48	0.10092026
251	0x3a3299fe	0.0006813108
252	0x3a2aec6e	0.0006520216
253	0x3c872830	0.016498655
254	0x3a93b55b	0.0011269258
255	0x3c5ee74f	0.013604953
