model/VANILLALSTM/LSTM/VANILLALSTM_lstm_model_7.tar (torch, 809753 bytes, 16 tensors)

cell.weight_ih f4 [512, 64]
00000000: e3f2 18bd 29df 343d a418 a2bd 1b47 a5bc
00000010: 8bc1 bd3d 18df 36bd 4090 b1bb 1f57 7e3c
00000020: 2fa9 90bc 4d31 2fbd 729f f83c 8604 3e3d
00000030: 0861 8abd b3be b13c 161e 05bc 6bde 19bc
00000040: 344e 8d3c d95d 0100 93bc e83c e434 533c
00000050: 015b 4e3c 91c9 1e3d c31e da3c e389 f5bc
00000060: 59b7 66bc 803c c4bb 61ac 3b3c 3f44 8ebd
00000070: 728e 663d c769 ab3d 81e1 2c3d df8b 92bb
00000080: c6cf 1c3c 9eb8 323d 69d7 61bd 0752 20bd
00000090: baf7 793d 0ca2 9bbc 8619 993d 9c54 133d
000000a0: 94df 823c 7cc7 a2bc 1f83 adbc 5e78 4539
000000b0: 9054 44bd 2749 ce3d 2c79 dd3b c3db fb3b
000000c0: c721 8f3d f3a1 553c 7fc2 783b 7cc1 443c
000000d0: 4779 b23c 9a6f 1a3d 0c6b f63c b241 863d
000000e0: fa55 f13a 086c 4abd 6453 e23b 099e 193b
000000f0: 72f2 d73d dd05 b93c d02c 03bd 8648 ae3d
00000100: 14cb bfbc e58c 6abd fa37 79bd c0f7 b4bb
00000110: cf52 d43b 8967 963c b20d eabc b975 863d
00000120: 731a 89bd f4f9 62bd 98e8 593d 3540 b03d
00000130: 9deb 20bd 7584 983d dbfd 143d 676c dbbd
00000140: 7366 493c 9f94 0080 0f5e 0b3d 84b2 cc3c
00000150: 294f 87bd da55 4ebd 080f 10bd e31c 293d
00000160: ba83 4cbd f803 e03c 4e08 b53d 0d8a 2bbd
00000170: 07dd e4bb 9475 d6bc f08b 7cbc bf3e 0bbe
00000180: ea4f 713b 4345 6bbc 7388 0e3d 631b 3cbd
00000190: ec09 55bd 16fa 843d 0847 c83c 42a2 a13d
000001a0: 8be9 52bc b03b d0bc e7e6 af3d 4003 663b
000001b0: a83a 693b ff29 fabc cf90 2a3d b553 52bd
000001c0: 5755 e8bc 5116 14bd f6c6 18bc 62f0 8fbc
000001d0: 74ab cbbb 123a 42bd fc51 e3bc dfce 38bc
000001e0: 5ae4 b43c e8e0 8e3d bd92 b13d e204 82bd
000001f0: 3abf 1abb dc77 cabd 160e 023b 7b12 273c
00000200: 409b 783b 5083 e83a 5b1d 1bbd 736d 2f3c
00000210: f088 3b3d 88c3 013c 58fa cd3b e873 b0bc
00000220: af8a 66bd c9db 13bb 0dce 013e cc20 423d
00000230: bb2d d33b 9931 fdbc 6bb7 34bd 9bd7 05bd
00000240: 8581 023b dfdf 0080 c267 e6bc 19fa 15bd
00000250: a1c1 11bd c07d 9ebc 0aec 49bd 0168 56bc
00000260: a9ce 80bc d2f0 a9bc 6988 0f3d df7a 233c
00000270: 8961 ec39 8f43 c83a 30c3 c8bc 22ce 79bd
00000280: 9146 5d3d 4d11 603c 8798 e3bc ee5f afbd
00000290: 2834 003e 2cf6 933b 10e2 1fbd c3dd 043d
000002a0: df6f afbc 8879 48bd 4953 853c 3d21 f0bc
000002b0: 4a53 24ba c1ae 15bc e788 e7bc 7a65 4ebc
000002c0: 0fa2 fdbc 18f3 3fbc 40c1 103d 7432 e63c
000002d0: 6f67 8b3d 9b53 44bd a0c0 03bd b7bf c03c
000002e0: a6d4 0ebd e767 2abd 06fd ee3c 0e91 08bd
000002f0: 2b9e 273d 01ac a53c ed8e d23c 5cb4 2e3c
00000300: 35dd 9c3d 5747 043e 55c5 543d 1710 80bd
00000310: 4b84 993d 91d6 b6bc ef11 96bc c7fc 8d3d
00000320: e75b eabc 11bb 4b3c 3415 d43d 1f00 9abd
00000330: 4e70 3f3d 3a0a 97bb 80dd 23bc a306 0bbd
00000340: 86bd 463d 2e7b 0180 9c2b 163d f579 e3bc
00000350: bebc 093d 6f05 243d b1c3 f4bc 4836 9fbc
00000360: c574 c43b f52e 0c3c 7d36 c73d 45db bc3a
00000370: 2297 f7bc 5fa6 ddbb 842e 7a3b de96 06bd
00000380: fca3 173d ecec 943c 98fc d7bc d630 073e
00000390: 4c72 493d b27f 883c a8ec ccbc 43b7 63bd
000003a0: 9a3b fb3d f49e e63d b217 adbd 2d35 00bd
000003b0: 4d56 2ebd df2a babc 84ed b7bc 95eb cfba
000003c0: 7823 68bd 1aff 693b b945 99bd 6550 acbc
000003d0: a86b 10bd 91f4 f4bc c20c b6bb 2fab 01bd
000003e0: c7a5 58bd a8dd 2c3d a723 7b3d 069e f73c
000003f0: 82b2 02bd e903 e5bc a5fe 033d 5a02 b23d
-0.03734101 0.044158135 -0.07914856 -0.020175507 0.09265431 -0.044646353 -0.0054188073 0.015523701
-0.017658798 -0.042771626 0.030349467 0.046391033 -0.067567885 0.021697378 -0.008124849 -0.0093914075
0.017249204 1.25502e-40 0.028410232 0.012891028 0.012594939 0.038766447 0.026625996 -0.029972976
-0.014081799 -0.0059886575 0.011454673 -0.06946611 0.05628819 0.08369785 0.042207245 -0.0044722403
0.009571021 0.043633096 -0.05513707 -0.039140727 0.061027266 -0.018998168 0.07475571 0.03596936
0.015975751 -0.019870512 -0.021180687 0.00018832224 -0.047932208 0.100725465 0.0067588296 0.0076861097
0.069888644 0.0130391 0.0037957726 0.012009021 0.021786345 0.037704088 0.03008034 0.06555499
0.0018412464 -0.049419433 0.0069069136 0.0023440144 0.1054429 0.022585804 -0.03202516 0.085099265
-0.023412265 -0.057263274 -0.0608444 -0.005522698 0.006479598 0.018359916 -0.028570984 0.065654226
-0.06694498 -0.055414155 0.053200334 0.086059965 -0.0392872 0.07447139 0.036374908 -0.107140355
0.012292492 -5.3315e-41 0.03402525 0.024987467 -0.066068955 -0.050374843 -0.035170585 0.041287314
-0.04993031 0.027345642 0.088394746 -0.041879702 -0.0069843563 -0.026179112 -0.015414223 -0.13598154
0.0036821314 -0.014359775 0.034798097 -0.045924556 -0.052011415 0.064930126 0.024447933 0.07892276
-0.012873064 -0.025419086 0.08588963 0.0035097152 0.003558794 -0.030537603 0.041642006 -0.05134936
-0.028361006 -0.036154095 -0.00932478 -0.017570678 -0.006215507 -0.04741866 -0.027749054 -0.011279791
0.022081543 0.06976491 0.08670566 -0.063485876 -0.0023612515 -0.098861426 0.0019844822 0.010197277
0.0037934333 0.001773933 -0.037869792 0.010707247 0.04578489 0.007920153 0.006285947 -0.021539643
-0.056284603 -0.0022561422 0.12676258 0.04739456 0.0064446605 -0.030907439 -0.044120234 -0.03267632
0.0019913625 -8.031e-41 -0.028125647 -0.036615465 -0.03558505 -0.019347072 -0.04929737 -0.01308632
-0.015723543 -0.020744715 0.0350422 0.009978025 0.00045086097 0.0015278923 -0.024507135 -0.0609876
0.054022375 0.013676 -0.027782692 -0.08563219 0.12519896 0.00451543 -0.03903395 0.03243805
-0.021415649 -0.048944026 0.016275065 -0.029312724 -0.00062685146 -0.009135903 -0.028263522 -0.012597436
-0.030961065 -0.011715673 0.035340548 0.02810023 0.06806838 -0.047931295 -0.032166123 0.023528917
-0.034870766 -0.041602995 0.029173385 -0.03334146 0.040922325 0.02022362 0.025702918 0.010663118
0.076593794 0.12917839 0.051946003 -0.06253069 0.07495936 -0.02231911 -0.018319098 0.06932979
-0.028608276 0.012434737 0.10355607 -0.07519554 0.04673796 -0.0046093734 -0.01000154 -0.033941876
0.048520587 -1.36024e-40 0.036662683 -0.027768115 0.033627264 0.040044244 -0.02987847 -0.019435063
0.0059953653 0.008556117 0.0972719 0.0014408609 -0.030223433 -0.0067642177 0.0038174698 -0.032858722
0.037021622 0.01817938 -0.026365563 0.13202223 0.049181268 0.016662452 -0.02501519 -0.055594694
0.122672275 0.11260787 -0.08451785 -0.031300712 -0.04256277 -0.02272552 -0.022452123 -0.0015863056
-0.05667445 0.003570503 -0.07484002 -0.021034429 -0.03525892 -0.029901775 -0.00555572 -0.031657394
-0.052892473 0.042203575 0.061313298 0.030226719 -0.03190852 -0.027955966 0.03222527 0.08691855

cell.weight_hh f4 [512, 128]
00000000: 8c90 db3c 6dc5 6abc 4953 5a3d 7e7c 013d
00000010: 2c61 79bc 5a01 103d 06ab cdbb 5e33 ffbc
00000020: fbd4 8cbd 445f a4bd e794 14bc b960 1abd
00000030: 2093 30bd 4708 e93c 12d4 8fbd c2d6 0ebc
00000040: 745e f13c 8fae 0f3d 6ab3 503d 2e28 02bc
00000050: 938f 853c ea43 a03d fb56 0b3d 2c2f 10bd
00000060: 711c 38bd 575a 71b9 cc70 6eb8 965c ff3c
00000070: e240 e4bc db30 ecbc 7dd8 eebb 8de9 f93c
00000080: 1446 aa3c 3aee ec3c 8a08 5abc 800b e4bc
00000090: ceba 7cbb 0715 3c3d 4c9f 9fb9 6f8a 1e3c
000000a0: 1f3a 343d a036 6c3d 20d1 733c 3625 afbc
000000b0: f02c 6a3c 4d95 5cbd 1864 513d 3388 29bc
000000c0: 7b74 a2bc 551e 603d 39a0 973d d259 45bd
000000d0: ea10 bd3c 27dc 0abd 5b6c 0b3c c271 843c
000000e0: 64eb e13b 8581 553d 1a31 5dbd d94c bf3c
000000f0: d362 11bc 2ef8 cdbd d785 753c 9ac2 c63c
00000100: 1581 38bd 7251 57bc 71fb 603d 39df 973c
00000110: ccd6 10bd 4c84 1b3c 2f5b 2c3d c89f 583d
00000120: c26f 7d39 e41d cebb 1e54 8d3c 416b dcbc
00000130: cbf8 993c acff 44bd e5c6 5ebd fbd9 a23c
00000140: 2032 b1b7 cd01 8bbc cb75 81bd b76a 4e3d
00000150: 7ca4 eabc 3da3 693d a7b5 5ebb 6afe 853d
00000160: cd9b 7a3c 8e90 e13c a93c 21bd 31c9 cebc
00000170: 5734 2f3d e473 913b 1bf4 edbc 27f8 8cbc
00000180: b765 6ebc 9127 293c 08f4 b3bb f92f 7d3b
00000190: b881 7a3c f6de 78bd 8866 823d fd4e 6bbc
000001a0: 45f2 0b3d 5ddd 713c c16b 1ebd ac9e e13c
000001b0: a891 92bd fc6a 63bd dd62 323b f64d 813c
000001c0: 093a 053d deb9 a2bc 10aa fa3c 83ee bf3c
000001d0: 2f99 b4ba 10f8 ff3b e41e c4bc 0a07 28bd
000001e0: a65e 1b3d e993 d93b aedf 623d 1191 29bc
000001f0: 7cf8 a23c 1c87 0e3d 23e4 5bbd 8499 483d
00000200: a3db 3d3d 28f8 7dbd 9811 72bd f5b6 a6bc
00000210: 36a1 71bd d627 a03c 044d cc3b 4767 83bc
00000220: c552 19bd 3d8e b3bb eb29 193c 5249 f9bc
00000230: 78a2 b5bc 7e39 353d 0d8c 6abd f778 bbbb
00000240: 8e61 a1ba 2952 27bd ecd1 243d d563 1e3d
00000250: 5d47 9abb 56cd b33d 2cb0 9f3d fa79 08bd
00000260: b044 10bc 90b0 ea3b 49e1 423d 9de4 6b3d
00000270: 68c4 34bd 2c35 53bd e127 1e3c e428 37bd
00000280: a6ec a13d f9d9 38bd d3c3 903d a743 573c
00000290: 1f5f e63c 5fb8 203a 5805 54bd d240 27bd
000002a0: 0acf 603c 3a30 9f3c 9b28 49bc 06c3 55bd
000002b0: aa8a e83c c0da 16bd 51d1 333d 73c9 743b
000002c0: 8e49 57bb fd85 7ebd 5368 193d 2b9e dc3d
000002d0: 694c a2bc dd42 2abc 4709 e03c 5bc5 a2bd
000002e0: 9ad4 3c3d f7de 643d a441 acbd b517 4fbc
000002f0: 093d b03c 9601 8ebd 23e5 d43a 5b7d 9ebc
00000300: 820d 083c 50ff ad3c fd6d f3bb 5beb 8f3d
00000310: eaa2 7a3b 9993 4c3d ae01 0d3d 164e 74bd
00000320: d9cc 833c 7d5e 103c ce9f 29bd b444 c4bc
00000330: a0c7 b8bb c95a 3bbd 1e65 98bc c710 b83c
00000340: a27e 8d3b d32d a33a 5067 433c fe10 5fbd
00000350: 464e c73c 536e 8b3b 573d 42bd 13f1 973c
00000360: 6969 023d 9477 b1bc 7c86 613d b138 0bbd
00000370: 27b9 513d 4d67 61bd 51eb 0abc 2186 1e3d
00000380: d5cd 593c 4bfc 82bc 7719 8bbc 997b f3bc
00000390: b50a 99b9 bd37 98bd 9b75 623b f29d 89bb
000003a0: 65a6 19bc 1beb cb3c 8088 473d 28a6 6d3c
000003b0: cd56 e03c c772 24bd c3f9 30bd 6da3 41bd
000003c0: dc65 13bd d3f0 83bd 2d6f 6c3d ec77 4439
000003d0: a39f 91bc 69bf c23c 2f9c 833c 2749 0bbd
000003e0: a46b 86bc a20a a03c 71d3 133d f7d6 a8bd
000003f0: 0d5d a1bc e97b 003d 3ce6 16bd d04b b3bc
0.026802324 -0.014329297 0.053302083 0.031612866 -0.0152209215 0.03515754 -0.006276491 -0.031152423
-0.0687656 -0.08025983 -0.009068704 -0.0376899 -0.04310906 0.02844633 -0.07022871 -0.008718194
0.029463984 0.03507858 0.050952353 -0.00794415 0.016303813 0.078254536 0.034018498 -0.035201237
-0.044949 -0.00023017205 -5.6848672e-05 0.031172078 -0.02786297 -0.02883189 -0.007288991 0.030506874
0.020785369 0.028922189 -0.0133077 -0.027837515 -0.0038563493 0.04591849 -0.0003044553 0.00967656
0.04400074 0.057669282 0.014881402 -0.021380048 0.0142929405 -0.05385332 0.051120847 -0.010347414
-0.019830933 0.054716427 0.07403607 -0.048181362 0.023079354 -0.03390136 0.008509721 0.016167525
0.006894516 0.052125473 -0.054001905 0.023352074 -0.008873659 -0.10057102 0.014985523 0.024262715
-0.045044977 -0.013141977 0.054927293 0.018539058 -0.035361096 0.009491991 0.042079147 0.052886754
0.00024169593 -0.0062901843 0.017252024 -0.026906611 0.018795392 -0.04809539 -0.0543889 0.019879332
-2.1123386e-05 -0.016968632 -0.06321295 0.05039474 -0.028642885 0.05704044 -0.0033982785 0.06542666
0.015295935 0.02753475 -0.03936449 -0.02524242 0.042774525 0.004438864 -0.029047063 -0.017208172
-0.014550618 0.010324375 -0.0054917373 0.003863333 0.015289716 -0.060759507 0.063672125 -0.014362094
0.034166593 0.01476225 -0.03867698 0.027541481 -0.07156688 -0.05552195 0.0027219572 0.015784245
0.03252605 -0.019864019 0.03059867 0.023429161 -0.0013778562 0.007811554 -0.023940511 -0.041022338
0.03793206 0.0066399467 0.0553891 -0.010349528 0.019893877 0.03479682 -0.053684365 0.04897453
0.04635204 -0.06200424 -0.05909881 -0.020350913 -0.058991633 0.019550245 0.006234767 -0.016040457
-0.03743245 -0.0054796026 0.009348373 -0.03043047 -0.022172198 0.044244282 -0.05726247 -0.0057212072
-0.0012312399 -0.04084984 0.04023926 0.038669426 -0.004708214 0.08779399 0.07797274 -0.03331945
-0.008805439 0.007162161 0.04757813 0.05759107 -0.04413262 -0.05156438 0.009653063 -0.04471673
0.07906465 -0.04512975 0.070686005 0.013138688 0.02812153 0.0006130989 -0.05176291 -0.0408333
0.013721237 0.019432176 -0.0122777475 -0.052187942 0.028386433 -0.03682971 0.04390079 0.0037351518
-0.0032850238 -0.0621395 0.037453007 0.10772356 -0.019811826 -0.010391918 0.027348174 -0.07947799
0.04610119 0.0558767 -0.084109575 -0.01263993 0.021513479 -0.06933896 0.0016242604 -0.019346884
0.008304002 0.021239907 -0.007428883 0.07027312 0.0038244077 0.049945448 0.03442543 -0.05964478
0.01608889 0.00881159 -0.041412167 -0.023958541 -0.0056390315 -0.045740876 -0.018602904 0.022468938
0.0043180743 0.001244957 0.011926487 -0.054459564 0.024329316 0.004255095 -0.04742178 0.01854757
0.03183881 -0.021663465 0.055059895 -0.033989612 0.051201966 -0.055030156 -0.008478955 0.038702134
0.013293703 -0.015989443 -0.016979916 -0.029722022 -0.0002919041 -0.07432506 0.0034554962 -0.0041997368
-0.00937805 0.02489238 0.04871416 0.014504947 0.02738514 -0.040148523 -0.04320694 -0.047274996
-0.035985813 -0.06442418 0.057723213 0.00018736691 -0.017776316 0.023772912 0.016065685 -0.03400531
-0.016408749 0.01953632 0.036090318 -0.08244126 -0.01969769 0.03136817 -0.036840662 -0.021886736

cell.bias_ih f4 [512]
00000000: 0b28 d73d 0c2e 7abb c59f 86bd e288 4e3d
00000010: bff5 263d 0403 9d3d 1383 bd3d 3338 46bd
00000020: b470 3d3e 7790 48bd 7423 b93c 080d fbbc
00000030: 9d75 443d 8ce6 2ebd 59ee c4bc a3ec 9fb8
00000040: 148b 0f3d 7172 f63d e4dc f53d e0a3 6c3e
00000050: d91c cb3b 5e2f 8e3d 9994 1a3e f8f1 353e
00000060: aa93 0ebd 0baf c43c 54d4 733d 7427 433d
00000070: 4986 b23d b974 a53d fadf b03c 4a52 b63d
00000080: 2d8b 65bd 5107 c63b 73ec aa3c 4626 86bd
00000090: 492a 803a 6a94 bc3d f9b7 203d f959 8ebd
000000a0: 62d3 bb3d a3c9 fa3d 2815 ce3d e946 0f3d
000000b0: 3cd5 203d ec8e e93d f830 27bd b988 a7bd
000000c0: 7dc6 923d 3315 3c3d 0864 f23d 2345 3b3e
000000d0: 7b5c 42bd 4296 be3d 10c3 06bd 8747 ad3b
000000e0: 2f79 003e 47cd fcbb 9be7 f63d fbf7 b03d
000000f0: 1f56 593e db05 87bc fc7e 643b 9126 403e
00000100: 83ab 0d3c aa20 02bd cc5e 88bc 4a00 68bc
00000110: e6d7 bf3d 8085 e83b e535 193d fef2 dbbb
00000120: e6e6 e03c fce3 8f3d 9da1 8a3e 9ef1 d03d
00000130: 9602 1b3e 6ff7 3fbd 3ebb 97bd 0071 de3d
00000140: 0f2e 99bc f62a 053d 3bd6 293d b801 f33d
00000150: 2b4e bd3b 71ad 00bd e3c1 763d 1a98 103d
00000160: d890 443d 7eb1 b23b bad5 843d d50b 303e
00000170: 5a2a 93bd 695f 25bd ef11 263e 11f4 77bc
00000180: 61fa b1bd c737 41bd 0ab5 923e 7d53 45bb
00000190: eb5c 443d 3412 143d c1ae 053c 69a5 8ebd
000001a0: 56f2 1b3e 6c1c ea3c 833a 873e 195e 323d
000001b0: 256c 4f3e 9fde 8bbd c266 f33d ff4b c23c
000001c0: 7be3 043e 16c1 5f3d 5327 b23d 9595 17bd
000001d0: 0556 94bd 9b01 033c 7d42 ad3d 91c3 103e
000001e0: 65b2 6b3d ae19 a73d 8489 803d c2f5 443e
000001f0: cd45 8fbd d219 d33c a749 c73c 17ab 88ba
00000200: 5bdc 023c 586d 95bd 7eb4 1d3c 5779 d0bb
00000210: bec4 12bd 9790 f7bc 45e3 693d 8513 d93c
00000220: 0496 223d 1dd2 b23b 0641 9bbd 18f2 dabc
00000230: 7df4 cabc f747 a93d a3b1 8c3d 9103 0b3d
00000240: 1939 573d 7512 8dbc fa09 3a3d 8e15 853d
00000250: e56a 98bd dd06 df3d f7d9 a63d 4302 42bd
00000260: 29b9 103d 00c4 98bd ec0e f13c e287 5a3d
00000270: eef2 82bd 7fc7 c53b f26a 08bd 7b4c 40bd
00000280: b1a3 f0bc fe1f 823d 10c5 61bd f403 ff3b
00000290: 4d92 fa3b 15ab 353d f999 f53d c825 0dbd
000002a0: 25e9 2ebd 54b2 843b 1eeb f9bc e0fb 81bc
000002b0: cf5d 6d3d bedf 30bd 7c84 b9bd b03b 7bbc
000002c0: 15d6 933d 02fd 903d 92bd 80bd 19f3 50bc
000002d0: ed34 92bd 8c0c 343d 4189 d9bc 4851 40bd
000002e0: 6ebd dd3d b572 a33c b677 4b3d 2295 dd3a
000002f0: 54ea cc3d 5413 c83c e531 32bc 31fb 8c3d
00000300: 5fcc 06bd 0347 96bd e1d8 a73c 8cae 8f3d
00000310: a8bf b7bb 033f a4bc 6f79 853d da30 873b
00000320: 0f25 4c3d 1982 2ebd 91e8 713d c007 8a3c
00000330: ead3 95bc 3fc0 c3bd eed8 613d c679 c6bd
00000340: 8c5e 7a3d c1ce 0c3d 1870 8ebd a21d c0bd
00000350: c18f cbbc f654 f43c 349c 563d cf1a 2e3d
00000360: 3657 aebd 7a82 a4bd b9b0 c7bc 6e95 e1bb
00000370: cc45 183d 4f1d 51bd 7adc 493d ae45 7cbd
00000380: a14c ad3c b5e6 4cbc 508a 143e 8057 533c
00000390: cf01 173c d657 be3c a759 ba3d de78 7fbd
000003a0: 863d 4bbd 84d3 d83d 1a75 733d e85c f13d
000003b0: 8a6b f6bc ae48 5ebd e030 263d ef16 abbc
000003c0: c8c4 ac3d acd2 2e3d fe94 013d ab86 243d
000003d0: cd3a a33c bf6c a9bc 7d28 4b3d f53c 50bd
000003e0: 5e94 123d 61c1 24bd 5a12 66bc 4fbf 5d3a
000003f0: d68c f9bc e8fe 35bd 541a 56bd e2f6 8fbd
0.105056845 -0.0038174419 -0.06573442 0.05042351 0.040761705 0.07666591 0.09253516 -0.04839344
0.18500024 -0.048965897 0.022599913 -0.030645862 0.047963727 -0.042700335 -0.024039434 -7.625788e-05
0.035044745 0.12033547 0.12005022 0.23109388 0.0061985073 0.06942628 0.15095748 0.17768085
-0.034808792 0.024009248 0.059528664 0.047645047 0.08717019 0.08078904 0.021591175 0.08902414
-0.05604093 0.0060433527 0.0208647 -0.06550269 0.0009778227 0.09207995 0.03923795 -0.06950755
0.091711774 0.122454904 0.10062629 0.034979735 0.039265856 0.11404213 -0.040818185 -0.08180375
0.07166765 0.045918655 0.11835486 0.18288092 -0.047451477 0.09306003 -0.03290087 0.0052880677
0.12546228 -0.0077149007 0.12055894 0.086410485 0.21224259 -0.016482284 0.0034865728 0.18764712
0.008646849 -0.031769432 -0.016646765 -0.014160225 0.09367351 0.0070959926 0.037404913 -0.0067123165
0.027453851 0.070259064 0.27076426 0.10202335 0.15137705 -0.04686683 -0.074087605 0.10861397
-0.01869872 0.032511674 0.04146407 0.11865562 0.0057771406 -0.031415407 0.0602435 0.035301305
0.047989696 0.0054532876 0.064860776 0.17192014 -0.07185812 -0.040374193 0.16217779 -0.015133874
-0.08690334 -0.047172334 0.28653747 -0.0030109577 0.047940176 0.036150172 0.00815934 -0.06965143
0.15229163 0.028578006 0.26411828 0.04354677 0.20256098 -0.06829571 0.11884834 0.023717878
0.12977402 0.0546275 0.08698907 -0.037007887 -0.072429694 0.007995988 0.08459947 0.14137103
0.057543177 0.08159195 0.06276229 0.19234374 -0.06995735 0.025769148 0.024327112 -0.0010426965
0.007987107 -0.07296246 0.009625552 -0.006362121 -0.03583216 -0.030220313 0.057101507 0.026498565
0.039693847 0.0054571764 -0.075807616 -0.026726767 -0.024774784 0.08265679 0.06869819 0.033938948
0.052544687 -0.017220715 0.04541967 0.06498252 -0.074422635 0.10889981 0.08147042 -0.04736544
0.035332832 -0.07459259 0.02942606 0.053352244 -0.063939914 0.0060357447 -0.033305116 -0.046947937
-0.02937493 0.06353758 -0.055119574 0.0077824537 0.007646835 0.04435261 0.119922586 -0.03445986
-0.042702813 0.0040495787 -0.03050762 -0.015867174 0.05795079 -0.043182127 -0.090584725 -0.015334055
0.07218567 0.070795074 -0.06286158 -0.0127532715 -0.07139001 0.043957278 -0.026554706 -0.046952516
0.108271465 0.019952158 0.049674712 0.0016905407 0.10005632 0.024423279 -0.010876154 0.068838485
-0.032909747 -0.07337763 0.020489158 0.07015714 -0.005607564 -0.020049578 0.06517302 0.0041256966
0.04984003 -0.04260454 0.059059683 0.016849399 -0.018289525 -0.095581524 0.05513852 -0.09691195
0.061125323 0.034376863 -0.06954974 -0.09380652 -0.02484882 0.029825669 0.05239506 0.042506035
-0.08512728 -0.08032699 -0.02437626 -0.0068842685 0.03717594 -0.05105334 0.04928253 -0.06158989
0.021154704 -0.012506177 0.14505887 0.01289928 0.00921674 0.023235243 0.09099131 -0.062371127
-0.04961922 0.105872184 0.05943785 0.117852986 -0.030080575 -0.05426853 0.040573955 -0.020884959
0.084359705 0.04268138 0.03163623 0.040167492 0.0199255 -0.020681737 0.04959916 -0.050839383
0.035786025 -0.040223483 -0.014042461 0.0008458988 -0.030462664 -0.04443255 -0.052271202 -0.07029511

cell.bias_hh f4 [512]
00000000: ad2f 893d 0f15 fd3d d499 70bd 770a f13d
00000010: 663c c63d 654d 143e 9bf6 843c 6ec8 49bd
00000020: e5f3 093e 1264 ac3c 0e9b 2e3c a804 c2bd
00000030: ad80 a3bc 1096 2fbb 3662 d13c 4299 9ebb
00000040: d854 6ebd 25d7 113e 8b05 993d 4ac2 0d3e
00000050: b3f9 a4bd ebf8 243e 60fe 133e 37f4 d63d
00000060: 303f 82bd a5b5 9fbd a400 943d 2e30 3bba
00000070: 90a7 043d 2cd4 843d d483 6a3d 5b5e 373e
00000080: a054 483d daea 87bd 44b8 b43d cd7b 9bbd
00000090: 4d9a b5bc a3b4 2f3e 05d0 773d deb2 ae3c
000000a0: b0d2 6b3d 7a62 52bc b7cb 993d e578 ca3d
000000b0: bd81 de3d d250 f23d cf4c 713d c138 c93b
000000c0: d376 253e cae9 0a3e d8a7 c7bb ea1c 0e3e
000000d0: f99f 89bd 94c6 043e 6d51 393d 8bc5 c83c
000000e0: 2ee0 453e fdfe 20bd d083 da3c 8022 c93d
000000f0: 1b85 313e e772 1e3d 8a2a b43b 82a0 353e
00000100: d108 f2bc 35cd 893d 76d4 52bd 8e04 dc3d
00000110: 3dc7 5bbd 626b c83c b50a 393c c8f1 98bc
00000120: 5812 cf3d 1788 8fbd 0b67 913e 7336 553e
00000130: 99de e53d a5f2 90bd e0c5 84bd c6d3 663d
00000140: 4e4c d23d 6b39 e9bc 335b 4d3d b46e 88bc
00000150: 38b8 633d 9a68 f73c 761d 8dbd 4cb6 133d
00000160: 944c dc3d 7a34 613c 3d78 a23b 7596 c13d
00000170: c544 8dbd 1751 e2bb b422 cf3d 89a2 a6bc
00000180: 0519 c73c f1b9 113d b922 423e 008e 033e
00000190: 7d8b 48bd 9ca5 8c3d d4d3 133e f100 98bc
000001a0: 113b 263e 9283 a73d 91e1 163e 0bdd a03d
000001b0: 763c 343e aba7 9ebc ad06 a53d 2efe 863d
000001c0: 6b5e da3d ff31 9b3d a6eb c43d ce18 6ebd
000001d0: fe24 14bb 0589 513d fd43 373e c514 0e3e
000001e0: 2f6c 4f3c 63c7 463d 991f 3e3d 3c80 ea3d
000001f0: ecc0 8cbb 81fc bd3c d2c7 963d 80e5 56bd
00000200: 910c 9fbd cba5 0bbc 0088 863d 8aba 03bd
00000210: ca33 1d3d ea74 e1bb 8b75 acbc d032 9dbc
00000220: 0e90 713d 800f 0ebd 4d7a fa3c e138 5fbd
00000230: d931 7dbd 469e 2ab9 fcbd 853d aacd 58bd
00000240: b8fe 02bd 113b 66bd 5a7b 77bd bb1a 1a3d
00000250: 2620 323d 4e18 8b3d 2454 79ba fd70 fbbb
00000260: 0bf8 97bc e041 91bd bd9d ef3c 6bf2 8bbd
00000270: 3790 1e3d 7a53 2d3c dc25 41bd 3c69 e33c
00000280: 145d 863d af61 f1bc 0426 9dbd ae03 3fba
00000290: dc65 01bd 5ea9 953d c10f 103a 1948 5c3d
000002a0: 9ace 923b 61a9 093d 31f9 cc3d 4d3c 7fbd
000002b0: e08f ad3d 1be0 c23c 922a 713d 5e03 653c
000002c0: 1748 1bbd 8945 62bd 9ebf 4cbd 8154 d83d
000002d0: b019 023d 006d 183d 3332 92bd 5450 3dbd
000002e0: 05df 663d 5dc0 7f3d fe8f 603c 0dbc f9bc
000002f0: ffda 67bc d91c 793b c43e 24bc dbc5 383c
00000300: aeb1 58bd d5e5 7e3d 5000 2e3d 4bee 583c
00000310: bc06 3c3d 7b1e c93c 9451 9abd 52f7 77bd
00000320: 56c0 37bd 6e90 0c3d f070 bb3d 5403 4a3b
00000330: 5dbc b9bd 129e 47bd ca8d 7c3c 9892 383d
00000340: 0fe6 a93d adb0 17bd 37d7 24bc eee0 b4bd
00000350: e827 4f3d a67c 1c3d 8f1d b33d 8bcc 903d
00000360: 4eec 033d 7758 503d ad5e 1ebd afc9 173d
00000370: ce71 de3c 2ba4 8abd c541 ec3c 455c 8abd
00000380: b1c6 47bd a6cf 1fbd e945 063e e89c d6bc
00000390: dc98 d33b 3741 613d 792e 9b3d 8f0a 8abb
000003a0: 98e1 933d ce1c f63c 2e72 f53c b5b8 4f3d
000003b0: 9434 4f3c cf41 80bd da25 123d 6c85 32bd
000003c0: adf2 82bc 9a4a 6ebd 68c6 003d 0b50 1d3b
000003d0: 0ef1 5dbc 90f1 acbd fd2e a53d bdb5 ad3c
000003e0: f2e2 cebc 0210 e0bc 51db c83c eede b5bc
000003f0: 665b bd3b c845 793b 7154 c93d 4a0d 49bd
0.066985466 0.12357532 -0.058740452 0.11769574 0.09679489 0.14482649 0.016230872 -0.04926341
0.13471945 0.021043811 0.010657085 -0.09473544 -0.019958818 -0.0026792325 0.025559526 -0.004840047
-0.058186382 0.14242227 0.0747176 0.13843647 -0.08055439 0.1611058 0.14452505 0.10495799
-0.06359708 -0.07798318 0.07226685 -0.0007140663 0.032386363 0.06485781 0.057254627 0.17907088
0.04890883 -0.06636591 0.088242084 -0.075919725 -0.022168303 0.17158751 0.060501117 0.021325525
0.057573974 -0.012840861 0.07509559 0.0988634 0.10864589 0.118318215 0.05891114 0.006140799
0.16158609 0.13565746 -0.0060930066 0.13878217 -0.067199655 0.12966377 0.04524367 0.024508258
0.19323799 -0.039305676 0.026674181 0.098210335 0.17335932 0.0386838 0.005498235 0.1773701
-0.02954522 0.06728593 -0.05147215 0.10743056 -0.053656805 0.024465267 0.011294057 -0.018669978
0.10110921 -0.07008379 0.28398928 0.20821552 0.11224098 -0.07077531 -0.06483054 0.056354307
0.1026846 -0.028469762 0.050135802 -0.01665435 0.055595607 0.030201245 -0.06890385 0.036062524
0.107567936 0.013745422 0.004958181 0.094525255 -0.06897882 -0.0069066393 0.10114041 -0.020341175
0.024303922 0.03557772 0.18958558 0.12847137 -0.04896115 0.06867525 0.14436275 -0.018555136
0.1623347 0.08179392 0.14734484 0.078546606 0.17601189 -0.01936706 0.08057914 0.0659145
0.1066254 0.075778954 0.09615259 -0.058129124 -0.0022605057 0.051156063 0.17897029 0.1387511
0.01266007 0.048529994 0.046416853 0.1145024 -0.004295459 0.023191692 0.073623314 -0.052464962
-0.07766069 -0.008523415 0.06568909 -0.03216032 0.038379468 -0.0068803923 -0.021052143 -0.019189268
0.058975272 -0.03468275 0.030575896 -0.054497603 -0.061815117 -0.00016271425 0.06530377 -0.05293051
-0.0319812 -0.056208674 -0.06042037 0.03762315 0.04348769 0.06791745 -0.0009511134 -0.0076733814
-0.018550893 -0.07092643 0.02925002 -0.06833347 0.038711753 0.010578984 -0.047155246 0.02776014
0.06560722 -0.029465524 -0.076732665 -0.000728662 -0.03159128 0.07307695 0.00054955116 0.053779695
0.004480195 0.033608798 0.10008467 -0.062313367 0.084747076 0.023788502 0.05887849 0.013977854
-0.037910547 -0.055242095 -0.049987428 0.10562993 0.03176278 0.037213326 -0.07138481 -0.046219185
0.05636503 0.06243931 0.013706205 -0.030485177 -0.014151334 0.003801158 -0.01002473 0.011277641
-0.052903824 0.062230904 0.042480767 0.013240407 0.04590486 0.024550667 -0.07535091 -0.060538597
-0.04486116 0.034317426 0.091524005 0.0030824738 -0.090691306 -0.048734732 0.0154146645 0.045061678
0.08295833 -0.037033726 -0.010061077 -0.088319644 0.050575167 0.03820481 0.08745872 0.070702635
0.03220778 0.050865617 -0.03866451 0.037057575 0.027153876 -0.06769594 0.028839955 -0.0675588
-0.04877347 -0.03901639 0.13112606 -0.026197866 0.0064574312 0.054993834 0.07577223 -0.0042126845
0.07220763 0.030043032 0.029961672 0.05071326 0.012646813 -0.06262552 0.03568063 -0.043584272
-0.015984857 -0.058176614 0.031439215 0.0024004008 -0.013546241 -0.08444512 0.08065603 0.021204824
-0.0252547 -0.027351383 0.02451864 -0.022201028 0.005778718 0.0038035978 0.09830559 -0.04908494

input_embedding_layer.weight f4 [64, 2]
00000000: ed60 b33e 584a 8dbd 8f6d 203f c37a d4be
00000010: b1b9 57bd a575 073f 6756 1dbf 4943 f73d
00000020: 1359 b63e 4be4 fd3e ac96 febe 8a1e 05bf
00000030: f855 b13e f377 2fbf 07ce ae3c 2e94 cd3e
00000040: f15a d53e 9549 393f c35d 1bbf 7837 91be
00000050: a775 f9bd 7fa6 ddbe 8d67 86be cb75 143f
00000060: baf9 26bf 14ea 0a3f fccd 27bf 22bc e4be
00000070: 69f3 503e f5fd 173f 167e 913e 1d27 023f
00000080: 3d60 e03c a1bb 8cbe 506b 0100 6e3d 0100
00000090: 3a1d 05bc 705a 2abf 60be a4be caaa 833e
000000a0: 6b48 f33e 3c34 e33d 61c5 013f f3aa 9cbd
000000b0: 146e fb3e 49fc f73e ee62 bbbe 9e41 1f3e
000000c0: 6304 ea3e 09c8 b2be e64b 0fbf ad6b 26bd
000000d0: 8446 883e 9e1e bc3d 1138 3a3f 6f9f ec3e
000000e0: 65c4 6dbe 3d02 46bf 86a9 77bd 0929 44bf
000000f0: d174 b03e b735 abbe 52da ebbb e308 463f
00000100: fd46 45be db26 47bf ad32 c9bd 7be5 1abf
00000110: 43ad 0cbf 4c6f 5ebb 02ec 403f 26d2 b43e
00000120: 5a4f 80be 9b38 28bf 6dc4 04bf d0d8 2abf
00000130: aff2 87be 718e 3abf 113e 89be 01e8 2a3e
00000140: e56b 853e 060a a3be 33a0 023f fa3d ef3c
00000150: 24a6 e1be 4e6f ba3e b431 ebbe a9ce 473f
00000160: 784f 3abf b85c f1be b432 d7bb 52f8 c9be
00000170: bb6a 13bf 829a 2e3f 2c72 c63b 2e0b 1abf
00000180: c3a1 f6be 36ba b6be b68c d93e 614d 50be
00000190: d5df 92be c427 67bc dd00 9dbe 6774 01bf
000001a0: b2a9 1dbe 0eb1 2c3f 3a98 383e fe00 f7be
000001b0: 5002 413e 3d22 f9be ca6c c13c c5aa 10bf
000001c0: c3fe 0ebf cd52 513e 58ab b63d 8c53 d8bc
000001d0: 0d61 07bf b1dc 2c3e bc25 be3e b5d8 3ebd
000001e0: 2fd2 e2bd bc27 02bf 064b c4bd ccb0 4d3f
000001f0: 6244 403e 83fc 283e 8a4a 313f 482e 673e
0.35034886 -0.068989456 0.62667173 -0.4149991 -0.052667323 0.52913886 -0.61459965 0.120733805
0.35614833 0.49588236 -0.4972433 -0.51999724 0.346359 -0.68542403 0.021338476 0.40152115
0.41670945 0.723779 -0.60689944 -0.28362632 -0.121806435 -0.4329109 -0.26250878 0.5799224
-0.652248 0.54263425 -0.6554868 -0.44674784 0.20405354 0.5937188 0.28416508 0.5084093
0.02738964 -0.274869 1.30332e-40 1.13872e-40 -0.008124644 -0.66544247 -0.32176495 0.2571624
0.47516188 0.11093947 0.506918 -0.076497935 0.4910742 0.48434666 -0.36598915 0.15552375
0.45706472 -0.3491824 -0.55975187 -0.04063003 0.266163 0.09185527 0.727418 0.46215388
-0.2321945 -0.77347165 -0.060464405 -0.76625115 0.34464124 -0.3343942 -0.0071976567 0.7735731
-0.19265361 -0.77793664 -0.09824119 -0.6050641 -0.54951876 -0.003394085 0.7536012 0.3531658
-0.2506054 -0.65711373 -0.5186222 -0.6673708 -0.2655234 -0.728736 -0.26805165 0.16690065
0.2605888 -0.31843585 0.51025695 0.029204357 -0.44072068 0.36413044 -0.45936358 0.78049713
-0.7277751 -0.4714105 -0.0065673236 -0.39447266 -0.5758473 0.6820451 0.006056091 -0.6017331
-0.4817029 -0.35688943 0.42490166 -0.20342018 -0.28686395 -0.014108602 -0.3066472 -0.5056824
-0.15396765 0.67457664 0.1802682 -0.48242944 0.18848538 -0.48658934 0.023611445 -0.56510574
-0.55857486 0.20441742 0.089194 -0.026407026 -0.5288246 0.16881062 0.37138164 -0.046593387
-0.110752456 -0.5084188 -0.09584622 0.80347896 0.18776086 0.16502576 0.6925436 0.22576249

input_embedding_layer.bias f4 [64]
00000000: 5178 863d bcb6 203e 1ffa 3d3e 21ca bf3b
00000010: 9ba7 933e 28da 74be 52da f0ba 90ab 4b3e
00000020: ed63 13bd 6d96 503d dad8 0e3f 3d61 e63e
00000030: 28b1 a6ba f8a3 05bd 89fb 283f 6e4c 6ebb
00000040: 2f8b a63e 07f3 17bb 1e3f 963d fa10 4b3d
00000050: 8ce0 7b3c 9faa 803c 22e4 3fbb ce8b e8be
00000060: 348c d23a 9f52 00bf f9a5 2f3f 721b 2d3f
00000070: 56d4 51bd 0c6e 503c 7f06 c2be e51f fbbb
00000080: 6926 4b3e f849 d53d e01e e3bd d1ce 053f
00000090: 763d ac3e 7c60 fb3c cf81 80be 9722 333f
000000a0: 6e88 db3e 8e9b f33e 90d3 f33e 317c f9be
000000b0: 3799 f83e e920 953c 47c9 89be 7fed 173e
000000c0: 1122 9f3c d78a a9be 6121 fb3c 7042 dfbe
000000d0: cd8a debe b7d2 b4b9 4a6f 3cbe a97d 973c
000000e0: 98a3 143f 2bb4 033f 60f2 023f 5ff6 f33b
000000f0: ac63 e1be 3ef6 6bbe 43ed aa3d dd43 033f
0.06565917 0.15694708 0.18552445 0.005852953 0.2883881 -0.23911345 -0.0018375611 0.19889665
-0.03598397 0.050924707 0.5579964 0.44996062 -0.0012717592 -0.032627076 0.6600881 -0.0036361474
0.32528064 -0.0023185627 0.073362574 0.049576737 0.01537336 0.015706358 -0.0029280265 -0.45419163
0.0016063512 -0.5012607 0.6861263 0.67620003 -0.05122789 0.01272155 -0.3789558 -0.0076637142
0.19838871 0.10414499 -0.11089873 0.522687 0.3364064 0.030685656 -0.25099036 0.69974655
0.42877525 0.47579616 0.47622347 -0.48727563 0.48554394 0.01820417 -0.26911375 0.14836691
0.019425424 -0.3311374 0.030655565 -0.43605375 -0.43465272 -0.0003448927 -0.18401828 0.018492537
0.58062124 0.5144679 0.51151085 0.007445141 -0.44021356 -0.23043153 0.08346035 0.51275426

output_layer.weight f4 [5, 128]
00000000: 4960 1cbc eade 1bbd 8033 0a3d b398 563c
00000010: 608b 06be a237 613d 992e 643c a773 46bd
00000020: fce0 9fbd 8cad bbbd b575 7ebe a425 473e
00000030: 71ec a3bd 69be 2ebd 576e c53c 5784 763e
00000040: 4b73 2fbe a39b 51be 0527 4ebc 400e 99bd
00000050: 9977 4d3e 9288 a6bd add4 453c 9947 37bd
00000060: 46f2 44be a6d7 9ebd d019 38be a029 92bd
00000070: 2214 f53b f028 d7bd f558 81be 5148 1d3c
00000080: ee3e b5bc d357 353e 89e2 b7bd 91cc bcbd
00000090: a2ae 13be 9573 883c a293 cabd 990f 0dbd
000000a0: c7f3 f13d 3c57 e4bd 5546 cbbd 7370 413e
000000b0: 5af3 5bba 456a 893d e600 b03d 7049 033e
000000c0: ba1c 48bc e85e f0bb 6702 d73c e991 afbd
000000d0: 3c57 afbd cd56 05bd 9cda 453d 50d8 84bd
000000e0: 49dd a2bc 7c3b 493e 0cde b43d 4a1d 8d3c
000000f0: 9ea7 c53b 258d 8abd 642f 1abe df3f a0bd
00000100: 2104 e83d 81b3 2bbd 360d 8dbc 5761 6d3c
00000110: e469 c23d 1574 1fbe fc65 bbbd 20bd ac3c
00000120: 27ff 533d c9a0 633d 930e c13c 5a32 5c3c
00000130: 6621 363d ee34 b03c 2bfa 5f3e df76 e7bd
00000140: 2d3d 6fbd ae0a d4bd 8ca9 063d 27e6 1a3d
00000150: bc7c 563e 5e88 11be 7b0c 483e 5b4d 11be
00000160: b8e9 9ebc f257 a7bd 5484 b33c 95bb 353c
00000170: 3f92 7a3c 8646 143b f830 413a ecf9 a93d
00000180: 4518 86ba 16b1 3c3d da27 31bd 6ebc a5bd
00000190: edfe 893d 0f7a ef3b 33bf d83d 0f5b 2dbe
000001a0: 192b 4c3d e8e1 d2bd 04b3 233c 8e6b 9d3c
000001b0: fa78 003e e16c 0abe ceb0 193d 6acd 283e
000001c0: d18f edbd c416 2a3e dda9 543d 90c0 2b3e
000001d0: f61c 733c ea50 b43d fe50 f5bd 5771 da3d
000001e0: 89f9 f8bd 2854 c73d c59a 22bd b2e8 503a
000001f0: 5562 303e fb77 cc3b bb79 c63d bfd6 c63d
00000200: e4e6 e33d 0346 28bd d74f 893d 7e48 fb3a
00000210: 47da cc3d 7a48 44bc ca2f 0c3e da2a 55be
00000220: 77e1 173c 4143 adbc 953d 0ebd 6b5f e4bd
00000230: 5058 d63d 3e88 d1bd c1e4 a03d c45c d4bd
00000240: 4a7e 113e 5035 f43d f75a d13c 5172 85bc
00000250: 8823 a3bd 120d 88bd fe64 283d 1393 2c3b
00000260: 7c24 af3d 21f5 bc3d 2884 1fbd 33f2 f0bd
00000270: 1e15 09be 1b1d 503d 3e3b e23d 03fe 6a3c
00000280: f4ce 02be c586 08be 22f7 e23d 7815 debc
00000290: 2e09 6c3d 0626 e93c 1b07 09bd 28cc 023e
000002a0: e62e 133e acde 8cbb 86ac 96bd 1a6e a1bd
000002b0: 0428 01be be4a 24bc ffc9 1bba 0899 bb3c
000002c0: 7c83 55bd b302 313d 8e15 813d 8dfb e53c
000002d0: fcaa 583e 3531 823d ebbe a5bc 6a0b dbbd
000002e0: 36e1 48bc efce 15be 15a0 19bd 6e93 8cbc
000002f0: 5ed3 edbd 0a90 07be bf83 cebb 370a fbbc
00000300: 77a9 693d 22ff aabd 4b7b 3c3e f392 4e3d
00000310: 1c1f d6bd b38e 223d 6149 9dbd 86ae 933d
00000320: 5ccd d03d 8fc5 c03d bd6a 0bbd 983e b6bd
00000330: cbfd 1b3c 18e5 cfbd 5485 dbbc e098 5fbd
00000340: 37a8 a63c 5a6e 5f3d 5b92 d13d 3b5b 9dbd
00000350: df68 27bd cea1 7ebd 7384 0dbb 7d36 673d
00000360: 5902 a9bd be69 193e 0123 8a3d e410 50bd
00000370: 763b e0bd de4a e23c 7920 9ebd 5f14 ebbd
00000380: 706a 10be d6b5 203e b12e 103c aa4f 7c3b
00000390: d0fc a13d d949 ce3d a79c b13d 32e9 373d
000003a0: f3d6 f0bb aeac 42bd f872 d43c eb38 443d
000003b0: c282 4abc 5a77 fc3d d0a6 8f3c ec11 edbc
000003c0: f221 c23d 346b 06be aa29 28bd 931c 8d3d
000003d0: a055 ccbd 6709 7cbd c28f f9bc b0ec d9bb
000003e0: 05e1 dc3d 39ed 3b3d 8170 5e3c bde2 b1bc
000003f0: 0499 a43d 2476 8d3c 5d85 eb3d 90a1 053e
-0.009544441 -0.038054384 0.03374052 0.01309793 -0.13139105 0.054984696 0.013927125 -0.04845014
-0.07806584 -0.09163961 -0.24849589 0.19447953 -0.08004082 -0.042662058 0.024100466 0.24073921
-0.17133825 -0.20469527 -0.012582545 -0.07473421 0.20065154 -0.081315175 0.012074632 -0.044746015
-0.19233045 -0.077559754 -0.17978597 -0.071368456 0.0074792067 -0.10505855 -0.2526318 0.009599761
-0.022124734 0.17709284 -0.08978755 -0.092187054 -0.14422086 0.016656676 -0.0989144 -0.034438703
0.11814075 -0.11149451 -0.09925524 0.18890552 -0.0008390449 0.067097224 0.08593921 0.12820983
-0.01221388 -0.0073355325 0.026246263 -0.08572752 -0.085615605 -0.032553483 0.048304185 -0.06486571
-0.019880908 0.19651598 0.088314146 0.01722588 0.0060319444 -0.067652024 -0.1505714 -0.078246824
0.113289125 -0.041919235 -0.017218214 0.01448854 0.09492853 -0.15571626 -0.09150311 0.021086276
0.051757004 0.05557326 0.02356652 0.013439739 0.044465445 0.021509614 0.21872775 -0.1130197
-0.05840795 -0.103535995 0.032876536 0.037817147 0.2094602 -0.14212176 0.19536011 -0.14189665
-0.019398555 -0.08171071 0.021913685 0.011092086 0.015293657 0.0022625043 0.00073696626 0.08299622
-0.0010230622 0.04606732 -0.043250896 -0.08092581 0.06738076 0.0073082517 0.10583343 -0.16929267
0.04984579 -0.102969944 0.009991411 0.019216325 0.12546149 -0.13518097 0.03752213 0.16484609
-0.115996964 0.16610247 0.051919807 0.16772676 0.014838448 0.08804496 -0.11978339 0.10666149
-0.1215697 0.097328484 -0.03969838 0.00079692446 0.1722501 0.0062398887 0.09691187 0.09708928
0.11128023 -0.041082393 0.06704681 0.0019171385 0.100025706 -0.01198017 0.13690105 -0.20817128
0.009270064 -0.021150233 -0.034726698 -0.11151012 0.10466063 -0.10231064 0.07856131 -0.10369256
0.14208332 0.11924231 0.02555607 -0.016289862 -0.079657614 -0.06643118 0.04111194 0.002633278
0.08551881 0.09226442 -0.038944393 -0.11764946 -0.13386962 0.050809007 0.11046456 0.014342788
-0.12774259 -0.1333266 0.11082293 -0.027109846 0.057625942 0.028460514 -0.033454042 0.12773192
0.14373359 -0.0042990055 -0.07357125 -0.07882328 -0.12612921 -0.010027586 -0.00059428805 0.02290012
-0.052127346 0.043215465 0.06302939 0.02807405 0.21158975 0.06357042 -0.020232638 -0.106955364
-0.012260726 -0.1462972 -0.03750618 -0.017160144 -0.11612581 -0.1323854 -0.0063023265 -0.03064452
0.05704638 -0.08349444 0.18406408 0.05043311 -0.104551524 0.03968687 -0.076800115 0.07211022
0.10195419 0.09412681 -0.03403734 -0.088986576 0.009520958 -0.10151118 -0.026796974 -0.054589152
0.020343883 0.0545486 0.10232993 -0.076834165 -0.040871497 -0.062166028 -0.0021593838 0.05644845
-0.08252401 0.14981744 0.06744958 -0.05079736 -0.10948841 0.02762359 -0.077210374 -0.11478495
-0.14103103 0.15694365 0.008800195 0.0038499632 0.07909548 0.10072679 0.08672457 0.044900127
-0.0073498427 -0.04752796 0.025933728 0.047905844 -0.012360277 0.12327452 0.017535597 -0.02893921
0.09479131 -0.13126832 -0.04105536 0.06890216 -0.09977269 -0.061532404 -0.030464057 -0.00665053
0.107851066 0.04588053 0.013576628 -0.021714563 0.08036998 0.017268248 0.115000464 0.13049912

output_layer.bias f4 [5]
00000000: 1ec3 0dbd b43f 8a3c 45f0 8dbd 9b49 64bd
00000010: 0da1 913d
-0.034609906 0.01687608 -0.069305934 -0.05573426 0.07110796

sum f4 [512, 64]
00000000: de87 a53d 08bc 973e a2e2 8f3d ab78 1d3e
00000010: e0eb 333e 78d1 5b3d 84fb 853d 08c6 4c3d
00000020: db2d 183e f5c5 4c3e 011b 6b3e 160b 8d3e
00000030: a8a5 b63e 170a a53d 7451 d43e 8de1 9a3d
00000040: f0e5 943d 583c 6a31 bc3a 8f3c 3d97 813d
00000050: 74de ee3d 7b9b 193e b1f6 313e 755a b73c
00000060: ced6 053e 5fba 6d3d 81f5 d83e 495a 553f
00000070: 9af6 673c 8618 1e3c b4cc 093d a800 f03d
00000080: f679 7f3d f013 bb3c 8855 e13d 8dda 1d3f
00000090: 6406 023e de6c 953d e44d 1a3c a0a8 bd3e
000000a0: 4cc2 3c3e c7b9 b83e 5cba 933e 8609 0c3e
000000b0: b73e 0c3f 6abe 5f3b 36ea 363e 1a18 ea3c
000000c0: 6878 4f3d 7eac 743d e9c5 c23c 045e 3d3c
000000d0: 65d8 443d f07c a53c e00d 313c 7519 f43b
000000e0: 6e2f c63e 9090 203e a400 ac3e a991 903d
000000f0: 9dc8 9a39 a294 b13d cb70 b93c bc8a 1f3f
00000100: 117a 923b 2bcf b83c 2d73 ed3d f44e 803d
00000110: bc6c ab3d 9ab3 ab3b c072 503c 5a94 7f3d
00000120: ca6f 953d a9af 983c 4b9f 273d a0d9 5c3e
00000130: 2ec4 873e 7faa 213c adee 493e db20 223d
00000140: 3486 703c 4d7f 242e f8b4 573c daf2 573d
00000150: 264e 293b 241c 983b d80b c23c 8c08 313c
00000160: b448 013c d26c c73b 725f 733d 9c53 ca3d
00000170: 1e3f 003c 4213 653c beb6 1a3b 1f34 423e
00000180: e661 a03c ca3c 4b3c 1364 9a3c 0079 733d
00000190: 22c6 023d c025 4d3c 26ad a03b bc5b 0b3e
000001a0: 8b73 f73c 9d90 0b3d d38a 413e 3831 0b3e
000001b0: 7460 3f3d 1c2d 603b c5cf 7f3e 9728 603c
000001c0: 8c8e e63b 4278 e93a 7b93 0a3c ba5e db3a
000001d0: cd77 c73d 300d d23b 8049 903b d8fb 043c
000001e0: eda1 323e f12b e83c ece1 213e b637 1a3b
000001f0: 241a c53a bc3e 173e e282 d13b d802 323d
00000200: 2c76 f93c f3e5 6e3e 37fe 213d 357d 2b3e
00000210: f76c ff3c 3507 9c3d ceb6 953e 4a01 b73c
00000220: a8ff e23c d96b 0f3e 3837 103e 77f9 373e
00000230: 7e77 5b3e 5488 143e e090 833d a601 863c
00000240: eca3 543d 4464 332f 3451 1b3e f176 993d
00000250: 5e18 a43c eedd 5b3d 3b00 433c c4a3 0b3d
00000260: 9db3 103e 1610 923d c8a7 3a3d 4a6c be3d
00000270: 525f 273e b710 573e 4818 7c3d 38ba 9a3d
00000280: 56eb 733e 1bcf 0a3e 7d98 f53d f491 1d3d
00000290: b764 503e 815f 393e c8f0 d33d 36c7 073e
000002a0: 8036 f23d 5c92 883d d3b7 153e 44dc 003e
000002b0: ca48 793e be0c 673d 92b6 403e e4bb f53d
000002c0: fab1 c33d 1efe 353d 4e90 0d3d eba9 eb3c
000002d0: 66d8 9f3d a593 f03d c7fd d33d d6c7 fb3d
000002e0: f46e b73e ff30 eb3c 3340 863e 2582 c33c
000002f0: 8fa3 043d 5404 dd3d c3f3 123b 6d9e 8c3d
00000300: 04bf a939 179b e73a 0ada 9f3b 39bc 4a3c
00000310: 7010 853b 1eed c73b 25b5 da3a fed7 203b
00000320: 2d63 c63a d575 493c 9d68 d43b 775b 773c
00000330: 3d2c 903c b334 783c 8e1c 283c e311 703a
00000340: a617 a93a 20ae 4332 fe4c f53a 87a9 9c3b
00000350: ada9 8039 5080 d039 e72a 583a 0f37 1b3b
00000360: 2bdf 1f3a 5aea c13b a5ee a33b eeb1 fa3b
00000370: 861e 2b3b dfe4 c93a 1063 3c39 9b75 4a3b
00000380: ecf8 d93b a3a1 293b 538d 023c 250e 5c3b
00000390: a013 043c ecf5 8e3c 7049 643b 5fee 9d3c
000003a0: 5c15 0d3b 337d 203b 4cea a13c b316 063c
000003b0: 0a7a 0b3d 8d64 b839 2c0b 483c 1dfd fc3a
000003c0: b44d 083c e107 2739 6d12 003b 8630 0c3b
000003d0: 6ee3 033b 858b 213a 15e2 c739 d013 7f3a
000003e0: 6af5 fb3c af6c 403b 7a44 043d df57 4439
000003f0: 3d21 d839 b8d7 0e3b 130c a739 c27e 5f3b
0.08082555 0.29635644 0.07025649 0.15378062 0.17570448 0.05366656 0.065421134 0.049993545
0.14861242 0.1999739 0.2295952 0.2754752 0.3567326 0.08058565 0.41468394 0.07562552
0.072704196 3.4085783e-09 0.017484061 0.063276745 0.11663523 0.15000717 0.17379262 0.022382
0.13070223 0.058039065 0.42374805 0.8334089 0.0141579155 0.0096494015 0.033642486 0.11718875
0.06237217 0.022836655 0.11002642 0.6166161 0.1269775 0.072961554 0.009417985 0.37042713
0.18433493 0.36079237 0.28853118 0.13675508 0.54783195 0.0034140595 0.17862782 0.028575946
0.050651938 0.059734814 0.023776012 0.01155806 0.048057932 0.020201176 0.010806531 0.007449324
0.3870806 0.15680146 0.3359424 0.070590325 0.00029522637 0.086709276 0.022636792 0.62321067
0.004470118 0.022559723 0.11594234 0.06265059 0.08370349 0.005239916 0.012722671 0.06239734
0.07296713 0.018638449 0.040923398 0.21567392 0.2651686 0.00986731 0.19719954 0.039582115
0.014680434 3.740235e-11 0.013165705 0.052721836 0.0025833934 0.0046420265 0.023687288 0.01080526
0.007890869 0.0060859704 0.059417196 0.098792285 0.007827548 0.013981642 0.0023607458 0.18965195
0.019577932 0.01240463 0.018846547 0.059441566 0.031927235 0.012521207 0.0049034534 0.13609213
0.030206462 0.03407346 0.18900613 0.13592994 0.046722844 0.0034206575 0.24981602 0.013681552
0.007036036 0.0017812329 0.008458014 0.0016736605 0.09739647 0.0064102635 0.004403293 0.008116685
0.17444582 0.028341265 0.15808839 0.0023531741 0.0015037698 0.14770025 0.0063937763 0.043459743
0.030451857 0.23329906 0.03954908 0.16746981 0.031179888 0.07618562 0.2924103 0.022339482
0.027709797 0.14005984 0.14083564 0.17966257 0.21432301 0.1450513 0.06424117 0.016358208
0.05191414 1.6315577e-10 0.15167695 0.074933894 0.02003115 0.053678446 0.01190191 0.034091726
0.14131017 0.071319744 0.045570165 0.09297998 0.16344956 0.2100247 0.061546594 0.0755505
0.23820242 0.13555567 0.119919755 0.03846927 0.2035092 0.18102838 0.1034866 0.13259587
0.11826801 0.06668541 0.14620905 0.12584025 0.24344173 0.056408636 0.18819645 0.11998728
0.09555431 0.0444318 0.034561448 0.028767547 0.078049466 0.11746911 0.103511386 0.12293975
0.35826838 0.028709887 0.26220855 0.023865769 0.032382544 0.10791841 0.0022423125 0.06866155
0.0003237651 0.0017670122 0.004878287 0.012373977 0.0040607974 0.0061012646 0.0016686065 0.0024542804
0.0015135758 0.01229616 0.0064821974 0.0150974905 0.01759922 0.015149283 0.010260714 0.0009157939
0.0012900725 1.1390085e-08 0.0018714962 0.0047809514 0.0002454048 0.00039768452 0.0008246139 0.002368394
0.0006098623 0.0059178295 0.005002814 0.0076506054 0.0026110723 0.0015403292 0.00017965981 0.0030892852
0.0066519883 0.0025883697 0.007968265 0.0033577767 0.00806132 0.017451249 0.0034833811 0.019278703
0.0021527624 0.0024488687 0.019765042 0.008184123 0.034051932 0.0003517013 0.012209695 0.0019301508
0.008319307 0.00015929296 0.0019542233 0.0021391227 0.0020124572 0.00061624526 0.00038124682 0.00097304303
0.030756671 0.0029361655 0.032291867 0.00018724751 0.00041223495 0.002179606 0.00031861718 0.0034102653

sum f4 [512, 128]
00000000: 54e5 323d eb26 f93c f562 763b d02f f73c
00000010: c08b 003e 0889 b83d 624a b83c bd5a 543b
00000020: 9fe8 b23d 026e 903d 0e82 b73b 67ff dc3b
00000030: 97d9 4a3c da3a c23d b754 813d 254c da3b
00000040: 4358 1f3c ed5e b33c 88d4 b13c efd4 c73d
00000050: 75ed 003c a80d 463e 3e56 263d bc3b 713d
00000060: 2114 993b 206f 0b3b 07c9 863d 4ea0 c63a
00000070: dfff 2c3c 2a0e 213c cf81 0e3c 3ea0 7e3d
00000080: 1ba9 063c aad7 603b b6e0 a13d 6f67 0b3b
00000090: 2c08 a13a 698b 4c3d 3208 dc3d 2bc9 d03b
000000a0: c597 9a3c 45ed 5f3d 8412 4e3e b084 be3c
000000b0: 86cd 423d fea3 f53c 8888 a73c ece7 843c
000000c0: 94a8 a73d 9cbf 813d f3cc ed3a 94ad 623e
000000d0: 1d5d bf3a d58a 643d 5405 433c 2954 253c
000000e0: da8a 383d ffd5 0f3c 9dcd 913d b757 f63c
000000f0: 60d1 5c3e 38d4 bd3b 4007 b63b 7cb5 bf3d
00000100: 8666 6c3c c2b5 6f3d d6f4 303b a047 1f3d
00000110: 6a9e 663c a3c2 283e aabf aa3b a0e7 943b
00000120: 048a bc3d 3962 af3b 1ce7 a73d 5333 2b3e
00000130: e71b 7e3c b7f4 1a3b 403c b73b 6cab 813c
00000140: f159 4c3c b569 a33d 3508 5d3b 7828 1f3c
00000150: d6fe 633d e099 3c3b 0160 4b3e cd7d 333e
00000160: 6be3 243d 8765 413c 9418 973c 701a 883d
00000170: 0c87 033c b49e fa3a 0eab 613d 824a 9c3d
00000180: 3d6f d13a 17c2 9c3b bdeb b83d b7db 973d
00000190: 6c73 903c 7a33 a93d 3fd3 123e 3b74 353b
000001a0: ab61 6a3d 0bdc 4b3e 0c57 db3d 24a7 f53d
000001b0: 7a87 733e fb0d 943b afb3 873d d28f 473d
000001c0: e0f7 403e 396d 513c 9f57 343c a4cd 043d
000001d0: ff17 ef3b 32b5 bb3b 295a e03d dd39 de3d
000001e0: ec3e 883c 6a80 783c cf8e 433d 0f76 2b3d
000001f0: 5197 1e3c 0772 dc3c 01ad a93d 31da ea3b
00000200: 6006 1e3c 8dc5 ef3b fdff 463a f3ec b33b
00000210: a076 0d3d 033c f23c 892f 413c 41b4 e63a
00000220: fe32 6f3c 1843 b93c b857 7139 d831 7d3b
00000230: fcb6 1a3c 8b43 e63c 10f6 b83c deb9 043b
00000240: 6231 183c 06d9 943c 7437 6c3b 9c98 943c
00000250: df30 e73b af40 413d 6d8d 543c 96a3 273c
00000260: d4c8 4b3a c3df 9339 5ce4 b03c 5354 9139
00000270: f807 8e3b 13f5 d63a eafb 0a3c 0cf3 203c
00000280: a640 0f3c f977 903a fdfa 813c 607f 6139
00000290: 04f7 9e39 5378 033c 4c3b d23c 5787 ae3a
000002a0: 7fbd f73b 7dd7 903c 0a7b 3d3d eae5 aa3b
000002b0: 470d 893c 40ba ac3b 3601 5f3b 01a0 123b
000002c0: f97d 673c 5f6e 1a3c 70e8 773a fcc6 3c3d
000002d0: 33d3 c73a d651 853c 8f35 0d3b c0d9 3f3b
000002e0: 8d54 e03b 9e26 e53b ce58 a83c a55b a93b
000002f0: 0354 4f3d eb1c 1b3b 9786 ba39 7a96 ac3c
00000300: f1ad 3e3b 32b0 9d3c 8d69 0b3b 87da fe3b
00000310: b1da 553b d6e4 2c3d 3bf4 b23b a136 3f3a
00000320: fc6a 843c 2c2f ac3b 92af 6b3c 2007 143d
00000330: 3469 323b 8318 393a b397 c739 5e95 2a3c
00000340: acfc 073b 9c20 c93c 075a 4b3a 4a4c 0f3b
00000350: 7632 9d3c fec5 4a3b a4bc 463d 9952 343d
00000360: 663f 2c3c c011 d83b 737f 703b 1142 ae3c
00000370: fd7b 563b be07 e03a 8a71 333c 0da1 d63c
00000380: 01f7 2a3b 99cf 733b c7b1 843c a127 523c
00000390: 0daa 673c 6063 cc3c f4c0 243d b863 603b
000003a0: e7be 923c 4e99 3e3d 7fec 9e3c 0b19 af3c
000003b0: f208 323d 3a76 7a3b 35d8 843c d855 303c
000003c0: 7c78 3d3d bd6d 863b e32b 4b3b feda d63b
000003d0: f0c9 aa3b 8447 443a 9a24 bf3c 8c89 f13c
000003e0: edb6 543c 3322 573b a23c da3b b6ba fe3b
000003f0: 8192 383b eeb3 ba3b f8d9 633c 7203 043c
0.043675736 0.030414065 0.0037595604 0.030174166 0.1255331 0.09010512 0.022496406 0.0032402717
0.08735775 0.07052232 0.0056002205 0.0067443135 0.012380979 0.09483881 0.06314986 0.006661909
0.009725633 0.02189585 0.021707788 0.09757411 0.007869114 0.19341147 0.04060959 0.058894858
0.004671589 0.0021275952 0.06581312 0.0015153976 0.010559051 0.009830037 0.008697941 0.062164538
0.008219029 0.0034308233 0.07904188 0.0021271368 0.0012285761 0.04993764 0.10743751 0.0063716373
0.018871197 0.054669637 0.2012425 0.02325663 0.047559284 0.029985424 0.020450845 0.01622387
0.081864506 0.06335375 0.0018142745 0.22136527 0.0014599893 0.055796463 0.011903126 0.010090866
0.045054294 0.008779048 0.07119296 0.030071123 0.21564245 0.0057931207 0.0055550635 0.09360787
0.01442874 0.058522947 0.0027001402 0.038886666 0.014075855 0.16480498 0.0052108364 0.0045442134
0.09206012 0.005352285 0.081983775 0.16718797 0.015509582 0.0023644397 0.005591899 0.01582881
0.012472616 0.079791464 0.0033726816 0.009714238 0.055662952 0.002877824 0.19860841 0.17528458
0.040255945 0.011803991 0.018444337 0.066456676 0.008027803 0.0019120784 0.05509477 0.07631399
0.0015978586 0.0047838795 0.090293385 0.07414954 0.017633162 0.082617715 0.14338396 0.0027687687
0.05722205 0.19908158 0.10709962 0.1199477 0.23782149 0.004518268 0.06626069 0.048721142
0.18844557 0.012782388 0.011007219 0.032422677 0.0072965617 0.0057283873 0.10954697 0.1085088
0.016631566 0.015167335 0.047743615 0.041860636 0.009679631 0.026909841 0.08284951 0.0071671237
0.009645075 0.007317251 0.0007591246 0.005490893 0.034536958 0.029569631 0.011791118 0.0017601327
0.01459956 0.022615 0.00023016229 0.0038634446 0.009443041 0.028108379 0.02257827 0.0020252387
0.0092891175 0.018169891 0.0036043795 0.018139176 0.0070553864 0.047180828 0.012973172 0.010231873
0.0007773761 0.0002820474 0.021593265 0.00027719382 0.004334446 0.0016399942 0.008482913 0.009823572
0.008743441 0.0011022083 0.01586675 0.00021505123 0.0003032015 0.008024293 0.02566304 0.0013315481
0.0075604315 0.017680878 0.046259917 0.005215396 0.016729964 0.005271226 0.0034027821 0.0022373202
0.014129155 0.009425729 0.0009456938 0.046088204 0.0015245437 0.016274374 0.0021546816 0.0029274076
0.0068460167 0.006993129 0.020550158 0.0051683956 0.05061723 0.002366836 0.00035576962 0.021067847
0.0029095376 0.019249056 0.002127263 0.0077775153 0.003263157 0.042210422 0.0054612434 0.0007294212
0.016164295 0.0052546468 0.014385121 0.036139607 0.002722335 0.00070608425 0.00038069263 0.0104115885
0.002074997 0.024551682 0.00077572506 0.002186554 0.0191891 0.0030940766 0.048519745 0.044024084
0.010513162 0.006593913 0.003669706 0.021271737 0.0032727711 0.0017092151 0.010952363 0.026199842
0.0026087167 0.0037202595 0.016198052 0.012826831 0.014139664 0.02494973 0.040223077 0.0034239125
0.017913295 0.04653292 0.01939988 0.021374246 0.043465562 0.0038217441 0.016216377 0.010762654
0.04625748 0.0041024373 0.00310015 0.0065568676 0.005212061 0.00074874633 0.023332883 0.029484533
0.012983066 0.003282678 0.00666006 0.0077737225 0.0028163495 0.005697719 0.013906948 0.008057462
