model/VANILLALSTM/LSTM/VANILLALSTM_lstm_model_22.tar (torch, 809783 bytes, 16 tensors)

cell.weight_ih f4 [512, 64]
00000000: 82ef 17bd a213 203d af0a b2bd 1d3e 9cbc
00000010: 9366 c63d 0f66 3cbd 1d7c 3abc 8f33 8a3c
00000020: ca82 80bc 40f6 2fbd d6c9 e53c ff71 223d
00000030: a53b 92bd dd1c ab3c 7365 9cba 5c29 c1bb
00000040: 7e1c 683c d95d 0100 da05 ba3c db4b fd3b
00000050: 49bd 7b3c f909 283d fced fd3c f768 f3bc
00000060: acb7 12bc e512 4bbb e27d 1d3c ba22 8fbd
00000070: e521 3c3d 0a66 8a3d d294 3d3d 7a26 04ba
00000080: 1131 01bb e25e 173d 54bf 59bd 0f08 0ebd
00000090: 7dfd 483d cdf9 8fbc e3fd 953d 1684 083d
000000a0: 0750 873c 2738 6fbc 65de 81bc 4529 be3b
000000b0: 03c4 4dbd 19b6 bb3d 9d3e 4f3b 9471 babb
000000c0: 5d2b 753d de34 ad3c 53c5 6d39 4ff8 893c
000000d0: 6bfd 533c 22f1 043d c6f0 193d d524 523d
000000e0: 26c2 cab9 d8fe 49bd 1ff2 083b 4363 383b
000000f0: 8837 f43d d489 a13c 76cf f3bc 405c ab3d
00000100: 375a e2bc 90a4 66bd 282a 70bd 03b8 71bb
00000110: 6b95 933c 69ad d53c 9d79 edbc 6c3b 8c3d
00000120: 37f2 90bd fa6c 4abd 79ec 543d 827b b83d
00000130: 66a9 1abd 3771 a53d b3e7 233d a20f e2bd
00000140: 7c5f 2a3c 9f94 0080 b3ea fd3c 8f52 e73c
00000150: c556 69bd 4bc9 3dbd 80d9 fabc 0215 3c3d
00000160: a1d0 3cbd 2a5c 0b3d 5c56 c13d 5c60 04bd
00000170: a01d b7bb c99d ddbc fc74 35bc e36e 0dbe
00000180: 84f0 e4ba 8c75 6ebc a8f3 2d3d 300f 18bd
00000190: 0787 54bd 4194 863d 9e86 f23c 2a40 af3d
000001a0: 6e3e 56bc 464f 8dbc f654 bc3d aeea 6b3b
000001b0: 29b4 8eba 27c6 06bd 7c2d 263d 3e98 63bd
000001c0: 866e bbbc 9b57 f3bc 1685 85ba 1db1 b9bb
000001d0: 671f 1ebc 5cb5 31bd d88e d7bc 7370 35bc
000001e0: 4062 043d c49b 9a3d 0c6a bf3d d072 6ebd
000001f0: 4d9e 063c 37b5 cabd 0010 553c 30b5 bb3c
00000200: 0ca4 0f3c 5c66 6ab9 b4a5 0abd b94f 2a3c
00000210: d0ce 4d3d ede8 083b 11d3 183c fcd0 bdbc
00000220: 3ee3 5dbd 3588 a6bb e4a1 0a3e 4f15 413d
00000230: 6a2d 193c 053d 08bd 8e65 3dbd 9a41 01bd
00000240: 8445 143c dfdf 0080 fbdf e2bc 1da1 f8bc
00000250: fe2c 19bd 0078 9bbc 98ed 48bd 05da 30bc
00000260: fe4b 86bc bd5b b5bc 7791 113d 60dc 3f3c
00000270: 4c31 61bb f710 823b 641e c6bc 2855 62bd
00000280: 1115 7e3d 9cbd 483c 9903 e8bc c040 acbd
00000290: 6dd3 063e 3dca ca3b aaa2 4bbd 081a 1b3d
000002a0: 63a7 81bc e694 2dbd e500 b23c 7c33 dbbc
000002b0: ea94 943b 227f 02bc 2f70 ddbc 4a2a 2fbc
000002c0: 399c 07bd bc78 67bc b963 1e3d 0acd d03c
000002d0: b6bb 943d 2b6f 44bd 4233 14bd e27d af3c
000002e0: fce8 f8bc 3312 14bd b4f1 f03c 7473 ffbc
000002f0: f0ba 0d3d 59ba c33c f3d2 c63c f3d7 4e3c
00000300: c6da 9f3d b4cf 0d3e a1f6 4c3d 00a8 6fbd
00000310: 1da7 a03d 44e4 6ebc fc27 7bbc 4c18 923d
00000320: 5ea4 b0bc 80a1 693c 7ed4 ec3d f024 8fbd
00000330: 49d8 403d 7ba4 033a 59bf 1b3b c791 efbc
00000340: a48b 933d 2e7b 0180 52e5 0c3d 4fe0 e3bc
00000350: d67b 263d 61fb 3f3d d0ed d4bc 8f3d 8fbc
00000360: 0d78 503c 2573 eb3b 1ba6 d83d 3c87 7d3c
00000370: 5fa6 dcbc f96e f0bb b6eb 193c 2e00 edbc
00000380: 82fe 1e3d 408b 943c bc59 aebc bada 113e
00000390: 2a41 793d 14aa 933c 0fee acbc 7d07 37bd
000003a0: e4c8 113e accd 093e 741a a1bd bea1 f4bc
000003b0: 11cf 10bd 0fe1 b3bc c594 b4bc 7dae 253c
000003c0: 6767 46bd 7c36 453c 8774 8fbd e7e9 97bc
000003d0: cfd7 f5bc c756 b7bc 106d 42bb e846 f7bc
000003e0: d797 51bd 16bc 7a3d 131b 803d f2db 0d3d
000003f0: 8803 d8bc b459 d3bc 1682 113d 91aa cd3d
-0.037093647 0.039081223 -0.08693444 -0.019072587 0.09687533 -0.04599577 -0.01138213 0.016870288
-0.015687365 -0.04295945 0.028050344 0.039659496 -0.071402825 0.020887787 -0.001193209 -0.005894823
0.014166949 1.25502e-40 0.022707868 0.00772999 0.015364953 0.041025136 0.030997269 -0.029713137
-0.008954924 -0.0030986604 0.009612532 -0.069890454 0.04593076 0.06757744 0.046284504 -0.0005041134
-0.0019713084 0.03695572 -0.05316098 -0.034675654 0.04906987 -0.017575169 0.07323816 0.033329092
0.016517652 -0.01460079 -0.015853116 0.0058032596 -0.05023576 0.09165592 0.0031623014 -0.005689809
0.059855808 0.021143373 0.0002267559 0.016842036 0.0129388375 0.032456525 0.037583135 0.051304657
-0.00038673094 -0.049315304 0.0020896269 0.0028135336 0.11924654 0.019719042 -0.029762011 0.08367205
-0.027630908 -0.056309283 -0.058633953 -0.0036883361 0.018015584 0.026083665 -0.028988654 0.06847271
-0.07077449 -0.049420334 0.05198333 0.09007932 -0.037759207 0.08078235 0.040015887 -0.11038138
0.010398742 -5.3315e-41 0.030995702 0.02823761 -0.056967515 -0.046334546 -0.03062129 0.045918472
-0.0460974 0.03402344 0.094403 -0.032318458 -0.0055882484 -0.027052777 -0.0110752545 -0.13811831
-0.0017466699 -0.014554393 0.042468697 -0.03712386 -0.051886585 0.06571246 0.029605206 0.0855716
-0.013076408 -0.017249715 0.091958925 0.0035998034 -0.0010887432 -0.032903817 0.04057072 -0.05556511
-0.02287985 -0.02970486 -0.0010186757 -0.0056668655 -0.009651042 -0.04338585 -0.02631323 -0.011074173
0.03232026 0.07549241 0.09346399 -0.058214962 0.008216453 -0.09897845 0.013004303 0.022913545
0.008767139 -0.00022354111 -0.033849433 0.010394984 0.05024606 0.0020890788 0.009327666 -0.02317094
-0.054171793 -0.005082155 0.13538319 0.047139462 0.009349206 -0.033261318 -0.04623943 -0.031556703
0.009049777 -8.031e-41 -0.027694693 -0.030350262 -0.037396424 -0.018978119 -0.049054712 -0.010794167
-0.016393658 -0.02213847 0.035539117 0.011710256 -0.0034361659 0.0039693075 -0.024184413 -0.055256993
0.06203181 0.012252238 -0.028322028 -0.084107876 0.1316659 0.0061886595 -0.049715675 0.037866622
-0.015826887 -0.04237833 0.021728942 -0.026757948 0.0045343535 -0.007964881 -0.027031032 -0.010691235
-0.03310797 -0.014127906 0.03866932 0.025488395 0.072623655 -0.04795758 -0.036181696 0.02142233
-0.030384533 -0.03615017 0.029412128 -0.031182982 0.034602106 0.023892568 0.02427051 0.0126247285
0.078053996 0.13848764 0.05003989 -0.058509827 0.07844374 -0.01458079 -0.015329357 0.071335405
-0.021562751 0.014259696 0.11563967 -0.06989467 0.047081266 0.0005021763 0.0023765175 -0.029244317
0.07204369 -1.36024e-40 0.034398384 -0.02781692 0.040645443 0.046870593 -0.025992304 -0.017485408
0.012723935 0.007185357 0.10578557 0.015474137 -0.0269348 -0.0073374477 0.009394577 -0.02893075
0.038816936 0.018132806 -0.021283023 0.14243594 0.06085316 0.018025436 -0.021109609 -0.044684876
0.1423679 0.13457364 -0.07866374 -0.029862281 -0.035353724 -0.021957902 -0.022043595 0.010112402
-0.048438456 0.012036916 -0.07004648 -0.01854415 -0.030010132 -0.022380246 -0.0029667057 -0.030185178
-0.051170196 0.06121453 0.06255164 0.034633584 -0.026368871 -0.02579961 0.03552445 0.100422986

cell.weight_hh f4 [512, 128]
00000000: e3ed ec3c 3342 73bc d071 453d d32f e83c
00000010: d3fa 85bc 5423 143d de16 03bc 896b 09bd
00000020: eb1d 87bd 0475 a8bd 0058 63bc 312b 08bd
00000030: f14b 34bd c3ea e53c f4c0 92bd 61de a2bb
00000040: 4f7e c23c 4b30 023d dd80 503d 2375 44bc
00000050: c314 9f3c 5529 a23d 372f 173d 0980 16bd
00000060: 2ea5 47bd 0ba9 70bb f6a7 a93a ae2d 023d
00000070: d34a e5bc bb3a 0ebd 565d 4cbc e74f e83c
00000080: bbda 983c 1384 ee3c 8ef4 30bc 4af9 cbbc
00000090: d266 e4bb c018 313d 57f1 90bb 8f02 003c
000000a0: 54e1 393d ff37 6e3d 2198 7b3c deaa 84bc
000000b0: 7ce5 653c 74d8 5cbd 8f6b 5a3d 2419 0bbc
000000c0: d3b2 bbbc 8b04 5a3d 4161 9d3d ed07 39bd
000000d0: 885b 953c d817 14bd 776a a53b e01e 5b3c
000000e0: 8234 093c 6b12 5f3d 7df9 6abd fe6d a83c
000000f0: 2a08 34bc 7466 debd 4d33 2f3c cffe aa3c
00000100: daca 22bd 1e8a 40bc 18cf 603d 3980 923c
00000110: 57b5 0cbd d2b8 143c aa25 213d 265a 4b3d
00000120: bd54 f53a fae8 c3bb 4f23 a03c c84e ecbc
00000130: ec02 c13c 8175 39bd 9b17 51bd ccac 8d3c
00000140: 9aef 3abb c0ca a0bc 9ed5 68bd 4af5 423d
00000150: 332d ccbc d517 663d f244 53bb a7b0 843d
00000160: c140 8f3c 5e42 c33c abe8 16bd fb69 c2bc
00000170: 181f 323d c1b2 6a3a a2e8 fdbc 71dd 80bc
00000180: 7339 8ebc e744 173c 84a9 f2bb 73c4 563b
00000190: 028c 403c 6394 79bd c107 813d feae 87bc
000001a0: 43e0 183d 22d8 813c ce86 13bd 5893 d33c
000001b0: 015a 8dbd 8d2a 6dbd b160 cc3a a78d 823c
000001c0: ee44 063d 9e06 84bc 37da 1b3d 1840 d63c
000001d0: 84b8 a63a 9bf6 053c b8db b6bc 68e5 16bd
000001e0: bb0f 103d 8215 3d3c 3a9e 5f3d 8b55 5cbc
000001f0: ad82 b63c fd2e 023d 659d 56bd e6ab 453d
00000200: fb87 313d 6b9f 6fbd ea10 6cbd f858 9ebc
00000210: 50fa 62bd cf71 843c 3b53 cf3b b242 6dbc
00000220: f7df f4bc 37a7 c6b9 b818 423c 9e71 08bd
00000230: 00a6 94bc 181b 223d 31d2 58bd 1d0f d8bb
00000240: ac2b d03a ddc5 0dbd 7938 143d 7778 223d
00000250: 997a f5bb 1c0f aa3d a7da 953d 4cbd ffbc
00000260: 793e e8ba ba5e 4f3c 9eaa 303d e6cd 703d
00000270: a541 27bd e877 4bbd 10ce 353c 3bf6 2dbd
00000280: e065 993d 6d69 1abd 1e60 833d ffb8 553c
00000290: 586b a33c 1202 043b f625 45bd 3ac2 18bd
000002a0: 3e6c 803c 1f7a 6a3c b212 6dbc 44a2 52bd
000002b0: d211 c13c bc69 06bd 2281 203d 0201 273b
000002c0: a6ee 87ba f9fc 6fbd 3c3a 003d 41f9 d13d
000002d0: 0e95 8bbc 5554 f3bb 41a1 f23c 6641 9bbd
000002e0: 2b6e 393d 91ce 503d 5f50 a0bd ef80 29bc
000002f0: bdc1 ac3c ceeb 99bd 4cf2 003b 2dc5 84bc
00000300: fb09 1a3c 15f2 8c3c 5058 7cbb c43a 823d
00000310: e79c cf3a 6cf8 583d 0242 f53c 61c0 67bd
00000320: ff0a 583c c7da 323c 8afe 2abd 56f6 9fbc
00000330: a1ff 5ebb 36b6 13bd 17f6 86bc b34b 903c
00000340: 8be2 403b efc6 8a3b 26a1 4e3c 2906 60bd
00000350: fc11 aa3c ba39 2d3b 512d 55bd 289a c13c
00000360: 5b1c e73c a63f 90bc 961a 453d 9572 0ebd
00000370: b378 3d3d 39e2 45bd 072a dfbb a803 153d
00000380: 817d 4a3c b173 60bc dc1f 7bbc 8009 d9bc
00000390: fb57 703a 12f3 8fbd 9723 cc3b f274 f8bb
000003a0: 8db5 29bc 21db a43c ae84 3a3d c9bc 873c
000003b0: a810 ef3c f3df 10bd 39b8 20bd cda4 43bd
000003c0: 0f61 0ebd 1343 7fbd 5c43 6a3d 9a8f 303b
000003d0: 774d 8ebc 0a13 8e3c bfe2 4c3c 2243 17bd
000003e0: dc52 40bc 9190 8c3c cefd 183d e72b a0bd
000003f0: 7a66 76bc 088d 043d 981d 11bd 364f 9abc
0.028922027 -0.014847326 0.048204243 0.028343117 -0.016354954 0.036166504 -0.008001057 -0.03354982
-0.06597503 -0.08225444 -0.013875961 -0.033244316 -0.044017736 0.028066045 -0.07165709 -0.0049703573
0.02374187 0.031784337 0.050904144 -0.011990818 0.01941908 0.0791804 0.036910262 -0.036743198
-0.048741512 -0.0036721851 0.0012943733 0.031781845 -0.02798978 -0.03472398 -0.012473425 0.028358413
0.018658986 0.029115712 -0.010800494 -0.024899144 -0.006970265 0.043236494 -0.004423301 0.00781311
0.045380905 0.05815887 0.015356095 -0.016194757 0.014031764 -0.053917363 0.053325232 -0.008489881
-0.022912418 0.05322699 0.07684565 -0.045173574 0.018232122 -0.03615555 0.005048092 0.01337406
0.008374335 0.054460924 -0.057366837 0.02056026 -0.010988275 -0.10859385 0.010693383 0.020873455
-0.039744236 -0.01175168 0.054885 0.017883407 -0.034352627 0.009077268 0.03934256 0.04964652
0.001871727 -0.0059787007 0.019548086 -0.02884616 0.023560964 -0.045278076 -0.051047903 0.01729431
-0.0028524161 -0.019627929 -0.056844346 0.047597207 -0.024923896 0.05617507 -0.003223714 0.06479006
0.017486932 0.023835357 -0.036842983 -0.023732176 0.043486685 0.0008953028 -0.030994717 -0.015730591
-0.017361378 0.009232736 -0.0074054617 0.0032770901 0.01175213 -0.06093253 0.06300307 -0.016562935
0.037323248 0.01585013 -0.03601723 0.025827095 -0.069019325 -0.057901908 0.0015592781 0.015936686
0.03278058 -0.016116437 0.038049903 0.02615361 0.0012719785 0.008176471 -0.022321567 -0.036839873
0.03517125 0.011540772 0.054594256 -0.013448129 0.022279108 0.031783093 -0.052396197 0.04825964
0.04334257 -0.058501642 -0.057633318 -0.019329533 -0.055414498 0.01616755 0.0063270605 -0.014481233
-0.029891951 -0.00037890088 0.011846714 -0.03331148 -0.018145561 0.03957662 -0.05293483 -0.0065935985
0.0015882156 -0.034612525 0.03618667 0.039665665 -0.0074914214 0.08303663 0.07317095 -0.031218193
-0.0017718814 0.012656862 0.043131463 0.05879011 -0.040834088 -0.0496749 0.011096492 -0.04247115
0.07490134 -0.037698198 0.06414817 0.013044595 0.019948646 0.0020142836 -0.048131905 -0.037294604
0.015676614 0.0143113425 -0.014469789 -0.05142428 0.023568068 -0.03281568 0.03918565 0.0025482778
-0.0010370805 -0.058590863 0.031305537 0.102526195 -0.017038848 -0.0074258246 0.029617907 -0.07580833
0.04527108 0.050978247 -0.078278296 -0.010345682 0.021088475 -0.07515679 0.001967567 -0.016207302
0.009401794 0.017205277 -0.0038504787 0.06358865 0.0015839607 0.05297129 0.029938702 -0.05657995
0.013186215 0.010916418 -0.041746654 -0.019526642 -0.0034026878 -0.03606244 -0.016474767 0.017614221
0.0029431905 0.0042351405 0.012611663 -0.054693375 0.020760529 0.0026432113 -0.05204517 0.023633078
0.028211763 -0.017608475 0.048121057 -0.034777243 0.046257686 -0.048311446 -0.00681043 0.03638044
0.012359024 -0.013699458 -0.01532742 -0.026493788 0.00091683835 -0.07028784 0.0062298286 -0.0075823003
-0.0103582265 0.02012402 0.04553669 0.016569512 0.029182747 -0.035369825 -0.03923819 -0.04776459
-0.03476053 -0.062319826 0.057193145 0.0026941062 -0.017370922 0.017343063 0.012505232 -0.036929257
-0.011738505 0.017158778 0.037351422 -0.07820874 -0.015039081 0.03236106 -0.035428613 -0.018836599

cell.bias_ih f4 [512]
00000000: 8339 d43d b40e 1f3c 63de 76bd 9499 a23d
00000010: 91ae 013d 6f9b da3d 7b72 be3d 7cec 61bd
00000020: b85c 533e 9eb8 54bd 3c50 fc3c deaa 02bd
00000030: 11c8 513d 2020 28bd 8c8a a7bc 18a0 acbb
00000040: c958 f53c 4896 023e 3369 093e ab0c 7d3e
00000050: cfd4 1a3b 65bc b33d 6be8 2f3e 56b3 493e
00000060: db00 13bd 2e7a c13c a29b 703d e746 513d
00000070: c09e b33d 7be4 b23d b75e 863c 1514 ea3d
00000080: 796a 74bd d459 773b 7880 b63c bf9c 83bd
00000090: 1c31 513b e772 ff3d ec33 393d 94b5 82bd
000000a0: ef54 bd3d dd1a 043e e126 dd3d 36c1 103d
000000b0: d570 253d 7af6 073e 4dab 17bd fadb a8bd
000000c0: dc97 a73d 0dde 5f3d a7d7 003e d595 533e
000000d0: 308e 59bd e566 d63d 845f a6bc 4368 a73b
000000e0: 34b3 1a3e 16c5 79bc f0b5 083e 07a8 cf3d
000000f0: c71b 673e d7ff 53bc 08b4 ae3b 4941 4d3e
00000100: ce1f f83b fc9c e1bc 0c05 aabc ac9c cabb
00000110: 0c19 c03d ec7f c33b 488c 153d d496 aaba
00000120: 6eda 153d c29f 953d dfa8 993e dca2 f23d
00000130: f345 373e 90e2 31bd de8c 9dbd 4d78 fe3d
00000140: f81d 4cbc e8e2 f23c 8dc5 4c3d 3cdd 003e
00000150: ba14 e53b 57d2 f5bc 4fb7 5e3d 9187 f03c
00000160: 58e8 883d 0754 84ba d20c a83d 03e4 4a3e
00000170: 5a2d 91bd c27a 13bd 9d4e 383e 3098 53bc
00000180: 4ddb b5bd 50d4 39bd 9078 a13e acad 1f3b
00000190: 9852 403d 5e96 163d 38c1 f93b 762a 6abd
000001a0: c920 273e 086f 2c3d aa32 943e 4a75 6b3d
000001b0: b343 5b3e 6703 96bd 946b 003e 99f5 a43c
000001c0: ff11 063e 1cbb 583d 19f3 db3d a881 12bd
000001d0: b658 94bd 779f 273c 193a c93d 7aad 1a3e
000001e0: c042 6a3d f455 b73d 0aa7 a73d 5000 633e
000001f0: f01a 8fbd b0d1 3c3d 47c4 183d d911 c0bb
00000200: 2a89 d93b 40b8 8fbd 33f9 ed3b e24e b6bb
00000210: 666a 1cbd 20fa 31bc 3cdb 733d cac9 e23c
00000220: a18c 323d 4f78 e73b 794e 8cbd 7698 c3bc
00000230: 7c8f cfbc 052f a43d d22a 8e3d 0689 fe3c
00000240: 335e 543d d2f4 80bc 99cd 353d 8e78 913d
00000250: 6f40 91bd 5567 e03d 1c26 b03d 25f1 3cbd
00000260: e788 3a3d 4aa6 97bd 630f ec3c 725b 613d
00000270: 51a8 82bd 9dc1 253b d5be 07bd a3a7 2cbd
00000280: 03cf f3bc 3302 893d ba68 5bbd 9774 d63b
00000290: 8702 3e3c 9f8f 433d 7be1 f43d 09f2 debc
000002a0: 899d 38bd d1f1 e73b 0314 fdbc 94db a2bc
000002b0: 7b69 733d b517 15bd 1ee6 b2bd 0fd1 78bc
000002c0: 0740 9b3d e7d4 8f3d ce15 88bd 38b8 fabb
000002d0: b579 95bd bb6e 333d 174a b5bc e476 3fbd
000002e0: 422a e23d 2b49 913c 9113 523d 3741 f43a
000002f0: 1089 cf3d fad7 fa3c 2cb4 7abc 5f39 8c3d
00000300: f990 05bd c0ae 92bd f140 983c e789 993d
00000310: 1ea3 dfbb dfdc b5bc 865c 8c3d 3b04 323b
00000320: fb56 4c3d 113a 22bd 9a96 6d3d eb8c b53c
00000330: 74c6 c6bc 6d7e babd 623a 553d 5603 d1bd
00000340: 9dc1 743d 9f68 033d 6504 91bd 6822 c1bd
00000350: 1e21 c4bc fc31 003d 413d 673d 8a1d 283d
00000360: cf69 aabd 8d38 a8bd 0a31 b0bc 2ec1 0dba
00000370: d3d7 1f3d 3458 43bd 0270 443d 3a75 7ebd
00000380: 6dc4 a53c 1d00 19bc 8794 1a3e 1524 653c
00000390: 5730 093c 3026 d13c b5b6 b33d e8ef 6dbd
000003a0: 8680 3dbd cc6b df3d d980 763d 8524 fd3d
000003b0: 7d4b 05bd 688f 5ebd 5192 2d3d cb6a a5bc
000003c0: c397 a73d 0d39 363d b857 f33c 9aa5 123d
000003d0: b6bd 9d3c e1e3 a0bc a867 483d a730 46bd
000003e0: eaa4 123d a79c 16bd ccc0 09bc 05d6 273b
000003f0: 5aec 00bd 9846 13bd 42d5 55bd 566c 91bd
0.10362532 0.009708095 -0.06027068 0.07939449 0.03166062 0.10674178 0.09299179 -0.05515717
0.20640838 -0.051933877 0.030799977 -0.031901233 0.05121619 -0.04104626 -0.020451806 -0.005268108
0.029949563 0.1275264 0.13419037 0.24711864 0.002362538 0.08776168 0.17178504 0.19697317
-0.035889488 0.02361783 0.058742173 0.05109301 0.087705135 0.087349854 0.016402585 0.114296116
-0.059671853 0.003774275 0.022278056 -0.06426381 0.003192014 0.12473088 0.045215532 -0.063822895
0.092447154 0.12900873 0.10798431 0.03534051 0.040390808 0.13277617 -0.0370286 -0.08245082
0.08183262 0.054655124 0.12582265 0.20662625 -0.053114116 0.10468844 -0.020309217 0.0051088645
0.15107423 -0.015244743 0.13350654 0.101394705 0.2256919 -0.012939415 0.00533152 0.20044436
0.007572151 -0.027540676 -0.02075436 -0.0061832275 0.09379777 0.005966177 0.036510736 -0.0013014921
0.036585264 0.07305862 0.3001165 0.11847469 0.17897777 -0.043428957 -0.07692884 0.12425289
-0.012458317 0.029649213 0.049993087 0.12584394 0.006990996 -0.030007524 0.054374035 0.029361518
0.06684941 -0.0010095843 0.0820557 0.19813542 -0.07088728 -0.036005743 0.17998739 -0.012914702
-0.08879719 -0.045368493 0.31537294 0.002436499 0.046953768 0.036764495 0.0076219104 -0.0571694
0.163211 0.042098075 0.28944904 0.057484902 0.21412544 -0.07324868 0.12541038 0.020136641
0.13092802 0.052912816 0.107397266 -0.03576818 -0.07243483 0.0102308905 0.098255344 0.15105239
0.057192564 0.08951941 0.08186157 0.22168088 -0.0698756 0.04609841 0.03729656 -0.0058615026
0.0066386657 -0.07017565 0.007262373 -0.005563603 -0.038187407 -0.010862857 0.05953525 0.027684111
0.043591145 0.0070639024 -0.06850905 -0.02387641 -0.025336973 0.08016781 0.06941761 0.031071197
0.051847648 -0.01574174 0.044385526 0.07103072 -0.07092368 0.10957209 0.08601019 -0.04612841
0.045540716 -0.07404764 0.02881593 0.05501885 -0.0637976 0.0025292404 -0.033140976 -0.04215206
-0.029761797 0.066898726 -0.053566672 0.0065446603 0.011597282 0.04774439 0.119570695 -0.02721502
-0.045072112 0.0070783873 -0.030893331 -0.019880094 0.059426766 -0.036399562 -0.087352976 -0.015186562
0.075805716 0.0702303 -0.06644784 -0.007651355 -0.072986044 0.043806773 -0.022130055 -0.046744242
0.11043216 0.017735085 0.05128819 0.0018635158 0.101335645 0.030620564 -0.015301745 0.0684688
-0.03260896 -0.07162237 0.018585654 0.07497006 -0.006824865 -0.022200046 0.06853585 0.0027163166
0.04988764 -0.039606158 0.058004953 0.022161921 -0.024264552 -0.09106145 0.05205763 -0.102057144
0.059754957 0.032082196 -0.07080916 -0.094303906 -0.023941573 0.03129767 0.0564549 0.041043796
-0.08320963 -0.08213911 -0.021507759 -0.0005407509 0.039024185 -0.04769154 0.04795838 -0.062123515
0.020235265 -0.009338406 0.15095721 0.013985653 0.0083733415 0.025530905 0.08775083 -0.05809012
-0.046265148 0.109092325 0.060181472 0.12360481 -0.032542694 -0.05433598 0.042375866 -0.020192524
0.08183243 0.044488 0.029704913 0.03580246 0.0192555 -0.019639911 0.04892698 -0.048386242
0.035801806 -0.03677049 -0.008407783 0.0025609743 -0.031475402 -0.035955995 -0.05220533 -0.071007416

cell.bias_hh f4 [512]
00000000: 66a1 863d ae08 0b3e 2089 5abd d324 143e
00000010: 97f4 b13d 3b0b 323e f7d5 8b3c 1a78 65bd
00000020: 5411 213e 58d8 8f3c d93f 9b3c 6ebf c3bd
00000030: ddcf 84bc a33b 9dba 4f97 ec3c a20e 24bc
00000040: d79f 80bd 4cec 183e 75c8 b83d eac4 213e
00000050: c3f2 abbd 9f8a 363e f46b 293e 1a27 003e
00000060: c80e 84bd 0839 9dbd 9c4e 923d 2682 4b3b
00000070: 691c 083d 4f88 923d 53ba 543d 8d16 503e
00000080: 06da 353d 2b92 8bbd 081b b73d f9a9 98bd
00000090: 0e8d a1bc a159 4f3e 09c5 873d 8e3c d93c
000000a0: 299d 6f3d 30d5 a9bb 00a2 a93d cfc0 ca3d
000000b0: ee06 e03d e24d 0c3e 6f3e 7c3d 59ec a33b
000000c0: b95b 2e3e d914 133e 4f3a 5d3b 7586 273e
000000d0: addf 94bd e643 103e 3787 683d 0433 c63c
000000e0: cd8e 5e3e 145c 3fbd bf5b 273d dd4e e73d
000000f0: 540a 403e 999c 2b3d 270a f03b c0ed 423e
00000100: 2da5 f8bc 5ad5 903d ffd8 62bd a042 e93d
00000110: 92d6 56bd b206 be3c fe1f 2e3c a381 56bc
00000120: 0b84 e03d 1733 87bd 7efb 9f3e 1078 633e
00000130: 6495 0f3e ec59 89bd a8b3 8abd a879 943d
00000140: 53fc dc3d 13d1 fcbc 25ef 6f3d 5301 07bc
00000150: 8c1c 683d ec11 003d e21c 98bd 7db6 f63c
00000160: 0ae9 003e ca5d ed3b fd24 bb3c 7688 fa3d
00000170: f250 8bbd 9cb2 5cbb f60c f93d b326 94bc
00000180: b9a4 af3c 9243 163d 74a0 623e 49ed 073e
00000190: c817 4abd 8cef 8c3d 17bb 113e 50a4 d3bb
000001a0: 2650 313e 88cf c13d ff93 353e 7585 bc3d
000001b0: 0a94 403e 0bae c9bc 748d b33d 877e 7e3d
000001c0: e84d dd3d 4469 973d 0e84 ee3d 25a4 68bd
000001d0: 490e 2fbb d841 583d 1706 433e 4f05 183e
000001e0: 537e 4d3c 566b 683d b761 863d 67fa 143e
000001f0: 8f7e 96bb d676 323d 9cac b03d 3c0e 69bd
00000200: e7f8 a0bd 9dc2 dbbb 2c60 7d3d 2df0 f7bc
00000210: 4d4f 123d bb75 493c c381 95bc fc04 8fbc
00000220: b772 803d 0e67 06bd c2e5 133d b126 52bd
00000230: 5fd3 7dbd 65ad 17bb f33f 873d c123 61bd
00000240: 1ab7 02bd 50aa 5ebd 2768 6ebd 651d 343d
00000250: cb6e 3a3d 8d5d 8d3d 6e15 a23b 2d85 e5bb
00000260: 4801 f9bb 1659 90bd 589f ea3c 3339 83bd
00000270: 63b4 1a3d 679d e53b d208 40bd 4936 003d
00000280: 660b 833d ff45 c9bc 9bcb 99bd ec8a ddba
00000290: 2ab0 dabc c958 9b3d 5042 6c3a 1050 773d
000002a0: ef78 e43a f04f 153d 4cdb ca3d a54b 87bd
000002b0: 6d54 b03d 14c9 f53c e30a 773d 509c 623c
000002c0: 8491 08bd 50bc 5fbd b214 5dbd 3aba e03d
000002d0: fdbb e03c 2c1d 183d 7d99 87bd aa7d 3cbd
000002e0: 85c5 723d 8d50 753d 4ee7 7e3c c571 f2bc
000002f0: 185e 4bbc c029 273c e2fd 6cbc a71a 3d3c
00000300: 5aa0 56bd ab6a 813d 8f2c 253d 3a06 993c
00000310: 7712 353d 6f08 b63c 4479 8fbd 1af8 75bd
00000320: 4d56 35bd 0036 153d 56b3 b43d 5e32 0b3c
00000330: d4e9 c2bd f66d 39bd 9c04 523c 64a9 1c3d
00000340: 7176 a63d 31fa 1ebd 9828 50bc db1a b6bd
00000350: a5e5 513d ed2d 223d 3b16 bb3d 1c7e 8d3d
00000360: 0864 063d 882c 453d 3f06 12bd 815f 2f3d
00000370: 4654 ee3c cc01 82bd 726b e73c 456a 8bbd
00000380: 5a0f 46bd 5a16 11bd eb72 0c3e b375 cbbc
00000390: 0ea4 b83b 10b7 693d 03ae 943d 398c 43ba
000003a0: 98bb 983d dca1 093d 04dc 013d af08 693d
000003b0: d5fa 233c 552f 80bd 4ab8 193d 3d61 2fbd
000003c0: 2f30 94bc 450f 63bd 7cc0 f13c 8bb3 eaba
000003d0: ae73 62bc 81f6 a7bd 1f34 a33d bd7f bd3c
000003e0: 2c7c cabc 20f5 c4bc ff00 f43c 3f5b a2bc
000003f0: c2c1 903b fbd8 3a3c 0b5a c83d a8df 4cbd
0.06573753 0.1357753 -0.05335343 0.14467172 0.0868923 0.17387097 0.0170698 -0.05602274
0.15729266 0.017559215 0.018951343 -0.09557997 -0.016212398 -0.0011995923 0.028880743 -0.010013254
-0.06280487 0.1493389 0.09022609 0.15797773 -0.083959125 0.17826317 0.16545087 0.12514916
-0.06448132 -0.076768935 0.071439 0.0031052916 0.03323022 0.07154905 0.051935505 0.20321102
0.044397376 -0.06814989 0.08940703 -0.07454295 -0.01972058 0.20249034 0.06629378 0.026518133
0.05849949 -0.0051828846 0.08282852 0.099000566 0.10938822 0.13701585 0.06158298 0.00500254
0.17027177 0.14363421 0.0033756678 0.16359885 -0.07269225 0.14088401 0.056769576 0.024194248
0.21734162 -0.046718672 0.04085898 0.11294339 0.1875394 0.04189739 0.007325429 0.19036007
-0.0303522 0.070719436 -0.055382725 0.11389661 -0.052450724 0.023196552 0.010627745 -0.013092431
0.10962685 -0.066015415 0.3124656 0.22213769 0.14021832 -0.06706604 -0.06772548 0.072497666
0.107903145 -0.030861413 0.058577675 -0.008240062 0.05666785 0.03126709 -0.07427384 0.030116314
0.12588897 0.0072438465 0.022844786 0.12233059 -0.068025485 -0.0033675795 0.12160675 -0.01808486
0.02144085 0.036685534 0.2213152 0.13274111 -0.049339086 0.068816274 0.14231525 -0.0064587966
0.1731573 0.094634116 0.17732237 0.092051424 0.18806472 -0.024619123 0.087672144 0.062132385
0.10805875 0.07393125 0.11646281 -0.056797165 -0.0026711395 0.05279717 0.19045292 0.14845775
0.012542325 0.05674299 0.065616064 0.14548646 -0.0045927237 0.043570362 0.086266726 -0.05689834
-0.07859974 -0.0067065493 0.061859295 -0.030265892 0.03572016 0.012296136 -0.018250352 -0.017458431
0.0627188 -0.032813124 0.036107786 -0.05130643 -0.061969157 -0.0023144123 0.06603994 -0.05496574
-0.0319129 -0.05436164 -0.058204796 0.043973345 0.045515817 0.06902609 0.0049464023 -0.007004401
-0.0075990297 -0.07048242 0.028640434 -0.06407394 0.037769686 0.007007289 -0.04688341 0.03130177
0.063986585 -0.02456951 -0.07509538 -0.0016902364 -0.02669533 0.07585294 0.0009012567 0.060379088
0.001743106 0.036453187 0.09905109 -0.06606225 0.08609853 0.030003108 0.060313117 0.013831213
-0.0333419 -0.05462295 -0.053974815 0.1097302 0.02743339 0.037137195 -0.066210724 -0.04601828
0.0592704 0.059891272 0.015558077 -0.029595265 -0.01241257 0.010202825 -0.014464827 0.011541999
-0.052399017 0.063191734 0.040325698 0.018679727 0.044207063 0.022220818 -0.070055515 -0.06005106
-0.044271756 0.03642845 0.08823268 0.008495895 -0.095172554 -0.045270883 0.012818482 0.03824748
0.0812806 -0.03881282 -0.012704991 -0.08891841 0.051244397 0.03959458 0.091350995 0.06908819
0.03281024 0.04813817 -0.035650488 0.04281569 0.02909292 -0.06347999 0.028249476 -0.06807379
-0.048354484 -0.035421707 0.13715713 -0.024836397 0.005634791 0.057059348 0.072597526 -0.00074595545
0.07457656 0.033601627 0.031703964 0.056893047 0.0100085335 -0.06259028 0.037529267 -0.042817343
-0.018089382 -0.055434484 0.029510729 -0.0017906291 -0.0138215255 -0.08201314 0.07968926 0.0231322
-0.024717413 -0.024042666 0.029785631 -0.0198189 0.004417629 0.011404271 0.09782799 -0.050017983

input_embedding_layer.weight f4 [64, 2]
00000000: d8f4 be3e beda 78bd 4b06 253f 50aa d6be
00000010: 14b3 35bd d8d8 0f3f b13f 1fbf c5e9 ee3d
00000020: 62e2 bc3e 1337 003f 697e 03bf 19ba 03bf
00000030: d493 b63e 900d 30bf 23c9 913c 49ed d73e
00000040: e24c d53e b67b 3b3f 2c88 1cbf 0604 94be
00000050: 024a f7bd 8f62 e4be 5915 87be d41b 163f
00000060: dd5b 27bf ffdc 0c3f b965 2bbf b909 e3be
00000070: 70a8 523e fa35 1a3f cc3b 933e 92ca 043f
00000080: 5d23 d13c 262a 97be 506b 0100 6e3d 0100
00000090: c704 e6bb 65d8 2dbf 1f7e abbe bb81 8b3e
000000a0: 8733 f43e 76f5 053e fe3a 043f 33ad 90bd
000000b0: bacb ff3e d23b f93e e428 bdbe bb07 223e
000000c0: c99e f03e ff83 b1be 40a7 11bf f734 33bd
000000d0: 62a4 8b3e 15b3 c13d 2e35 3e3f 88dd eb3e
000000e0: f885 71be 06b1 47bf 5baa 55bd d648 45bf
000000f0: 01e3 b43e eaf9 abbe feda 06bc 4c10 493f
00000100: ab27 4dbe 9259 4abf 8d67 b4bd 5b52 20bf
00000110: 942b 0fbf 9fec 59bc ab36 423f a220 ba3e
00000120: 7f84 84be fbc5 2bbf 06c4 07bf c75a 2abf
00000130: 0af2 87be be35 3cbf 798b 86be 3ec0 213e
00000140: 3730 893e 06d3 aabe f24a 053f 3dce 1e3d
00000150: 407d e6be 2a54 bd3e eca0 ecbe 3a58 4a3f
00000160: 8414 3fbf f7b8 eebe 3138 53bb 8d67 d0be
00000170: 9434 15bf c867 313f 9863 093c 7d98 1fbf
00000180: 01d3 febe a300 b4be 7d12 df3e f5b1 4abe
00000190: 9d1d 9bbe 2087 c7bc 1071 9ebe 5538 02bf
000001a0: 2714 16be 33e9 2e3f 1e56 3c3e f343 f9be
000001b0: 015b 423e 84aa fdbe bb51 993c 72eb 12bf
000001c0: 066b 10bf 7607 4c3e ff91 b73d 3965 cbbc
000001d0: 5e5a 0bbf 842a 273e 84e0 c43e 75f3 21bd
000001e0: a6fb e2bd 15d9 02bf ce33 b7bd 6b62 533f
000001f0: 6f54 593e 9271 2f3e 1be3 333f f9a3 723e
0.37296176 -0.060755484 0.6446273 -0.41926813 -0.044360235 0.5619025 -0.6220656 0.11665682
0.36891466 0.50084037 -0.5136476 -0.5145584 0.3565966 -0.68770695 0.017796105 0.42173222
0.4166022 0.7323564 -0.6114528 -0.2890932 -0.12074663 -0.44606444 -0.26383474 0.5863621
-0.6537455 0.55024713 -0.6695209 -0.44343355 0.20572066 0.6023861 0.2875656 0.518716
0.025529558 -0.29524344 1.30332e-40 1.13872e-40 -0.0070196125 -0.67908317 -0.3349466 0.27247414
0.47695562 0.13081917 0.51652515 -0.07064285 0.4996012 0.48678452 -0.3694526 0.15823261
0.46996143 -0.34671018 -0.5689583 -0.043751683 0.27273852 0.09457985 0.74299896 0.46067452
-0.23586261 -0.7800449 -0.052164417 -0.77064264 0.3532944 -0.33589107 -0.008230923 0.7854049
-0.20034663 -0.79042923 -0.08808813 -0.62625664 -0.5592587 -0.013301044 0.75864667 0.36353022
-0.25882336 -0.6709897 -0.53033483 -0.66544765 -0.2655185 -0.73519504 -0.26278284 0.15795991
0.26794598 -0.33364123 0.5206748 0.038770903 -0.45017433 0.36978275 -0.46216524 0.79040873
-0.7464068 -0.46625492 -0.0032229538 -0.40704003 -0.5828335 0.6929898 0.008385561 -0.62342054
-0.49770358 -0.35156736 0.43568793 -0.19794448 -0.3029603 -0.024356425 -0.30945635 -0.50867206
-0.14656125 0.68324584 0.18392226 -0.48684654 0.18980028 -0.49544156 0.01871573 -0.5739051
-0.56413305 0.19924721 0.089633934 -0.02482854 -0.54434764 0.16324812 0.38452542 -0.03953882
-0.110831544 -0.5111249 -0.08945428 0.8257205 0.21223615 0.17133167 0.7026841 0.23695363

input_embedding_layer.bias f4 [64]
00000000: 8066 253d 56ad 053e e767 193e 9432 3638
00000010: fab1 8b3e 7d14 5ebe 9b68 a73a 7cb3 3a3e
00000020: 57bd 9dbc abf6 d43c b639 0f3f abcd e23e
00000030: 0f06 1639 91f3 b1ba 9679 283f 08e5 9837
00000040: 7e97 a73e 0d0e f0b9 86c8 653d ba0f c43c
00000050: fa73 a83b a52d d23b 39f5 20bb abc1 e7be
00000060: 076f 99b9 3461 f9be f011 313f b9ef 2b3f
00000070: bc93 cabc 2d98 483c 2b40 bdbe cf60 9cbb
00000080: dbf2 393e c1d8 a23d de76 8fbd fc84 033f
00000090: 3937 a73e 7251 4b3c b195 73be 61d4 353f
000000a0: 4d64 db3e 605e f53e f618 f03e bb44 f0be
000000b0: e22e f73e f94f 6a3c 4830 78be 4a4e 053e
000000c0: 9c6f df3b b405 a5be b476 453c a344 dfbe
000000d0: ebe1 dbbe 2518 133b f72d 30be 2d0f 783c
000000e0: 1b56 143f e661 073f 4459 023f 1031 ef3a
000000f0: c4f6 e0be 4b6f 48be 71cc 6a3d afe0 003f
0.040380955 0.13054404 0.14981042 4.3439286e-05 0.27284223 -0.21687503 0.0012772264 0.1823253
-0.019255323 0.025996527 0.55947435 0.44297537 0.00014307372 -0.0013576617 0.65810525 1.8226463e-05
0.32732767 -0.00045786836 0.056099437 0.02393328 0.0051407786 0.0064141327 -0.0024560227 -0.45264944
-0.00029265156 -0.48706973 0.69167995 0.6716266 -0.024728648 0.012243313 -0.3696302 -0.0047722827
0.18159048 0.07951499 -0.07005094 0.51374793 0.3265932 0.012409555 -0.23787571 0.7102719
0.4284996 0.47923565 0.46894044 -0.46927437 0.48277956 0.0143012935 -0.24237168 0.13018146
0.006818725 -0.32230914 0.012052227 -0.43607053 -0.429458 0.0022444811 -0.17205034 0.015140337
0.57943887 0.52883756 0.5091746 0.0018248875 -0.43938267 -0.19573705 0.057323877 0.5034284

output_layer.weight f4 [5, 128]
00000000: 8d79 efbb cdd2 1fbd 9421 1d3d 2de4 5b3c
00000010: e7d1 07be a51f 643d c2c9 523c c24a 5cbd
00000020: 18f9 9cbd f86f bfbd 1d03 8abe b55d 4d3e
00000030: 2544 a7bd 70f9 35bd e684 d13c ae71 7e3e
00000040: 8a8f 33be 41f3 5abe 41fd 55bc 7aeb 9fbd
00000050: 686e 543e 65f4 a8bd 7a7b 4a3c bd21 35bd
00000060: 5a9c 4fbe 083c a9bd 5eb3 3abe fc60 a1bd
00000070: fcd2 af3b 3993 e7bd 6f88 84be 2619 2d3c
00000080: 4ccb c0bc f949 3e3e 6128 bdbd 0d31 d4bd
00000090: d47d 1dbe ed1b 923c 3560 cdbd de4d 04bd
000000a0: 9b75 f93d dd2a eebd 2b87 cbbd 7ae5 463e
000000b0: f0fb 5ebb eb05 913d 9c1d b43d af04 083e
000000c0: 8cc1 56bc 832e cbbb e0b0 f63c a735 b4bd
000000d0: b2a5 b8bd 88fa 06bd 8c0b 5d3d 4906 8ebd
000000e0: f4af abbc ee1c 4f3e e168 bf3d e7d3 933c
000000f0: f5c7 d33b 5efd 84bd b946 25be 0647 a1bd
00000100: c9d6 ee3d 09d7 35bd 32b6 81bc 2761 583c
00000110: fdf6 c73d 70fe 1ebe d017 c1bd 1d1d da3c
00000120: d609 523d ecb3 6e3d 423a bc3c 3add 743c
00000130: 39d1 3b3d 27a9 b73c 61e5 6d3e 6a5a f0bd
00000140: 9b15 78bd 6bd1 d6bd 4a6c 193d 1655 293d
00000150: 13bd 593e 08a2 18be e08b 483e 23b3 10be
00000160: c5e6 a1bc a862 aabd aeed c03c 98d8 043c
00000170: 1bd8 563c f611 243b b5f3 a93a 4e33 ac3d
00000180: 9ac3 07bb c95b 433d d371 34bd 035d a6bd
00000190: bdd0 893d 1739 013c eb3e d73d 866c 39be
000001a0: ef49 4f3d 7e9f d5bd 31e9 123c 08a0 ab3c
000001b0: 9eb7 003e cfed 0fbe 5979 253d f422 2b3e
000001c0: f00d efbd 0f1b 2e3e 46ed 6e3d becd 2e3e
000001d0: bc19 6b3c 1c17 bc3d d520 f9bd 770a de3d
000001e0: bebc fdbd 9206 c93d 8879 24bd 579d e93a
000001f0: a4a4 373e 5298 103c 69c6 c63d 02f4 cf3d
00000200: 3ad5 ea3d ba33 31bd fe45 973d de1a ae3a
00000210: 2fd9 cd3d f0f3 44bc c7ad 113e d522 61be
00000220: 05cd 6c3b f9a8 a7bc 7961 08bd 86fa efbd
00000230: 8620 dd3d d2a9 d6bd e52e a63d 21a1 e2bd
00000240: 879e 153e f58a fa3d 9a01 e63c e8ce 86bc
00000250: 0db0 a8bd 4fd1 87bd be96 393d 071c ee3a
00000260: 22b5 bd3d 8c13 d13d 17f4 1cbd 5d8b 02be
00000270: a8c7 0fbe 3b9c 663d 9919 e73d 2ac3 603c
00000280: 2176 0abe 2b0e 13be 298e e73d 8623 e6bc
00000290: 065c 843d af1a dd3c 12a9 13bd 5abc 0c3e
000002a0: cdde 173e cd96 06bb 4760 97bd f9b4 a8bd
000002b0: 680b 04be 0ea1 eabb baec 73ba 8fae c03c
000002c0: a788 60bd f7fe 383d 32cc 953d 2dc3 ee3c
000002d0: a822 693e bde0 803d e2ca c3bc a24b e4bd
000002e0: 2194 45bc 26db 1abe 73d0 21bd 3505 9fbc
000002f0: 2c9e ecbd 7b7e 0fbe 9168 a8bb b6bb 02bd
00000300: e5a9 703d cd10 afbd 83d2 4b3e 8485 5e3d
00000310: 03d3 ddbd 4317 273d 05b7 a5bd f577 a33d
00000320: d250 d23d 6dd1 ce3d 71cd 08bd 912a b9bd
00000330: 090c 343c 6327 e4bd 27c0 04bd 8d90 6dbd
00000340: 7f82 ad3c 0128 653d 88cc e33d e8a9 a7bd
00000350: c6f2 2dbd e8c3 84bd bf9e 6cbb 21bc 6d3d
00000360: c138 a9bd d810 1f3e fcfd 983d b040 54bd
00000370: 9fa4 f4bd 4152 043d 7c00 a2bd 3587 ecbd
00000380: ba62 24be c21a 293e 9619 1a3c 0841 473b
00000390: 87be a93d a90d d23d 7c12 b33d c10f 3a3d
000003a0: e7b5 10bc 98ca 3fbd 46d9 d63c 3a14 4e3d
000003b0: 1d08 5bbc 156f 053e b00b 903c 4ee6 f1bc
000003c0: b84c c13d 24a5 0cbe 32ed 3bbd cba2 8f3d
000003d0: cbb6 debd 10a1 8abd f712 f7bc 87af c6bb
000003e0: 4d48 e03d 9fc5 4b3d 8155 403c cefa b9bc
000003f0: de2c b13d 3606 7f3c 1ec7 ef3d 112d 093e
-0.007308191 -0.039019395 0.0383621 0.013421101 -0.13263665 0.05569424 0.012865486 -0.053782232
-0.07664698 -0.09347528 -0.269555 0.20055278 -0.081672944 -0.044427335 0.025576066 0.24848053
-0.17535225 -0.21381857 -0.013060869 -0.078085855 0.20745242 -0.082497396 0.012358541 -0.04422163
-0.20274487 -0.08263403 -0.18232486 -0.078798264 0.0053657275 -0.11307377 -0.2588534 0.010565078
-0.02353444 0.18582906 -0.09236217 -0.10360918 -0.15380031 0.017835582 -0.10028116 -0.032300822
0.121806346 -0.11629269 -0.099378906 0.19423476 -0.0034024678 0.07081207 0.0879471 0.13283037
-0.013107669 -0.006200613 0.030113637 -0.08799296 -0.09015979 -0.03295377 0.05396609 -0.069347925
-0.020957924 0.2022588 0.09346176 0.018045379 0.0064630457 -0.064936385 -0.1614026 -0.07874875
0.11662061 -0.044394527 -0.015833948 0.013206757 0.09763906 -0.15526748 -0.0942837 0.02662521
0.05127891 0.058277056 0.022976998 0.014945323 0.045853827 0.022419525 0.23232032 -0.11735995
-0.06056748 -0.10489162 0.037456788 0.04134091 0.21263532 -0.1490556 0.19584608 -0.14130835
-0.01976336 -0.083195984 0.023550835 0.008108281 0.013113047 0.002503512 0.0012966307 0.08408223
-0.0020715953 0.047694955 -0.044053864 -0.08123209 0.06729267 0.007887146 0.105100475 -0.18107805
0.050607618 -0.10430811 0.00896673 0.020950332 0.12570044 -0.1405556 0.04039893 0.16712552
-0.1167258 0.1700251 0.05833175 0.17070672 0.014349397 0.09184095 -0.12164465 0.1084184
-0.12389515 0.09815706 -0.040154964 0.001782338 0.17933899 0.0088253785 0.097058125 0.10153963
0.11466451 -0.04326222 0.07386397 0.0013283154 0.1005119 -0.01202105 0.14226447 -0.21985944
0.0036132943 -0.020466315 -0.033296082 -0.117177054 0.10797219 -0.104816094 0.08114413 -0.11065889
0.14611255 0.12233535 0.028076936 -0.016456082 -0.08236704 -0.06631719 0.045309775 0.0018166312
0.09263064 0.102088064 -0.03831872 -0.12748475 -0.14041007 0.056301337 0.11284179 0.013718406
-0.13521625 -0.14360873 0.11306412 -0.02809311 0.064628646 0.026990263 -0.03604991 0.13743725
0.14831086 -0.0020536662 -0.0739141 -0.08237643 -0.12894976 -0.0071603125 -0.00093049894 0.023520736
-0.05481782 0.04516503 0.07314338 0.029145801 0.22767127 0.062928654 -0.023900453 -0.11147238
-0.012059242 -0.15122661 -0.039505433 -0.019411663 -0.115536064 -0.14013092 -0.0051394184 -0.031917296
0.058755774 -0.08548126 0.19904523 0.05432655 -0.10831263 0.04079367 -0.08091549 0.07981864
0.102693215 0.100985385 -0.03339905 -0.09041322 0.0109891975 -0.11140325 -0.032409813 -0.057999182
0.02118039 0.055946354 0.111229956 -0.08186704 -0.042467855 -0.06482679 -0.0036105362 0.05804074
-0.08262778 0.15533769 0.07470319 -0.051819503 -0.119454615 0.032305006 -0.07910249 -0.11549226
-0.16053286 0.16514114 0.009405514 0.0030403752 0.08288293 0.10256512 0.0874376 0.04542518
-0.008832431 -0.046824068 0.02622665 0.05031226 -0.013368634 0.13030656 0.017583698 -0.029528763
0.09438461 -0.13734871 -0.045880504 0.07013472 -0.10874709 -0.067690015 -0.03016041 -0.006063405
0.1095129 0.049749013 0.011739136 -0.0227026 0.08651136 0.015565446 0.117079005 0.13396098

output_layer.bias f4 [5]
00000000: 6607 09bd 03c1 813c eade a7bd d707 95bd
00000010: c0ac 923d
-0.03345432 0.015839105 -0.08196814 -0.07276886 0.07161856

sum f4 [512, 64]
00000000: a184 a53e f743 843f 6caa c83e fcf1 aa3f
00000010: e30c 1f3f d353 0e3f 11c7 983e f4fd 893e
00000020: 6d9a 2a3f d4c9 bf3f f9c5 553f 4a31 a33f
00000030: 6cc0 1340 f4b7 6b3f 85a7 bb3f fe54 ad3e
00000040: 042c 7f3e 583c 6a31 0436 7f3d 8297 053f
00000050: d704 d93e 0c38 f83e a664 1a3f c943 5b3e
00000060: d184 fe3e 6849 113f 51dc af3f af72 4a40
00000070: 58e9 123e 1260 433d ef3e 1a3e 96c8 653f
00000080: d799 933e 0238 b23d a3ce 603f 7cb3 0440
00000090: 9587 1b3f ccd7 1e3f 5ad5 d53d 23f2 ca3f
000000a0: 44f3 2c3f e615 a13f 36a5 d23f 032d 9f3f
000000b0: 18ad 4d40 b3f9 823c 7bb1 cf3f 1ea6 d13d
000000c0: cb38 063f 0093 843e cf03 803e 7346 df3d
000000d0: 865f ce3e d866 b83d 238a 783d 193b 0e3d
000000e0: f966 fb3f 8758 043f 1c6a 0240 c62b 993e
000000f0: 131d 2d3b 5fd0 443f 09d6 d33d 8e2e 0540
00000100: b575 573c d499 8f3d 8020 e33e 62e7 583e
00000110: ddac 973e 20b7 953c 1872 363d 3071 7a3e
00000120: 0c4c a33e 30c7 993d ee7b fa3d a8d7 4d3f
00000130: 7819 6c3f a62d 4e3d 70e5 343f 4504 2e3e
00000140: 86ab 413d 4d7f 242e 6197 263d d8a5 533e
00000150: 1d27 103c 7ae8 7e3c 05ef cb3d 67ef 193d
00000160: df5b eb3c 40e1 ef3c 9af7 4b3e 3aab c03e
00000170: 99bd 023d 03ff 2f3d d6c2 123c 9e22 3c3f
00000180: 5219 5d3d 86ad 1c3d 4f13 a53d a22c 603e
00000190: a88f b93d cf2b 213d 326f 8a3c bbd5 ea3e
000001a0: 9771 ba3d acf7 dc3d 366c 2b3f f954 1b3f
000001b0: 3af4 433e 2bc6 493c bf34 573f b166 223d
000001c0: e2aa 0c3d 8711 e73b 3125 f43c 3e6b 853b
000001d0: 0869 aa3e 4b58 b83c 0932 803c b3aa d03c
000001e0: 1533 203f aa56 c83d 21d9 013f 2615 0a3c
000001f0: 4075 9a3b cd42 243f 3d24 af3c 9f75 173e
00000200: a114 383e c6d7 9d3f 189e 643e a914 b93f
00000210: 952c 003e 5d9c 403f 3ce7 de3f 698c da3d
00000220: 7364 e73d 3176 993f bc9d 843f a019 853f
00000230: f1cc ec3f 1e97 ca3f 58e3 9e3e 0326 823d
00000240: ee65 b63e 4464 332f 101f 6f3f 95e3 113f
00000250: 4fb0 943d 7de7 983e 81a3 163d dda1 8d3e
00000260: 7817 493f 7a74 3b3f 0b60 7d3e db9e bb3e
00000270: e74e 963f 79d1 a63f c03c b13e a2c8 933e
00000280: b124 be3f a052 523f c031 953f 36cb 3c3e
00000290: 7aac b23f 9c83 b63f 7d49 343f ef8d 5a3f
000002a0: d51e 4a3f 5438 c03e 37b5 a23f 4343 533f
000002b0: 23da 0940 a9f3 b43e 96fb aa3f b5b1 4c3f
000002c0: f83e 673f ddbd 7e3e 721e bf3e d6db 573e
000002d0: 1ec5 af3e e104 3a3f cda6 213f 2a5d 3a3f
000002e0: b486 2440 ff7c 333e 04fb 0240 39d3 133e
000002f0: 505d 473e 3fed d73e 0b0f 023c 8ae5 a63e
00000300: 7324 533a 7c79 803b 0b96 883c 4f2f e23c
00000310: 1d34 633c cac7 5a3c 84df 713b 025c 1b3c
00000320: 8338 073c 8b74 fb3c 397f 8d3c 2000 2b3d
00000330: e379 3c3d 19be 113d 52e9 193d f18d 8b3b
00000340: a5f4 843b 20ae 4332 a1b9 4c3b 7be7 653c
00000350: eed0 363a 3f74 8e3a e503 583b 461c b13b
00000360: 2955 d93a 4e0a 653c ade4 883c 417b d53c
00000370: ced4 b83b 86e2 433b b5f1 e339 0510 533c
00000380: 73cf 513c f7f7 983b 4c0c a63c dfa6 343c
00000390: 3106 983c c124 013d 436b b53b 8174 5d3d
000003a0: f8a1 db3b deb8 013c 004d 7e3d a3c9 c73c
000003b0: 0430 a03d 1fa9 503a 97bd 153d 71ae 763b
000003c0: 1f21 893c 1bb9 cd39 3a19 cf3b fd87 693b
000003d0: 8ee7 043c dd3d b63a aa9f 683a 940c f93a
000003e0: 5a76 8e3d 06c9 223c 7cdc aa3d 8141 143a
000003f0: 76d9 1a3a cd56 4c3c 2792 6d3a c477 303c
0.3232775 1.0333241 0.39192522 1.3355098 0.6212904 0.55596656 0.29839376 0.26951563
0.66641885 1.4983468 0.8350521 1.2749417 2.3086195 0.92077565 1.4660498 0.33853906
0.24919134 3.4085783e-09 0.062307373 0.5218431 0.42386505 0.4848026 0.6030983 0.21412577
0.49710706 0.56752634 1.373911 3.1632497 0.14346826 0.04769904 0.1506307 0.89759195
0.28828308 0.08702089 0.878153 2.0734549 0.60753757 0.6204803 0.10441084 1.5855144
0.67558694 1.2584808 1.6456668 1.2435611 3.2136898 0.015988206 1.6226038 0.102367625
0.5243041 0.25893402 0.25002906 0.10902109 0.40307254 0.09003991 0.060678612 0.03472433
1.96408 0.5169758 2.0377264 0.2991621 0.0026415035 0.7688045 0.10343558 2.0809665
0.013150622 0.07011762 0.44360733 0.21182016 0.29624072 0.018275797 0.044542402 0.2445724
0.31893957 0.07508695 0.12230669 0.8040719 0.9222636 0.050336502 0.70662594 0.16993816
0.047282718 3.740235e-11 0.04067171 0.20668733 0.008798388 0.015558356 0.09957699 0.037581827
0.028730331 0.029282212 0.19918671 0.37630635 0.031919096 0.042967808 0.008957585 0.7349032
0.053979225 0.038251422 0.080603234 0.21892026 0.090606034 0.03934842 0.016898725 0.45866188
0.09103697 0.10789427 0.6696199 0.60676533 0.19136134 0.012315313 0.8406486 0.039648715
0.034342654 0.00705165 0.02980289 0.004071622 0.33283257 0.022503039 0.015648859 0.02547202
0.62577945 0.09782155 0.5072194 0.008427894 0.0047136843 0.6416443 0.021379584 0.14790963
0.1797662 1.2331474 0.22325933 1.445943 0.12517007 0.7523859 1.7414317 0.10671312
0.11298456 1.1989194 1.0360637 1.0398445 1.8500043 1.5827367 0.31032825 0.063549064
0.3562464 1.6315577e-10 0.9340677 0.5698789 0.07260191 0.29864112 0.036777023 0.27662554
0.78551435 0.73224604 0.24743669 0.36644635 1.1742829 1.3032676 0.3461666 0.28864008
1.4854947 0.82157326 1.1655807 0.18436894 1.3958886 1.4258914 0.70424634 0.85372823
0.78953296 0.37542975 1.2711552 0.8252451 2.153939 0.35342148 1.3358028 0.7995866
0.9033046 0.24877115 0.37327915 0.21079955 0.34330076 0.72663695 0.6314514 0.7279841
2.5707216 0.17528151 2.0465708 0.14436044 0.1946919 0.42173192 0.007938157 0.32597
0.00080544426 0.003920732 0.016673109 0.02761045 0.013867405 0.0133532975 0.0036906907 0.009482386
0.00825322 0.03069522 0.017272579 0.041748166 0.046014678 0.035581682 0.037576027 0.004258864
0.004057484 1.1390085e-08 0.0031238573 0.01403224 0.0006973882 0.0010868384 0.0032961306 0.005404982
0.0016581166 0.013979508 0.016710604 0.026059749 0.0056406027 0.0029889657 0.000434769 0.012882237
0.012805807 0.0046682316 0.020269535 0.011026113 0.01855764 0.031529192 0.0055364682 0.054066185
0.006702658 0.007917611 0.06208515 0.02438814 0.07821658 0.00079597713 0.03655776 0.0037640596
0.016739426 0.0003923856 0.006320146 0.0035634034 0.008111848 0.0013903935 0.00088738895 0.0019000941
0.069561675 0.009935623 0.08342835 0.0005655513 0.0005907038 0.012471867 0.0009062611 0.010770742

sum f4 [512, 128]
00000000: 4d9b dc3d d25e e13d d90f 9f3c 3bbe 7b3d
00000010: 3db9 c73e 6ef9 a73e 7f16 c03d 0143 783c
00000020: 4160 823e 6bb7 783e 6c05 5c3c b544 913d
00000030: b86b 523d 2d12 823e 1bc1 673e 57cc 163d
00000040: 81f5 983d 6b73 3a3e 426c 9a3d d42e 8e3e
00000050: 2b01 463d 420f 063f 2527 0b3e 9ced 043e
00000060: 6a13 ba3c d044 e93b b314 4f3e 9f27 b43c
00000070: 925c 373d 59e6 0b3d d7b3 693d d682 183e
00000080: 4f26 433d 507f 903c 6d40 573e c23b 953c
00000090: d72d 263c ef82 0d3e 2d7d a43e efff e03c
000000a0: fcc3 ea3d 43f8 343e 3d20 093f 48b4 9f3d
000000b0: 3ef0 2a3e 92fb c63d 1d71 373d 3f41 503d
000000c0: 2184 533e b866 383e 894c 8b3c 1207 223f
000000d0: 5ae7 c63b e3d5 1e3e 1c4a 273d 534a ab3d
000000e0: 2e24 e53d 0d71 503d ba7d 603e b755 a53d
000000f0: aebe 1e3f 94a6 fc3c 44be a43c a4d0 923e
00000100: 3dde a33d 9860 1b3e a203 263c 63b4 fa3d
00000110: 5220 113d 6fa7 053f e771 303d 864a 513c
00000120: ba50 883e 6cfa 8c3c c4a7 4f3e f331 fc3e
00000130: d56e 513d b6a1 1a3c 0a86 d53c 71a2 bc3d
00000140: 2195 233d d7b2 6c3e 48a1 8e3c dc30 093d
00000150: a397 553e 879d 953c 7577 133f 02fd 0c3f
00000160: 1d4a ed3d fef9 243d 9521 fa3d dc3e 9e3e
00000170: 330e fb3c dfea 183c 5e1d 1b3e f17d 693e
00000180: 11c9 f13b 941c f13c 14fe 653e 4800 303e
00000190: 1583 bd3d 4310 883e 68b2 d93e beda 083d
000001a0: 81c0 3d3e dacf 073f 47a7 843e 3d94 9a3e
000001b0: 4592 363f cb1c 213d 5d18 1e3e 8bca 413e
000001c0: 2d3f 003f ddab af3d 13ce 233d e99a fd3d
000001d0: d945 133d 61f0 9b3c 8d27 923e 13a9 aa3e
000001e0: b81d af3d 4d28 a23d 6437 2b3e ea01 cc3d
000001f0: f829 693d 35fe 8a3d 7765 773e 20dc 303d
00000200: e35b a73c 955a ac3c cbf8 053b 0981 2e3c
00000210: 3291 c23d 57fd ea3d f7d5 223d f180 9c3b
00000220: 4ade 253d 0cf2 903d 4bdb cd39 fbdf 4f3c
00000230: 1db5 063d ea3d b83d 065c a53d a8dc af3b
00000240: fa32 fc3c 72f8 b23d 19e2 263c 7761 553d
00000250: 294b e63c 1213 1a3e 7305 483d bdd7 af3c
00000260: 50ee 753b e96f 2a3a 3546 913d ccc7 7e3a
00000270: 9f37 2c3c cbbf bb3b 9de6 023d 6f94 b43c
00000280: d1ed 0a3d 889c 4e3b f1ef 443d 7a56 3f3a
00000290: b3d9 803a 79ce ba3c 1583 a43d e558 cc3b
000002a0: 2dff f53c 4ca2 7b3d fabd 053e 2e5e 783c
000002b0: 9f4b 783d d5b7 c53c 760f d03b 47bb 983b
000002c0: 643c 063d 5054 c43c fe22 973b edac 163e
000002d0: 2d17 8e3b afc1 4c3d 62f3 d03b 84a9 3b3c
000002e0: a97b 853c 7b39 d03c 22ed 8d3d 91fc 433c
000002f0: 0cd0 153e 84c6 263c d0b6 8c3a ceb0 7f3d
00000300: b186 133c c66c 823d b9e0 923b c5da a53c
00000310: ced6 e13b 8ecb 013e 092d 8f3c 02ec 0a3b
00000320: 5526 203d 364c 6d3c b60a 1b3d 9f04 ea3d
00000330: 52cb 0a3c a8a6 ff3a da49 723a 4dc1 213d
00000340: 7cbd 7b3b 9d3b a13d adb4 f23a d08d 903b
00000350: cf6d 6f3d 10e4 3f3c 016d 103e aadd 053e
00000360: 808a 1a3d 906f a83c 5b6d b33c 5420 ac3d
00000370: a0ba 1d3c 25b5 e73b c5d9 f33c 8aad 9c3d
00000380: 95a5 af3b ee8c 633c 7b10 2c3d cc62 c93c
00000390: cae5 3f3d 444a a43d d9d0 fb3d e10b 4c3c
000003a0: 5e65 6d3d 0f65 123e d571 443d 7f47 583d
000003b0: 004d ec3d 28f7 3c3c 6cdd 433d e60f 023d
000003c0: 2c71 f23d 0f8e 823c 3913 573c 1b9a 9e3c
000003d0: 6952 833c 2a01 e63a 41fe 8f3d d39e cb3d
000003e0: c110 453d 8ccd 823c 5829 b33c a37c 9b3c
000003f0: efe0 263c fbb1 963c 5b9a 0a3d 1ffc d03c
0.10771809 0.11004414 0.019416736 0.061460715 0.39008513 0.32807487 0.09379291 0.015152694
0.2546406 0.24288718 0.013429027 0.07093183 0.05137226 0.25404492 0.22632258 0.036815967
0.07468701 0.18208091 0.0754018 0.27770102 0.048340958 0.5236703 0.13589151 0.12981266
0.022714335 0.007118799 0.2022274 0.021991549 0.044766016 0.034155224 0.057056274 0.1489366
0.047643956 0.017638832 0.2102067 0.018216971 0.010142765 0.13819478 0.32126752 0.027465789
0.11463162 0.1767283 0.53564817 0.07798058 0.16693208 0.09715952 0.044785608 0.050843474
0.20655872 0.18007934 0.017004268 0.6329204 0.0060700597 0.15511279 0.04084216 0.083637856
0.11188541 0.050889064 0.21922961 0.080729894 0.62009704 0.03084115 0.020110257 0.28674805
0.08001373 0.15173566 0.010132702 0.12241437 0.035431214 0.5220861 0.043077376 0.012774115
0.2662409 0.017209254 0.20278841 0.49256858 0.05113109 0.009437969 0.026064891 0.09210671
0.039937142 0.23115097 0.01741089 0.03349386 0.20858626 0.018263591 0.5760415 0.5507356
0.115864016 0.040277474 0.122134365 0.30907333 0.03064642 0.009333341 0.15147921 0.22801949
0.0073787053 0.029432572 0.22460204 0.17187607 0.092535175 0.26574907 0.42518926 0.033411734
0.18530466 0.5305153 0.25908872 0.30191222 0.7131694 0.0393341 0.15438981 0.1892492
0.500964 0.08577702 0.03999145 0.123830624 0.035955284 0.01903552 0.285458 0.33332118
0.0855059 0.07917843 0.16720349 0.099613026 0.05692479 0.067867674 0.241598 0.043178678
0.020429557 0.021039287 0.0020442482 0.010650882 0.0950035 0.11474102 0.039754834 0.004776113
0.040495194 0.07077417 0.00039264033 0.012687678 0.032887567 0.08996184 0.08074193 0.0053668804
0.030786026 0.087387934 0.010185742 0.052094903 0.028112011 0.15046337 0.04883332 0.021465177
0.0037526079 0.0006501661 0.07093469 0.0009719103 0.010511308 0.0057296506 0.03195821 0.022043435
0.033918206 0.0031526405 0.04808039 0.0007298958 0.0009830504 0.022803532 0.080328144 0.006236183
0.030028904 0.061434075 0.13060752 0.015159173 0.060618993 0.02413551 0.0063494993 0.004660997
0.032772437 0.023965985 0.0046123257 0.14714403 0.004336259 0.0499894 0.0063766697 0.01145399
0.016294317 0.025418034 0.06929995 0.011962072 0.14630145 0.010179166 0.0010735635 0.062424473
0.009004281 0.06368403 0.0044823554 0.020245919 0.006892062 0.12675306 0.01747753 0.00211978
0.039099056 0.014483502 0.03785201 0.11426663 0.008471327 0.0019504623 0.0009242572 0.039490987
0.0038412502 0.078726985 0.001851698 0.0044114366 0.05845433 0.011712089 0.14104082 0.1307284
0.03772974 0.02056101 0.02190273 0.084046036 0.009627014 0.0070711547 0.029766927 0.076502874
0.005360315 0.013888581 0.042007904 0.024583243 0.046850003 0.080219775 0.12295694 0.012454004
0.057958 0.14296363 0.04796012 0.05280256 0.11538124 0.011533536 0.047818586 0.031753443
0.11837992 0.01593688 0.013127142 0.019360593 0.016030507 0.0017547954 0.07030917 0.09942403
0.04811168 0.015967153 0.0218703 0.01898033 0.010185464 0.018395415 0.03383861 0.025510846
